20Agents-goal_critic.pth (torch_old, 118307 bytes, 13 tensors)

fc1.weight f4 [148, 33]
0.22415173 -0.26112825 -0.18703087 -0.04620174 -0.078962214 -0.10965452 0.07726878 -0.022233661
-0.08576603 0.11196398 -0.031569622 -0.055157404 0.019424414 -0.31640536 0.20239165 0.19521919
0.090535 0.053841442 -0.02562241 -0.116841264 0.05280279 -0.03372857 0.071920075 -0.06959476
0.025897764 0.1032078 0.2770288 -0.08069519 -0.15107769 -0.0773874 -0.021506118 -0.075556085
-1.7849561 -0.16154091 0.36814186 -0.25565135 -0.09384165 -0.02846717 -0.093836986 -0.08989611
0.018300964 -0.16230576 0.26530594 -0.10463748 0.10763775 0.069285996 -0.30420458 0.1911034
0.11301952 0.14006034 -0.049213458 0.18283159 -0.2116307 0.0248466 -0.08460302 0.18133144
-0.138004 0.20999528 0.099370345 0.098923855 0.055271164 -0.33023602 -0.0039573386 0.050535522
0.05594609 -1.4141495 0.089921296 -0.1638838 0.14679001 0.10068453 -0.0060905344 -0.12874337
0.23632067 -0.4014615 0.025576787 0.066414624 0.14194089 -0.17529137 0.39973423 -0.2192752
-0.19453189 -0.05600122 -0.14735496 0.40373483 0.20493057 -0.034988027 0.04035313 -0.068626806
-0.106034756 0.3054639 -0.19188054 0.38822562 -0.29566923 -0.06320664 -0.10718408 0.0640334
0.02464278 0.06214442 0.625224 0.27096236 -0.092828445 -0.024250517 0.116252705 0.06382425
-0.075052276 -0.069108345 -0.05495036 0.17725603 0.047351725 0.023120424 -0.06929112 -0.029722378
-0.38809216 0.07148156 0.006524751 -0.18791634 -0.09296802 0.055424817 -0.057780005 0.009880275
-0.004199385 -0.06491992 -0.162088 0.017611746 0.06565766 0.12420555 0.09636499 0.14950451
-0.03500643 -0.082515374 0.019144304 2.0093272 0.5530602 -0.33004278 0.10281728 0.059477974
-0.22472765 0.08905057 0.21121997 0.10452604 0.07706663 -0.12192571 0.05718285 0.0023967386
-0.011744347 -0.53031343 -0.02158583 -0.117550485 -0.01624662 -0.051046982 0.023394287 0.08045596
-0.034327097 -0.12456839 0.070538335 -0.3236209 -0.122860014 -0.009910333 -0.030045409 0.028957319
0.11107053 0.06316192 -0.039407887 0.028930508 0.9911811 -0.6385713 0.42183626 0.02578907
0.24505782 -0.1346938 0.08448365 0.23691453 0.20914082 -0.0031136493 0.43343422 -0.15133637
0.1066214 0.1507763 -0.0062306738 -0.078564994 -0.042937256 -0.17560196 0.19876851 -0.23414572
0.17937651 -0.01993393 -0.35145354 0.19764566 0.24732065 -0.17497897 -0.003129378 0.32747564
-0.053769983 -0.14171444 0.016331963 0.012719741 -0.014107414 0.37633678 -0.0063291015 -0.10003148
0.058044802 -0.20865084 0.033945315 0.23251183 0.09530744 0.053160816 -0.10705899 -0.055098962
-0.1220616 0.23099133 0.09922059 0.000101298734 0.23960845 0.36131757 -0.014963917 0.029537665
-0.05206332 0.091822594 -0.0879231 0.036178395 0.021801623 0.08125116 0.26804087 0.33281082
0.3194748 0.075854376 -0.19372292 0.061082624 0.009985816 -0.012696363 0.6676843 -0.23696704
-0.83497226 0.56546515 0.066604786 -0.33758402 -0.47517207 -0.039105352 0.15801887 0.41974935
-0.1414618 0.2957815 -0.21290381 0.2125152 0.0009251829 0.034565676 0.08175514 0.35514402
-0.13645412 0.005668057 -0.054863743 -0.010019048 -0.1975654 -0.4973821 -0.19242676 0.1445257
00000000: 0888 653e 9ab2 85be 0585 3fbe 093e 3dbd
00000010: f1b6 a1bd 8d92 e0bd 183f 9e3d 5e23 b6bc
00000020: 1aa6 afbd 5f4d e53d 264f 01bd bbec 61bd
00000030: f31f 9f3c e2ff a1be c23f 4f3e 8ae7 473e
00000040: 6a6a b93d d888 5c3d 17e6 d1bc 794a efbd
00000050: bd47 583d f826 0abd d54a 933d b387 8ebd
00000060: 8c27 d43c 9c5e d33d b8d6 8d3e 8543 a5bd
00000070: 1cb4 1abe 497d 9ebd 992d b0bc 26bd 9abd
00000080: 7179 e4bf fb6a 25be 177d bc3e bce4 82be
00000090: 0d30 c0bd fc33 e9bc 9b2d c0bd 741b b8bd
000000a0: e7eb 953c 7b33 26be 2ed6 873e 2d4c d6bd
000000b0: 2e71 dc3d d1e5 8d3d b4c0 9bbe 9cb0 433e
000000c0: c776 e73d fa6b 0f3e 0d94 49bd 3438 3b3e
000000d0: b8b5 58be 198b cb3c 5944 adbd f3ae 393e
000000e0: ec50 0dbe 0109 573e ae82 cb3d 9798 ca3d
000000f0: 0464 623d b214 a9be 90ac 81bb 56fe 4e3d
00000100: ba27 653d da02 b5bf a828 b83d 28d1 27be
00000110: 1f50 163e b133 ce3d 1b93 c7bb 4dd5 03be
00000120: 0cfe 713e 5d8c cdbe 6986 d13c 6404 883d
00000130: f458 113e 957f 33be f7a9 cc3e ae89 60be
00000140: 5e33 47be 8961 65bd 38e4 16be 55b6 ce3e
00000150: 52d9 513e 9b4f 0fbd 5349 253d 368c 8cbd
00000160: c028 d9bd c465 9c3e 557c 44be 82c5 c63e
00000170: f561 97be 7c72 81bd 5483 dbbd f123 833d
00000180: a8df c93c 268b 7e3d ae0e 203f 94bb 8a3e
00000190: d71c bebd 05a9 c6bc e615 ee3d 4ab6 823d
000001a0: 02b5 99bd ad88 8dbd a113 61bd 9b82 353e
000001b0: e2f3 413d 0b67 bd3c 81e8 8dbd 587c f3bc
000001c0: 04b4 c6be ed64 923d 94cd d53b 246d 40be
000001d0: 0466 bebd 2205 633d baaa 6cbd e1e0 213c
000001e0: ff9a 89bb bcf4 84bd 66fa 25be 8246 903c
000001f0: 8677 863d 7b5f fe3d 025b c53d b617 193e
00000200: e762 0fbd d2fd a8bd 84d4 9c3c d198 0040
00000210: 5a95 0d3f 5efb a8be de91 d23d 2d9f 733d
00000220: 011f 66be 2560 b63d 0c4a 583e c011 d63d
00000230: 1cd5 9d3d 30b4 f9bd 9038 6a3d 9a12 1d3b
00000240: 5d6b 40bc 9fc2 07bf c4d4 b0bc 4fbe f0bd
00000250: a217 85bc a416 51bd 60a5 bf3c 18c6 a43d
00000260: 929a 0cbd b61d ffbd 6776 903d a3b1 a5be
00000270: 089e fbbd f35e 22bc ca21 f6bc e637 ed3c
00000280: f278 e33d 095b 813d 2a6a 21bd acff ec3c
00000290: 0bbe 7d3f 6979 23bf ecfa d73e 9a43 d33c
000002a0: 70f0 7a3e 2ced 09be c405 ad3d b999 723e
000002b0: 0329 563e 5e0e 4cbb 17eb dd3e ecf7 1abe
000002c0: 525c da3d 1a65 1a3e ae2a ccbb afe6 a0bd
000002d0: fade 2fbd 00d1 33be f989 4b3e e5c3 6fbe
000002e0: 7aae 373e 7b4c a3bc b8f1 b3be a063 4a3e
000002f0: a041 7d3e b02d 33be 4016 4dbb e3aa a73e
00000300: ea3d 5cbd 971d 11be 9cca 853c 7666 503c
00000310: c822 67bc 37af c03e 5a64 cfbb 4edd ccbd
00000320: 63c0 6d3d 91a8 55be 3e0a 0b3d 9517 6e3e
00000330: 8c30 c33d 28bf 593d be41 dbbd 73af 61bd
00000340: 6ffb f9bd fe88 6c3e 2a34 cb3d 5870 d438
00000350: eb5b 753e 9efe b83e 382b 75bc f9f8 f13c
00000360: 5940 55bd 7c0d bc3d 0711 b4bd cc2f 143d
00000370: 5199 b23c 0267 a63d a73c 893e 2e66 aa3e
00000380: 3392 a33e 8a59 9b3d 4d5f 46be c631 7a3d
00000390: 8c9b 233c 6804 50bc 5ced 2a3f 7da7 72be
000003a0: bec0 55bf 53c2 103f 1768 883d d0d7 acbe
000003b0: c149 f3be ef2c 20bd b3cf 213e 63e9 d63e
000003c0: 5ddb 10be ac70 973e 7503 5abe 969d 593e
000003d0: f987 723a bd94 0d3d 3d6f a73d 70d5 b53e
000003e0: a1ba 0bbe 1cbb b93b ceb8 60bd ef26 24bc
000003f0: 964e 4abe dea8 febe 850b 45be 8cfe 133e

fc1.bias f4 [148]
-0.03625695 0.10272396 0.01893181 0.062014155 0.13893452 -0.20613036 0.14526062 0.095082074
-0.052598786 -0.17977506 -0.096798025 0.13138735 -0.09212079 -0.05332853 -0.08464844 0.07528253
0.034162175 -0.059988543 0.1742397 0.11813159 -0.09973498 -0.18856882 -0.24746166 0.004352444
-0.1554114 0.14499012 0.054963488 0.02212944 0.017673189 0.01548344 -0.114318386 -0.13873239
0.14433585 0.12822895 0.10102521 0.16811866 -0.1508964 -0.15064164 0.10379482 0.16089877
0.042848665 0.056629352 0.08830012 0.07464133 -0.041151926 -0.064232156 -0.0004581451 0.1276933
-0.032938723 -0.11717813 0.021852674 0.11598638 0.038599808 -0.15368192 -0.07205718 0.0931378
0.08813512 -0.09340551 -0.104335345 0.042189322 -0.15101357 0.09217915 0.02596315 0.026667401
0.003808954 0.13970368 0.02808748 -0.08008966 0.07879649 -0.19523442 -0.04401099 0.12758175
0.07143634 -0.13232584 -0.021731116 0.12762065 0.11234095 0.043857206 0.17149629 0.12176123
-0.025960505 -0.14061894 -0.060225774 0.028203165 -0.17684539 0.1392378 -0.18305844 0.16876258
-0.09001565 0.04068878 -0.16974467 0.07597833 0.080608025 0.04242557 0.07435667 0.04572988
0.14875779 0.058610525 0.07331189 -0.03235886 -0.09312648 -0.19076835 0.036557075 0.124413796
0.112381935 0.15686251 0.11697166 -0.1386261 -0.082769856 0.14053927 -0.011877063 -0.13481389
0.011304644 -0.12785402 0.14224367 -0.005474878 -0.1318776 0.07479352 0.017326592 0.10299014
-0.13717365 0.10494976 -0.13397193 0.038690176 0.11903689 0.03131987 -0.12449371 -0.16158788
0.16610187 0.1658528 -0.0312909 0.07169837 0.097133905 -0.09399426 0.0578975 -0.11331475
-0.1409798 0.06650537 0.15936373 0.06701978 -0.01964598 0.1688687 -0.058560867 0.06269459
-0.032685053 -0.07612923 -0.19241877 0.15577616
00000000: 2b82 14bd f160 d23d e216 9b3c 8e02 7e3d
00000010: da44 0e3e d613 53be 33bf 143e 64ba c23d
00000020: d371 57bd f416 38be 0b3e c6bd 688a 063e
00000030: d3a9 bcbd 046f 5abd 295c adbd ba2d 9a3d
00000040: a3ed 0b3d 8cb6 75bd e46b 323e faee f13d
00000050: da41 ccbd 2f18 41be 9766 7dbe f29e 8e3b
00000060: 2b24 1fbe 4a78 143e 6521 613d cd48 b53c
00000070: 5dc7 903c 41ae 7d3c c21f eabd dd0f 0ebe
00000080: c7cc 133e 734e 033e 4ee6 ce3d 4c27 2c3e
00000090: 9684 1abe cd41 1abe 6192 d43d a6c2 243e
000000a0: 1582 2f3d 2ef4 673d b1d6 b43d 8edd 983d
000000b0: ec8e 28bd 268c 83bd 3233 f0b9 08c2 023e
000000c0: c1ea 06bd 16fb efbd 6104 b33c 448a ed3d
000000d0: d51a 1e3d cb5e 1dbe b792 93bd 08bf be3d
000000e0: 3080 b43d 634b bfbd c5ad d5bd b6ce 2c3d
000000f0: 4da3 1abe 6cc8 bc3d acb0 d43c 9875 da3c
00000100: a59f 793b 7b0e 0f3e b717 e63c 0c06 a4bd
00000110: 0e60 a13d 88eb 47be de44 34bd caa4 023e
00000120: 374d 923d 6d80 07be 7405 b2bc fdae 023e
00000130: 0313 e63d 9da3 333d b99c 2f3e f45d f93d
00000140: 20ab d4bc 69fe 0fbe 4daf 76bd 530a e73c
00000150: f516 35be 5b94 0e3e ac73 3bbe 19d0 2c3e
00000160: 205a b8bd 47a9 263d 8cd1 2dbe 879a 9b3d
00000170: d215 a53d 6fc6 2d3d 4f48 983d 414f 3b3d
00000180: f653 183e 9711 703d 8b24 963d b98a 04bd
00000190: 19b9 bebd c758 43be dfbc 153d a9cc fe3d
000001a0: 8028 e63d 91a0 203e d68e ef3d 00f4 0dbe
000001b0: 3e83 a9bd 87e9 0f3e 0398 42bc a70c 0abe
000001c0: 1d37 393c 2aec 02be 53a8 113e 9b66 b3bb
000001d0: ec0a 07be 582d 993d 7ff0 8d3c 7fec d23d
000001e0: 4077 0cbe e6ef d63d f02f 09be 9779 1e3d
000001f0: 9dc9 f33d 4449 003d 8ff6 febd 4b77 25be
00000200: 9c16 2a3e 51d5 293e e32a 00bd 98d6 923d
00000210: 24ee c63d 1080 c0bd ee25 6d3d 9011 e8bd
00000220: 025d 10be f833 883d 3f30 233e ab41 893d
00000230: 9bf0 a0bc ebeb 2c3e 85dd 6fbd 0566 803d
00000240: c3e0 05bd a4e9 9bbd 6d09 45be c983 1f3e

bn1.weight f4 [148]
0.6005507 0.48122478 0.509783 0.66202 0.47321668 0.38502017 0.62749773 0.17292532
0.74150926 0.4307075 0.5717723 0.5169829 0.35625222 0.25861666 0.59751564 0.7681174
0.43724936 0.6107194 0.4919676 0.23078072 0.5247864 0.8792739 0.5071392 0.35458362
0.6467824 0.50075173 0.0059489473 0.3500551 0.30528623 0.59541595 0.39166072 0.38245508
0.5111438 0.35847557 0.34466788 0.36775407 0.622985 0.3077396 0.39825615 0.3085797
0.45157528 0.5285738 0.3504113 0.60292894 0.4960163 0.55648893 0.52458954 0.6131776
0.51314974 0.8836999 0.40103754 0.6128949 0.46125612 0.5266604 0.38227183 0.45931658
0.32929024 0.18173091 0.4101282 0.26709482 0.18762696 0.39191815 0.31929973 0.7535923
0.3453427 0.6833302 0.32623336 0.58815473 0.3321015 1.0373256 0.4130876 0.69531757
0.42262638 0.33549148 0.23623042 0.46135163 0.29791084 0.55303645 0.35315055 0.3115161
0.30228898 0.67500216 0.5891307 0.3026742 0.33157784 0.5932092 0.59007585 0.72443974
0.53037703 0.5858309 0.27704754 0.37782034 0.24583107 0.44623145 0.58849937 0.53534037
0.43953884 0.61034024 0.20732525 0.8754105 0.27149722 0.41041002 0.5237237 0.632521
0.5437374 0.5315584 0.45949277 0.44823447 0.6563763 0.28381413 0.42303008 0.2685832
0.8661646 0.36858672 0.32378048 0.63522166 0.35730746 0.57394916 0.44275153 0.6457144
0.41842446 0.4555283 0.5439926 0.8762496 0.26863015 0.7635527 0.5333091 0.6150512
0.5674188 0.50998706 0.30112666 0.37759382 0.40136373 0.606976 0.27733847 0.4419781
0.7608771 0.3576979 0.7215052 0.3631274 0.80303204 0.414705 0.41449174 0.62051356
0.4198147 0.50006044 0.38617927 0.1419866
00000000: b1bd 193f 1863 f63e 2481 023f 257a 293f
00000010: 7549 f23e 5d21 c53e b1a3 203f 5613 313e
00000020: 8dd3 3d3f b285 dc3e ab5f 123f fe58 043f
00000030: b166 b63e 6769 843e c9f6 183f 58a3 443f
00000040: 26df df3e 1b58 1c3f 2de3 fb3e c851 6c3e
00000050: 6758 063f 1818 613f e0d3 013f fc8b b53e
00000060: 8893 253f 4431 003f 63ef c23b 6c3a b33e
00000070: 7a4e 9c3e 2e6d 183f c187 c83e 27d1 c33e
00000080: 52da 023f 1c8a b73e 4f78 b03e 434a bc3e
00000090: f27b 1f3f 0b90 9d3e 3be8 cb3e 29fe 9d3e
000000a0: e034 e73e 9d50 073f 1c69 b33e 8d59 1a3f
000000b0: d9f5 fd3e 0f76 0e3f 804b 063f 35f9 1c3f
000000c0: c85d 033f 283a 623f cb54 cd3e aee6 1c3f
000000d0: c329 ec3e 37d3 063f 22b9 c33e 8b2b eb3e
000000e0: bb98 a83e ab17 3a3e 53fc d13e a7c0 883e
000000f0: 4821 403e 7fa9 c83e 417b a33e 6deb 403f
00000100: c2d0 b03e baee 2e3f 0f08 a73e 4f91 163f
00000110: 3509 aa3e 16c7 843f 3880 d33e 5500 323f
00000120: 7c62 d83e 8ac5 ab3e 63e6 713e 4836 ec3e
00000130: c587 983e cc93 0d3f 26d0 b43e 0a7f 9f3e
00000140: 9fc5 9a3e f1cc 2c3f 45d1 163f 1df8 9a3e
00000150: 92c4 a93e 8fdc 173f 360f 173f e274 393f
00000160: cac6 073f 04f9 153f 2dd9 8d3e ab71 c13e
00000170: 24bb 7b3e 7378 e43e e5a7 163f 110c 093f
00000180: 3c0b e13e 423f 1c3f 124d 543e e71a 603f
00000190: af01 8b3e 4321 d23e c212 063f e5ec 213f
000001a0: 6032 0b3f 3614 083f a342 eb3e fd7e e53e
000001b0: 4708 283f 1650 913e 6697 d83e bd83 893e
000001c0: f7bc 5d3f 66b7 bc3e 8ec6 a53e e39d 223f
000001d0: 01f1 b63e 55ee 123f 54b0 e23e 8a4d 253f
000001e0: bb3b d63e 013b e93e 1943 0b3f e551 603f
000001f0: e489 893e 3178 433f f286 083f ff73 1d3f
00000200: 5c42 113f 838e 023f 462d 9a3e fa53 c13e
00000210: 8c7f cd3e c762 1b3f 4fff 8d3e f44a e23e
00000220: d7c8 423f 2e24 b73e 91b4 383f d6eb b93e
00000230: 8293 4d3f 3754 d43e 4338 d43e fad9 1e3f
00000240: f4f1 d63e f603 003f 4ab9 c53e ef64 113e

bn1.bias f4 [148]
-0.2631524 -0.32255986 -0.55224884 -0.37352738 -0.005816804 -0.22983801 -0.33848274 0.023054989
-0.21549836 0.51240236 -0.4738368 -0.27639455 -0.0580825 -0.24461782 -0.66556066 -0.15863019
-0.24959598 -0.47336388 -0.07961855 -0.20624155 -0.5325394 -1.1824244 -0.21298239 0.020164834
-0.43551326 -0.17151147 -0.09159501 -0.6568113 -0.19280966 -0.57439333 -0.2696148 -0.60770595
-0.6659374 -0.06318078 -0.22385713 -0.43199247 -0.5596459 -0.2625673 -0.3512592 -0.16299547
-0.56226516 -0.3698984 -0.16372854 0.008082183 -0.33093697 -0.08413794 -0.06555625 -0.2787503
-0.30248663 -0.4192524 -0.65395916 -0.26969606 -0.33531553 -0.53647757 -0.10989962 -0.47011113
-0.41071507 -0.0584189 -0.302543 -0.43097076 -0.101322 0.08118833 -0.23271629 0.12602535
-0.32513943 -0.27508363 -0.1820996 -0.4333826 0.36436862 -0.5126498 -0.4532965 0.00034022864
-0.5356556 -0.16359942 0.06572077 -0.5646145 -0.13857637 -0.4632617 -0.3300415 0.023124404
-0.5051278 -0.4644437 -0.05246308 -0.34712744 -0.42250988 -0.5608887 -0.14283141 -0.20297565
-0.118546456 -0.27004164 -0.09807002 -0.25878996 -0.26306877 -0.12736739 -0.49516997 -0.28645352
-0.590772 -0.030473283 0.41147223 -0.5473177 -0.2545619 -0.3939285 -0.24121203 -0.6249886
-0.26027545 -0.4980802 0.08474224 -0.45514464 -0.1155584 -0.1164074 -0.22263351 -0.15100837
-0.64809555 -0.35806382 -0.6288325 -0.19895406 0.05843673 -0.346236 -0.33449373 -0.7821225
-0.62278533 -0.27359384 -0.6819182 -0.4216591 -0.36350787 -0.4058618 -0.44542176 -0.015937524
-0.10701629 -0.4250652 -0.1519336 -0.104639776 -0.35744306 -0.84177697 -0.0700083 -0.29022953
-0.27797332 -0.34936658 -0.43586743 -0.32565898 -0.2567309 -0.20265107 -0.09628585 -0.65187347
-0.26292172 -0.015413432 -0.57930315 0.22317581
00000000: e9bb 86be 9126 a5be 2e60 0dbf fb3e bfbe
00000010: e39a bebb a85a 6bbe 9c4d adbe d1dd bc3c
00000020: 9aab 5cbe cd2c 033f bd9a f2be 9683 8dbe
00000030: eae7 6dbd 187d 7abe 2f62 2abf f46f 22be
00000040: 1796 7fbe c05c f2be 0d0f a3bd fc30 53be
00000050: 8154 08bf af59 97bf 0e18 5abe b930 a53c
00000060: 98fb debe b4a0 2fbe 2a96 bbbd c924 28bf
00000070: e56f 45be 710b 13bf f30a 8abe 9e92 1bbf
00000080: e07a 2abf ed64 81bd ce3a 65be 1e2e ddbe
00000090: f444 0fbf 396f 86be 3fd8 b3be 49e8 26be
000000a0: 9cf0 0fbf 5363 bdbe 74a8 27be 226b 043c
000000b0: 9270 a9be 8350 acbd 5b42 86bd 5cb8 8ebe
000000c0: 87df 9abe 40a8 d6be de69 27bf 9a15 8abe
000000d0: 7aae abbe 9856 09bf 0d13 e1bd 68b2 f0be
000000e0: 3f49 d2be a848 6fbd ebe6 9abe 33a8 dcbe
000000f0: e981 cfbd 1146 a63d 2e4d 6ebe ca0c 013e
00000100: ad78 a6be c3d7 8cbe 5178 3abe 53e4 ddbe
00000110: 868e ba3e 043d 03bf 7b16 e8be b760 b239
00000120: ba20 09bf 9b86 27be 9c98 863d 938a 10bf
00000130: f7e6 0dbe a330 edbe 33fb a8be 646f bd3c
00000140: 0e50 01bf 91cb edbe 87e3 56bd b0ba b1be
00000150: 3753 d8be 6796 0fbf 6642 12be d9d8 4fbe
00000160: 7cc8 f2bd e642 8abe efd8 c8bd 1e80 84be
00000170: f3b0 86be 996c 02be eb86 fdbe 09aa 92be
00000180: d53c 17bf 1ba3 f9bc 7dac d23e 031d 0cbf
00000190: f055 82be ffb0 c9be 4900 77be 41ff 1fbf
000001a0: d342 85be 5e04 ffbe 578d ad3d b808 e9be
000001b0: e2a9 ecbd 0167 eebd 0afa 63be f0a1 1abe
000001c0: 97e9 25bf 2454 b7be 2bfb 20bf 9dba 4bbe
000001d0: 5a5b 6f3d d845 b1be c342 abbe 2e39 48bf
000001e0: dc6e 1fbf 7e14 8cbe 3192 2ebf b4e3 d7be
000001f0: b41d babe 1ecd cfbe 520e e4be 698f 82bc
00000200: 5b2b dbbd 25a2 d9be 7b94 1bbe 614d d6bd
00000210: c702 b7be b27e 57bf 8360 8fbd f798 94be
00000220: 8552 8ebe 2de0 b2be 042a dfbe c6bc a6be
00000230: 3c72 83be c383 4fbe 8431 c5bd 2ee1 26bf
00000240: ad9d 86be 9f88 7cbc 364d 14bf 3388 643e

bn1.running_mean f4 [148]
0.018777786 -1.4761721 1.170346 -0.021938631 0.9506496 -0.8497931 -0.70704454 2.1749642
0.2889097 0.38575134 -0.16697761 -0.54078597 0.57089144 0.49906155 -1.0318471 -0.19703968
0.68578786 -0.1919677 0.3159783 0.51905763 -1.4509115 -1.1988289 -0.91039085 0.5196326
0.4861395 -0.17433311 0.16760902 0.5224228 -2.2178338 0.90229625 -1.9411894 -3.2319784
-0.03784344 0.60945356 -0.64538497 -0.64712876 -1.8055027 -0.056341443 -1.26071 -0.028392809
-1.2354251 -0.6988691 -1.4859228 -1.0669479 -1.0228822 0.89659923 0.634308 -0.60530114
1.5549781 -0.1444302 -0.71315 0.7996223 2.4905002 -0.7567091 -0.13366392 -1.2392004
-1.6181191 1.9739796 -1.8951557 -1.4063631 -1.680918 -0.24978328 -0.25284263 -0.08017845
0.9126703 -0.7307002 1.3749793 0.13494195 1.2779838 -0.7397015 -1.4478163 0.57227075
-1.1162379 2.3926077 1.4775285 0.79311746 -0.9866563 0.8997333 0.94280547 1.7224784
0.35864037 -0.5839237 -0.3581183 -1.4206021 -2.7932148 -1.2311312 2.3959544 1.2556283
-0.15879534 3.0104704 -0.07658519 0.011680299 0.3758169 -1.0963253 -1.1899604 -0.0020912802
-0.25191975 -0.11022372 1.799626 -0.041719977 -0.66810834 -0.6442539 0.15109448 0.671984
0.6232214 0.5032276 1.3003861 -0.99746627 0.73703396 0.46152452 1.4481442 0.8733025
-0.5590952 -0.24364132 -0.3077171 1.3546823 3.7068825 0.50764245 0.48466057 -1.0384488
-0.6359398 -0.65846395 -0.5129235 0.7078441 -0.51914984 0.6972453 -0.6770669 1.0517975
-0.5642949 0.3357463 -0.7258421 0.535767 -0.39039546 -1.8887517 1.06065 0.80912834
-1.0162729 1.7958971 0.37020957 -1.7749001 0.73711056 0.5597054 1.7847253 -0.6271334
1.3170239 0.68407065 -1.4104238 1.4734417
00000000: dfd3 993c 35f3 bcbf e6cd 953f a5b8 b3bc
00000010: c65d 733f 0a8c 59bf df00 35bf 9d32 0b40
00000020: f9eb 933e 3381 c53e 2efc 2abe f370 0abf
00000030: f125 123f ff84 ff3e 9113 84bf c5c4 49be
00000040: cb8f 2f3f 2e93 44be e8c7 a13e f6e0 043f
00000050: 78b7 b9bf 3a73 99bf 600f 69bf a406 053f
00000060: 47e7 f83e 6184 32be b3a1 2b3e 80bd 053f
00000070: fdf0 0dc0 e3fc 663f e578 f8bf bcd8 4ec0
00000080: b901 1bbd 2605 1c3f f337 25bf 3baa 25bf
00000090: b61a e7bf 49c6 66bd f25e a1bf 0998 e8bc
000000a0: 6922 9ebf 16e9 32bf b832 bebf c091 88bf
000000b0: ceed 82bf 8787 653f 0262 223f 04f5 1abf
000000c0: 8609 c73f 83e5 13be 0091 36bf 0cb4 4c3f
000000d0: 5b64 1f40 b0b7 41bf 32df 08be 1e9e 9ebf
000000e0: 871e cfbf 5dab fc3f 7694 f2bf b503 b4bf
000000f0: 5228 d7bf 30c7 7fbe 9774 81be 9934 a4bd
00000100: c3a4 693f 2b0f 3bbf 52ff af3f 392e 0a3e
00000110: f994 a33f 145d 3dbf 0b52 b9bf 5680 123f
00000120: e2e0 8ebf 7c20 1940 a71f bd3f bf09 4b3f
00000130: 8295 7cbf ec54 663f b35b 713f 2c7a dc3f
00000140: b69f b73e 067c 15bf 485b b7be 4ad6 b5bf
00000150: 08c4 32c0 b595 9dbf 5157 1940 6eb8 a03f
00000160: 3f9b 22be 8cab 4040 b2d8 9cbd ba5e 3f3c
00000170: 136b c03e 6354 8cbf 9f50 98bf dc0d 09bb
00000180: a0fb 80be f9bc e1bd 255a e63f 91e2 2abd
00000190: 2609 2bbf d3ed 24bf 83b8 1a3e 2507 2c3f
000001a0: 708b 1f3f 86d3 003f 0d73 a63f f359 7fbf
000001b0: 42ae 3c3f f14c ec3e ca5c b93f c190 5f3f
000001c0: dd20 0fbf 1c7d 79be 198d 9dbe 3b66 ad3f
000001d0: 903d 6d40 dbf4 013f 6e25 f83e e4eb 84bf
000001e0: f3cc 22bf 1891 28bf f44e 03bf 4535 353f
000001f0: 01e7 04bf ab7e 323f 4254 2dbf 4da1 863f
00000200: a175 10bf f0e6 ab3e cad0 39bf 0728 093f
00000210: eae1 c7be 9ec2 f1bf 61c3 873f 0923 4f3f
00000220: 3b15 82bf f5df e53f 1c8c bd3e ed2f e3bf
00000230: 47b3 3c3f da48 0f3f e171 e43f d18b 20bf
00000240: 3d94 a83f 411f 2f3f c488 b4bf bd99 bc3f

bn1.running_var f4 [148]
1.9461701 6.7594986 11.167388 2.9024374 3.8748758 3.5925484 6.0445275 2.4597435
1.2597574 1.2863322 4.1030455 1.7814983 5.8873515 4.441015 1.3220156 0.9169988
5.0646563 4.0310574 2.9655704 2.0968258 10.156248 1.6572998 1.0151882 4.679822
13.0844145 6.577862 2.1218636 5.322405 6.4039807 8.98551 6.4339566 5.6658325
4.5613947 2.853176 11.246295 4.759147 6.7242866 8.725861 4.001324 7.13735
5.2865996 3.149117 6.279584 2.697822 5.777263 2.8347135 1.7102487 5.457773
4.152517 4.2119317 6.348058 6.2643814 3.3352396 6.9809895 12.332089 2.1442418
3.3862584 7.3419075 6.8303437 3.000051 11.558856 6.1792474 4.8558035 1.5023206
15.391515 7.685903 6.438007 5.3307896 1.4246712 1.0188036 11.081142 4.2054396
2.0318198 5.5865746 3.3810906 8.899348 8.944262 4.4712 6.3022294 5.1046414
2.209631 6.2194705 0.8893694 7.9471703 5.297462 4.012804 5.114556 4.9906497
4.0026717 11.771511 2.362284 8.163054 6.7017565 7.4775243 11.054395 1.3318497
6.740451 1.0260329 1.3549575 5.3159814 6.135877 2.9018228 3.654049 4.679495
6.2279654 7.2328935 5.976682 2.702844 6.5166225 2.279297 13.417965 2.362877
2.0389812 20.452816 5.4929543 2.9800448 4.836631 7.712965 2.6926515 5.848807
3.6946335 3.7798433 3.2831647 1.9833559 3.2499197 4.358088 4.0668654 15.886395
1.0917186 8.128274 5.2046876 7.1585155 7.650026 2.3039777 4.0082145 8.091652
1.644836 12.44028 3.4557238 4.8981667 5.325421 3.413822 4.9200606 7.6936502
8.174851 5.6373014 4.201097 3.6415973
00000000: 1a1c f93f d04d d840 9fad 3241 89c1 3940
00000010: f7fd 7740 50ec 6540 c56c c140 706c 1d40
00000020: bb3f a13f 89a6 a43f 264c 8340 2308 e43f
00000030: 2f65 bc40 cb1c 8e40 cf37 a93f 6fc0 6a3f
00000040: aa11 a240 6cfe 8040 e8cb 3d40 6532 0640
00000050: fe7f 2241 6622 d43f b0f1 813f 1ac1 9540
00000060: c359 5141 d87d d240 9dcc 0740 2451 aa40
00000070: 69ed cc40 a6c4 0f41 f9e2 cd40 804e b540
00000080: f2f6 9140 709a 3640 d3f0 3341 ef4a 9840
00000090: 5b2d d740 209d 0b41 d90a 8040 2c65 e440
000000a0: d32b a940 228b 4940 5af2 c840 1ea9 2c40
000000b0: 57df b840 f26b 3540 6ee9 da3f 14a6 ae40
000000c0: 6be1 8440 25c8 8640 4b23 cb40 d075 c840
000000d0: 9174 5540 4464 df40 3d50 4541 423b 0940
000000e0: 75b8 5840 e8f0 ea40 2d92 da40 d600 4040
000000f0: 13f1 3841 65bc c540 be62 9b40 0b4c c03f
00000100: a543 7641 ebf2 f540 2704 ce40 d495 aa40
00000110: a05b b63f 2868 823f 5c4c 3141 f692 8640
00000120: 5609 0240 38c5 b240 ca63 5840 bb63 0e41
00000130: b21b 0f41 1214 8f40 ddab c940 3959 a340
00000140: 986a 0d40 e705 c740 b7ad 633f 384f fe40
00000150: cf84 a940 e468 8040 71aa a340 67b3 9f40
00000160: e315 8040 1c58 3c41 a92f 1740 df9b 0241
00000170: ca74 d640 e147 ef40 cdde 3041 0d7a aa3f
00000180: c6b1 d740 0c55 833f 3f6f ad3f 851c aa40
00000190: 1b59 c440 77b7 3940 f0db 6940 6cbe 9540
000001a0: 7e4b c740 dd73 e740 fb40 bf40 65fb 2c40
000001b0: 2c88 d040 01e0 1140 fcaf 5641 6039 1740
000001c0: ab7e 0240 5e9f a341 48c6 af40 0eb9 3e40
000001d0: aec5 9a40 9cd0 f640 6754 2c40 6d29 bb40
000001e0: e074 6c40 f4e8 7140 5f1f 5240 9bde fd3f
000001f0: affe 4f40 7575 8b40 c323 8240 ad2e 7e41
00000200: 6fbd 8b3f 690d 0241 cd8c a640 8f12 e540
00000210: 03cd f440 5f74 1340 4b43 8040 6877 0141
00000220: fc89 d23f 630b 4741 942a 5d40 c8bd 9c40
00000230: d969 aa40 0f7c 5a40 2371 9d40 6232 f640
00000240: 31cc 0241 c664 b440 636f 8640 ee0f 6940

fc2.weight f4 [148, 152]
-0.08371986 0.10462916 -0.36309567 0.25046492 -0.59269524 0.071655124 -0.10026333 0.13714634
0.22493859 -0.3303942 0.0051513207 -0.13469522 0.18627086 0.43278193 -0.14429045 0.1264623
0.5328736 -0.5944884 0.08201585 -0.1472972 0.24962759 -0.21847004 -0.09797476 -0.37509477
-0.038588997 0.24827673 -0.033498053 -0.27527517 -0.20042881 -0.40812024 -0.2157458 -0.46213016
-0.9029133 0.10377517 -0.3667424 0.29378822 -0.32942256 0.07217075 0.28679222 -0.19212902
-0.6137361 -0.28450298 0.24138401 0.101030625 -0.5561873 -0.71570605 0.25530124 0.08994835
0.23910454 0.3043133 -0.27128825 0.04409889 -0.24853933 -0.05753809 0.07119122 0.11524674
0.16779776 0.1823989 -0.0072186086 0.31393763 -0.06539488 0.24141581 0.06524441 -0.22291957
-0.42827147 0.13513274 0.17011611 -0.0044913897 -0.1273527 -0.028899532 -0.045266803 -0.063065834
-0.038793314 -0.1670689 -0.34807733 0.069719605 -0.39587206 0.27115327 -0.09851589 0.279997
0.19514702 0.00030225507 -0.05920608 0.2789536 -0.029308392 0.0818837 0.2662414 -0.29572028
-0.45026195 -0.3030144 0.04921484 -0.035987794 0.101053685 -0.45637628 0.007987251 0.12993452
0.08216812 -0.0594505 -0.1991823 0.3271734 0.07606517 -0.17963007 -0.033962756 0.22229517
-0.1857592 -0.11668496 0.03762226 -0.49731943 0.14375235 -0.021583175 -0.032342568 -0.0225562
-0.41666812 -0.4340613 -0.30860847 -0.06616352 0.14490825 -0.04555285 -0.074063346 0.09308073
-0.19337116 0.3219396 -0.38504526 -0.22995175 -0.020293308 -0.46309575 0.05374812 0.062268883
-0.09151601 -0.1685114 0.023783443 0.29131192 -0.21557033 -0.31674793 0.1071801 -0.29752168
-0.4916485 -0.19866385 -0.13498878 -0.054977663 -0.017038738 -0.097927615 0.34031308 0.18186928
-0.21001892 0.12834658 -0.13876945 -0.31675202 -0.2005743 -0.0458339 -0.023028953 0.1018287
-0.3733241 0.091947794 0.1384632 -0.56826097 -0.12564479 -0.24091554 -0.19511127 -0.023596544
0.018749708 -0.3592101 -0.7201973 -0.10163766 -0.36834958 0.1674009 -0.22609457 -0.23491329
-0.58984905 0.1550208 0.004127623 0.062446438 0.2435294 -0.19975746 0.1669038 0.18382023
0.13805982 -0.3735147 -0.00774687 0.39580235 -0.13457215 0.1545386 -0.040580288 0.09181276
-0.2963012 0.024739524 -0.27177688 -0.050300654 -0.27262983 0.20891686 -0.4431794 0.17705765
-0.11074931 -0.48181328 -0.08675251 -0.002490504 -0.25933027 0.27877378 -0.07630117 0.35416812
-0.42430943 -0.005958986 -0.5259699 0.17322114 0.20685992 0.3165702 0.010244155 -0.29648307
0.1331872 0.04324498 0.24717888 0.21715309 0.21768843 0.04665381 0.14331865 -0.06985485
0.099093534 0.09661419 -0.10084199 -0.2467888 0.20123295 -0.15519264 0.41682413 0.01639441
6.7690606e-05 0.12065929 0.16098736 -0.024648396 -1.472322 0.22155187 0.10145904 -0.4049865
0.16368213 -0.101885736 0.12042047 -0.6408982 -0.30310094 0.34224996 -0.2197307 0.3144844
-0.038178254 0.11906451 0.05492664 -0.22906615 -0.05544012 -0.22379607 0.10843231 -0.16985682
0.16846153 -0.1705725 -0.15407486 -0.060884126 0.099880576 -0.15484376 -0.45834944 0.13717537
00000000: 5175 abbd d047 d63d ade7 b9be f03c 803e
00000010: e0ba 17bf ecbf 923d dc56 cdbd 1770 0c3e
00000020: 4d56 663e 6e29 a9be 69cc a83b 8bed 09be
00000030: cabd 3e3e 9895 dd3e e0c0 13be 557f 013e
00000040: 676a 083f 6430 18bf edf7 a73d 14d5 16be
00000050: 609e 7f3e 9cb6 5fbe fea6 c8bd 6c0c c0be
00000060: 7f0f 1ebd 413c 7e3e 4135 09bd def0 8cbe
00000070: 363d 4dbe 23f5 d0be 78ec 5cbe 539c ecbe
00000080: 5325 67bf 1488 d43d a9c5 bbbe 696b 963e
00000090: 13aa a8be 42ce 933d 6ed6 923e 78bd 44be
000000a0: cf1d 1dbf 60aa 91be 5f2d 773e 25e9 ce3d
000000b0: 4a62 0ebf 8338 37bf d8b6 823e d736 b83d
000000c0: d2d7 743e f4ce 9b3e 4be6 8abe 0aa1 343d
000000d0: 1881 7ebe 0fad 6bbd b4cc 913d 7c06 ec3d
000000e0: 2dd3 2b3e c7c6 3a3e 148a ecbb 6fbc a03e
000000f0: c0ed 85bd b535 773e dc9e 853d 0745 64be
00000100: 6646 dbbe 3d60 0a3e eb32 2e3e 822c 93bb
00000110: bf68 02be b6be ecbc af69 39bd a928 81bd
00000120: bde5 1ebd 1c14 2bbe 3137 b2be 27c9 8e3d
00000130: beaf cabe 9ad4 8a3e b3c2 c9bd c45b 8f3e
00000140: 9fd4 473e fd77 9e39 1382 72bd 02d3 8e3e
00000150: 2718 f0bc a4b2 a73d cb50 883e a668 97be
00000160: bc88 e6be b424 9bbe 8095 493d f067 13bd
00000170: 3cf5 ce3d 27aa e9be f5dc 023c 8e0d 053e
00000180: c247 a83d 5e82 73bd 72f6 4bbe 4683 a73e
00000190: 0ec8 9b3d f2f0 37be 881c 0bbd 58a1 633e
000001a0: a937 3ebe 86f8 eebd cd19 1a3d a7a0 febe
000001b0: d133 133e 33cf b0bc a479 04bd c8c7 b8bc
000001c0: 8655 d5be 483d debe ee01 9ebe bd80 87bd
000001d0: d462 143e a095 3abd 86ae 97bd 1ca1 be3d
000001e0: 1703 46be 44d5 a43e a724 c5be 7978 6bbe
000001f0: 273e a6bc e31a edbe fd26 5c3d a80d 7f3d
00000200: bf6c bbbd 418e 2cbe 7fd5 c23c d626 953e
00000210: 78be 5cbe c92c a2be 3e81 db3d c354 98be
00000220: 5ab9 fbbe 896e 4bbe 803a 0abe 4230 61bd
00000230: d394 8bbc 468e c8bd 843d ae3e f13b 3a3e
00000240: 330f 57be 496d 033e 9419 0ebe 522d a2be
00000250: 5963 4dbe 54bc 3bbd 37a7 bcbc 918b d03d
00000260: 5624 bfbe 204f bc3d 4cc9 0d3e 8d79 11bf
00000270: 07a9 00be 90b2 76be 40cb 47be 8a4d c1bc
00000280: fd98 993c 63ea b7be da5e 38bf 6827 d0bd
00000290: 5198 bcbe 246b 2b3e 5685 67be 1c8d 70be
000002a0: 5900 17bf c6bd 1e3e 0341 873b d6c7 7f3d
000002b0: c55f 793e 388d 4cbe d4e8 2a3e 5f3b 3c3e
000002c0: 8e5f 0d3e 523d bfbe 75d9 fdbb 9ba6 ca3e
000002d0: 48cd 09be 5e3f 1e3e 8437 26bd 5408 bc3d
000002e0: cab4 97be 8baa ca3c 5726 8bbe 0f08 4ebd
000002f0: 2396 8bbe 4dee 553e 69e8 e2be 9a4e 353e
00000300: 89d0 e2bd 3bb0 f6be 4dab b1bd b937 23bb
00000310: f0c6 84be 70bb 8e3e ca43 9cbd 8655 b53e
00000320: 163f d9be 9943 c3bb f7a5 06bf e260 313e
00000330: 16d3 533e 7d15 a23e 1ad7 273c a1cc 97be
00000340: 3a62 083e a621 313d 761c 7d3e 615d 5e3e
00000350: b7e9 5e3e 1118 3f3d 20c2 123e 0f10 8fbd
00000360: 8df1 ca3d a9dd c53d 3f86 cebd 34b6 7cbe
00000370: 0310 4e3e d2ea 1ebe f969 d53e 924d 863c
00000380: 1ef5 8d38 381c f73d dfd9 243e 6feb c9bc
00000390: 0c75 bcbf 7ede 623e c2c9 cf3d 645a cfbe
000003a0: 4a9c 273e 78a9 d0bd 029f f63d e811 24bf
000003b0: 0c30 9bbe 633b af3e 1601 61be 1904 a13e
000003c0: cd60 1cbd 18d8 f33d c2fa 603d 5190 6abe
000003d0: 2e15 63bd cc2a 65be c211 de3d f2ee 2dbe
000003e0: 2e81 2c3e 8faa 2ebe cdc5 1dbe a261 79bd
000003f0: 308e cc3d 5d8f 1ebe c7ac eabe b377 0c3e

fc2.bias f4 [148]
0.0692025 -0.0033251904 -0.010431948 0.037279155 -0.006062309 0.080103844 0.07510902 -0.050418653
-0.035887152 -0.09068223 0.006195543 -0.07348564 -0.05737532 -0.09433125 0.012238699 -0.023848454
-0.0070308405 0.12095845 0.02923926 -0.1777146 0.0076158433 -0.07866799 -0.058672287 -0.08014838
-0.006056701 -0.079001285 0.07232066 -0.030992199 -0.0512386 -0.115830354 0.07331671 -0.020938162
0.008438098 -0.007956258 -0.022048227 -0.093512364 -0.04809352 -0.0012005945 -0.11650514 -0.048038658
-0.07192055 0.037594434 -0.008410178 0.14008413 0.090108946 0.02197626 0.06307225 0.009527694
-0.13890137 -0.007404127 0.059832036 -0.003074272 -0.0074306577 0.052469403 -0.1380609 0.08652802
0.04270943 -0.07519369 0.056790024 0.0076377424 -0.07183284 0.12436596 0.040964007 -0.0005484648
0.029729372 -0.031122975 0.10264816 -0.036585547 -0.030988138 -0.0035822457 -0.040596347 0.049047846
0.015124642 -0.04447013 0.06331705 0.03574951 0.003012727 0.005225217 -0.12384192 0.07598234
0.03059506 0.06900132 0.013941319 0.07746647 0.035851136 0.10485523 -0.15169881 0.061734915
0.16686937 -0.052355357 -0.058996882 0.055823937 0.13142517 -0.013067888 0.13070491 0.046965774
-0.029135328 0.12052574 -0.11395084 -0.006523615 -0.051996212 -0.03275719 0.10925893 0.0025473672
-0.037841924 -0.038662296 -0.025528483 0.019062925 -0.084940515 -0.061712444 0.052590143 -0.03167804
-0.063959874 -0.020745486 0.0066072694 -0.07059624 0.04825321 0.028958118 0.03131952 0.063404225
0.15728559 -0.09456215 0.07170498 -0.09330788 0.04100301 -0.054277644 0.07403583 0.045186818
0.07168478 -0.014172503 0.03721014 -0.032276064 0.089092754 -0.13870074 0.1297127 -0.01593712
0.03253053 -0.014770457 -0.08203842 0.08005865 0.04077534 0.14173232 -0.11563297 0.018920168
0.044076018 -0.063475706 -0.09539456 -0.04771682
00000000: 0aba 8d3d 70eb 59bb c3ea 2abc 07b2 183d
00000010: 55a6 c6bb 7c0d a43d c2d2 993d ca83 4ebd
00000020: 68fe 12bd 9bb7 b9bd fb03 cb3b a47f 96bd
00000030: 6202 6bbd be30 c1bd d384 483c d55d c3bc
00000040: f762 e6bb 10b9 f73d 2c87 ef3c d1fa 35be
00000050: 538e f93b af1c a1bd 5a52 70bd d524 a4bd
00000060: 4a77 c6bb 6dcb a1bd db1c 943d 5ae3 fdbc
00000070: 91df 51bd 7738 edbd 1227 963d 8286 abbc
00000080: f33f 0a3c f75a 02bc 7c9e b4bc 6983 bfbd
00000090: b6fd 44bd 445d 9dba 3f9a eebd 2fc4 44bd
000000a0: 154b 93bd 9ffc 193d d8ca 09bc 3772 0f3e
000000b0: 0a8b b83d 8f07 b43c 062c 813d 0c1a 1c3c
000000c0: 293c 0ebe 529e f2bb 7012 753d ba79 49bb
000000d0: e07c f3bb 28ea 563d d65f 0dbe 9a35 b13d
000000e0: 15f0 2e3d 26ff 99bd a89c 683d 0746 fa3b
000000f0: 191d 93bd 95b3 fe3d e0c9 273d dac6 0fba
00000100: 038b f33c 9cf5 febc 3339 d23d bada 15bd
00000110: d6da fdbc 1cc4 6abb 5b48 26bd 65e6 483d
00000120: 59cd 773c 5026 36bd 5fac 813d 146e 123d
00000130: 2c71 453b 4c38 ab3b d5a0 fdbd a19c 9b3d
00000140: 7ea2 fa3c 9050 8d3d 216a 643c bea6 9e3d
00000150: a4d8 123d 57be d63d ef56 1bbe c0dd 7c3d
00000160: cedf 2a3e 9272 56bd b7a6 71bd a4a7 643d
00000170: 5294 063e b21a 56bc 82d7 053e 2f5f 403d
00000180: 36ad eebc 33d6 f63d 0f5f e9bd 0dc4 d5bb
00000190: fbf9 54bd 672c 06bd 25c3 df3d bbf1 263b
000001a0: 2200 1bbd 5b5c 1ebd 1c21 d1bc da29 9c3c
000001b0: 4bf5 adbd 30c6 7cbd c368 573d d5c0 01bd
000001c0: 65fd 82bd 70f2 a9bc cb81 d83b c394 90bd
000001d0: 28a5 453d 9339 ed3c e648 003d 13da 813d
000001e0: 790f 213e cda9 c1bd 10da 923d 3418 bfbd
000001f0: c6f2 273d 3c52 5ebd 19a0 973d d015 393d
00000200: 78cf 923d c933 68bc a969 183d e833 04bd
00000210: 4376 b63d 9107 0ebe 68d3 043e 908e 82bc
00000220: bc3e 053d c9ff 71bc c203 a8bd caf5 a33d
00000230: 0b04 273d 4722 113e fbd0 ecbd 78fe 9a3c
00000240: 0e89 343d 8dff 81bd 395e c3bd b672 43bd

bn2.weight f4 [148]
0.4362668 0.5224735 0.34229937 0.2305746 0.24868277 0.27369094 0.19934484 0.22303587
0.38629597 0.20172021 0.326332 0.21479812 0.40793496 0.43138614 0.173312 0.2787822
0.5195157 0.4013934 0.4687993 0.3436852 0.10546068 0.0014520673 0.39986554 0.39467973
0.17781316 0.46188164 0.17450617 0.19694823 0.24066399 0.35966054 0.037233636 0.303337
0.2941292 0.6302052 0.49686235 0.42842487 0.15407662 0.53442836 0.22640273 0.3694106
0.24065584 0.3428174 0.007104616 0.32305756 0.35818443 0.33583105 0.42290545 0.2949608
0.4310902 0.37179726 0.3743817 0.20507604 0.16212265 0.24473299 0.36697575 0.6744665
0.5011308 0.4517782 0.42898545 0.22938046 0.25840038 0.42999685 0.29428428 0.4368902
-0.00326582 0.39830613 0.31598642 0.24186361 0.35062435 0.6687708 0.28754273 -0.001310327
0.7457121 0.23492528 0.16136613 0.23701671 0.5990932 0.1653994 0.23250778 0.26780626
0.39322284 0.2683862 0.15028124 -0.002119342 0.34518662 0.23675686 0.74110246 0.46661335
0.524428 0.22552525 0.25148585 0.5448855 0.2615505 0.30046088 0.325549 0.17358968
0.455541 0.462846 0.49371076 0.24385422 0.1671948 0.33621776 0.44249007 0.29663372
0.2912483 0.33578727 0.4095201 -0.0031961566 0.20866297 0.3044954 0.2668349 0.24265108
0.003728099 0.46844944 0.09609661 0.41988695 0.21004097 0.5766183 0.42192462 0.11755791
0.23676741 0.2090736 0.42643064 0.22377747 0.30379117 0.33298913 0.26061004 0.22527981
0.3208305 0.2644168 0.24735653 0.08718775 0.6705922 0.42917377 0.63094705 0.516829
0.48069862 0.24670929 0.24095699 0.4007444 0.6625023 0.2937164 0.13111323 0.44570214
0.37145504 0.2309345 0.21295054 0.17102566
00000000: 5d5e df3e d3c0 053f dd41 af3e bf1b 6c3e
00000010: b2a6 7e3e 3821 8c3e 0e21 4c3e 8463 643e
00000020: 96c8 c53e be8f 4e3e fd14 a73e 0af4 5b3e
00000030: dadc d03e a5de dc3e b378 313e 8abc 8e3e
00000040: fbfe 043f 7083 cd3e 7606 f03e 82f7 af3e
00000050: c5fb d73d 4b53 be3a 2dbb cc3e 7613 ca3e
00000060: a714 363e c07b ec3e bfb1 323e ccac 493e
00000070: 9f70 763e 6d25 b83e 4c82 183d fd4e 9b3e
00000080: 1a98 963e 2155 213f be64 fe3e 815a db3e
00000090: 43c6 1d3e 4cd0 083f 1ed6 673e 6323 bd3e
000000a0: 7c6e 763e c385 af3e d7cd e83b cd67 a53e
000000b0: f363 b73e 0cf2 ab3e 1087 d83e 1a05 973e
000000c0: dbb7 dc3e 365c be3e f5ae bf3e 74ff 513e
000000d0: 7b03 263e 499b 7a3e 3fe4 bb3e d6a9 2c3f
000000e0: 1c4a 003f 794f e73e fba3 db3e b6e2 6a3e
000000f0: 0e4d 843e 8c28 dc3e 6eac 963e 13b0 df3e
00000100: 5e07 56bb c8ee cb3e f9c8 a13e 18ab 773e
00000110: 0985 b33e 9034 2b3f cd38 933e 47bf abba
00000120: fde6 3e3f 4190 703e 2a3d 253e 82b4 723e
00000130: 2c5e 193f 765e 293e 8516 6e3e e71d 893e
00000140: 8154 c93e ea69 893e 53e3 193e a9e4 0abb
00000150: 4dbc b03e 6470 723e e4b8 3d3f f2e7 ee3e
00000160: ea40 063f 17f0 663e c1c2 803e 9e7d 0b3f
00000170: f2e9 853e 02d6 993e 5cae a63e 7ec1 313e
00000180: ac3c e93e 27fa ec3e a8c7 fc3e ecb4 793e
00000190: 1d35 2b3e bc24 ac3e 0f8e e23e 60e0 973e
000001a0: 7f1e 953e 4fec ab3e 9eac d13e 9c76 51bb
000001b0: bfab 553e d2e6 9b3e 969e 883e 8679 783e
000001c0: 1f53 743b 9bd8 ef3e 4dce c43d 6cfb d63e
000001d0: fb14 573e 429d 133f 8106 d83e 34c2 f03d
000001e0: 2873 723e 6417 563e 1e55 da3e ec25 653e
000001f0: 848a 9b3e 8d7d aa3e ae6e 853e c0af 663e
00000200: e543 a43e a461 873e 084b 7d3e 7e8f b23d
00000210: eeab 2b3f aabc db3e bf85 213f e84e 043f
00000220: 211e f63e 5ca1 7c3e 6ebd 763e 5f2e cd3e
00000230: c099 293f ff61 963e 8c42 063e 1233 e43e
00000240: 5b2f be3e 187a 6c3e b50f 5a3e 5a21 2f3e

bn2.bias f4 [148]
-0.017418928 -0.05637589 -0.28399894 -0.27165288 0.19242002 0.1165569 -0.23812777 -0.18307523
-0.13886206 -0.060749445 -0.34368148 -0.102193594 0.014858983 -0.42298728 -0.12710035 0.2976408
-0.013896117 -0.13932851 -0.47614002 -0.037316944 -0.3311519 -0.056227226 -0.046189755 -0.06407771
-0.26593134 -0.42503217 -0.19307283 -0.14199743 0.11109095 -0.31439778 -0.14127374 -0.39597934
-0.040634528 -0.30535823 -0.26413372 -0.38175046 -0.22338605 0.01900817 -0.106670596 -0.34656572
-0.15585251 0.07171514 -0.13425627 -0.10917469 -0.3460085 -0.102531895 -0.06488269 -0.3505227
-0.5368398 -0.37691513 -0.37834206 -0.21741995 -0.30254123 -0.32517606 -0.30161437 -0.18968058
-0.3245855 -0.15697558 -0.39730692 -0.34141085 -0.35322258 -0.23352937 -0.24911335 -0.2367413
-0.05224699 -0.47457874 -0.2819296 -0.43143052 -0.055092942 -0.04321054 -0.09860899 -0.04490278
-0.16150191 -0.33210182 -0.29752496 -0.17513473 -0.24130356 0.15699579 -0.23925105 -0.04632255
-0.24757189 -0.13945328 -0.065552816 -0.03516052 0.2174009 -0.42746156 0.050279874 -0.3906081
0.13892834 -0.120058164 -0.4180929 0.19543988 -0.010097069 -0.09163951 -0.51194656 -0.26069713
-0.28674212 -0.33026186 -0.31904656 -0.29785317 -0.2571927 -0.35990408 0.20949982 -0.24108246
0.06250447 0.086010315 -0.3253173 -0.030222012 -0.16170269 0.048420183 -0.36433104 -0.28438786
-0.05534965 0.3063363 -0.29038954 -0.51777273 -0.2669647 -0.28455532 -0.5069723 -0.29885548
-0.34681785 0.20751546 -0.32255325 -0.31400797 -0.46403775 0.16577807 -0.25684264 -0.33250114
-0.41889766 -0.2306656 -0.32054302 -0.41397455 -0.11388138 -0.5393679 0.0007880864 -0.25729156
-0.11557233 -0.22335342 -0.10935135 0.12802435 -0.24331199 0.40803233 -0.4232412 -0.533248
-0.5651512 -0.17660967 -0.34158865 -0.12352937
00000000: 24b2 8ebc 68ea 66bd 4f68 91be 1616 8bbe
00000010: c109 453e 62b5 ee3d c4d7 73be 1378 3bbe
00000020: db31 0ebe 69d4 78bd 05f7 afbe e04a d1bd
00000030: 1873 733c ca91 d8be 9826 02be 6064 983e
00000040: 8aac 63bc 22ac 0ebe a0c8 f3be a7d9 18bd
00000050: be8c a9be 854e 66bd 7831 3dbd 2d3b 83bd
00000060: 2728 88be d19d d9be e2b4 45be c667 11be
00000070: a783 e33d bff8 a0be 10aa 10be cebd cabe
00000080: 6470 26bd ea57 9cbe 893c 87be cc74 c3be
00000090: 50bf 64be 06b7 9b3c 1d76 dabd 1071 b1be
000000a0: cd97 1fbe 63df 923d 7a7a 09be fb96 dfbd
000000b0: 0728 b1be 3efc d1bd 37e1 84bd b677 b3be
000000c0: 556e 09bf 05fb c0be 0db6 c1be 56a3 5ebe
000000d0: afe6 9abe 7a7d a6be 336d 9abe a03b 42be
000000e0: 1230 a6be 35be 20be d06b cbbe 67cd aebe
000000f0: 97d9 b4be 5322 6fbe 9217 7fbe 506c 72be
00000100: f100 56bd fcfb f2be 1459 90be 76e4 dcbe
00000110: 23a9 61bd 89fd 30bd 83f3 c9bd faeb 37bd
00000120: c260 25be 4009 aabe 3155 98be 8556 33be
00000130: 4818 77be 81c3 203e 3afe 74be b7bc 3dbd
00000140: 7c83 7dbe d7cc 0ebe 8e40 86bd 7a04 10bd
00000150: 579e 5e3e 3edc dabe 45f2 4d3d c9fd c7be
00000160: 3b43 0e3e 0ee1 f5bd 4610 d6be 6421 483e
00000170: 2d6e 25bc 7fad bbbd ee0e 03bf 187a 85be
00000180: ddcf 92be 1518 a9be 125a a3be 3680 98be
00000190: c3ae 83be 5945 b8be 1f87 563e 52de 76be
000001a0: 5802 803d 2d26 b03d fd8f a6be 2794 f7bc
000001b0: 6495 25be 3e54 463d 9989 babe 499b 91be
000001c0: 51b6 62bd 1dd8 9c3e f0ad 94be c18c 04bf
000001d0: 99af 88be 3cb1 91be f0c8 01bf 9603 99be
000001e0: 1c92 b1be ef7e 543e b325 a5be a7c5 a0be
000001f0: 5b96 edbe bac1 293e e180 83be 973d aabe
00000200: c179 d6be 9a33 6cbe 371e a4be 79f4 d3be
00000210: a43a e9bd 0414 0abf 9597 4e3a b8bb 83be
00000220: 30b1 ecbd c2b6 64be 9af3 dfbd d118 033e
00000230: c726 79be 9de9 d03e 12b3 d8be f182 08bf
00000240: c0ad 10bf 2ad9 34be b5e4 aebe f7fc fcbd

bn2.running_mean f4 [148]
-0.89752346 -0.86335266 -1.6776079 -0.38402697 -1.3847876 -1.0489548 -1.2542562 -0.3047786
-1.291263 -1.0076362 -0.3262006 -0.624472 -0.9601297 -1.0297896 -0.34941852 -1.4504534
-0.89465064 -0.76636976 -1.370853 -1.2899534 -0.21437532 0.24299741 -0.9597612 -1.4171847
-0.57456845 -1.0863248 -0.32566264 -1.22706 -0.77207834 -1.2295858 -0.048007034 -0.6310837
-1.2102498 -1.5544324 -1.0940964 0.6458181 -0.9879221 -0.84257245 -0.8938938 -0.9755137
-0.442575 -0.7412466 -0.038793836 -1.10651 -1.2074617 -1.0629231 -1.0324188 -1.5139848
-1.3092877 -1.1903987 -0.835303 -0.12535879 -1.0677804 -1.5720865 -1.4556946 -1.3143204
-1.1561617 -0.9706721 -0.77860147 -1.138524 -1.0772597 -0.63445115 0.3462328 -0.9037824
-0.25191432 -0.9936456 -0.6828583 -1.1352857 -0.81138027 -1.3777118 -0.27177486 -0.17019182
-2.0856893 -0.7241327 -0.5878942 -1.2378286 -0.9109282 -0.5707631 -1.5823615 -0.561491
-0.7470776 -1.075294 0.13499354 0.100731604 -1.138943 -0.38544402 -1.4942505 -0.6194323
-0.7693199 -1.037054 -0.4846132 -0.91596013 -0.2552278 -1.009673 -0.68824434 -0.3432238
-0.415337 -0.3578576 -1.4912988 -0.92742425 -0.2063424 -0.8245113 -1.0770366 -1.6234615
-0.80132705 -0.6304472 -0.5615234 0.0400035 -0.5977992 -1.010372 0.37365857 -0.77600574
0.06763428 -1.5073632 -0.43391854 -1.3391181 -0.8007707 -0.86293995 -1.2425354 1.455634
-0.59244543 -1.2598503 -1.0680072 -1.7278061 -1.0247902 -1.0506879 -0.5797368 -1.3252786
-1.1420332 -0.08058475 -1.0025771 0.24763028 -1.5526664 -1.2513703 -1.0113685 -1.2112554
-0.8563502 -1.114692 -1.3136926 -0.98010975 -1.5620493 -1.6161808 0.9114141 -1.1806258
-1.095994 -0.8723588 -1.2095934 0.23652165
00000000: 19c4 65bf ae04 5dbf dbbb d6bf 2f9f c4be
00000010: b840 b1bf 2744 86bf 788b a0bf f10b 9cbe
00000020: 1b48 a5bf 39fa 80bf c403 a7be 66dd 1fbf
00000030: 0fcb 75bf 25d0 83bf fce6 b2be 75a8 b9bf
00000040: d307 65bf cf30 44bf 1c78 afbf 311d a5bf
00000050: 3485 5bbe 50d4 783e e9b2 75bf 4f66 b5bf
00000060: eb16 13bf b10c 8bbf 41bd a6be 4d10 9dbf
00000070: eda6 45bf 1163 9dbf 06a3 44bd b48e 21bf
00000080: 77e9 9abf a4f7 c6bf 5a0b 8cbf 5654 253f
00000090: 76e8 7cbf d4b2 57bf 39d6 64bf 44bb 79bf
000000a0: 3199 e2be 56c2 3dbf 49e6 1ebd 1fa2 8dbf
000000b0: 1b8e 9abf dd0d 88bf 4d26 84bf 41ca c1bf
000000c0: bd96 a7bf fc5e 98bf 6bd6 55bf 0e5e 00be
000000d0: 07ad 88bf 213a c9bf 3354 babf a73b a8bf
000000e0: 1bfd 93bf f77d 78bf 6d52 47bf 28bb 91bf
000000f0: a5e3 89bf 646b 22bf 6d45 b13e 495e 67bf
00000100: eafa 80be 8f5f 7ebf cdcf 2ebf 0b51 91bf
00000110: 9eb6 4fbf dc58 b0bf 1326 8bbe c446 2ebe
00000120: ef7b 05c0 c360 39bf 3c80 16bf 2b71 9ebf
00000130: 9732 69bf 881d 12bf d28a cabf e0bd 0fbf
00000140: 7a40 3fbf 3ca3 89bf bf3b 0a3e 5f4c ce3d
00000150: e2c8 91bf eb58 c5be 9a43 bfbf 1d93 1ebf
00000160: 26f2 44bf 2fbe 84bf 391f f8be 5d7c 6abf
00000170: 38ad 82be f73c 81bf c830 30bf 08bb afbe
00000180: 0da7 d4be 1d39 b7be e1e2 bebf ad6b 6dbf
00000190: 6c4b 53be 2c13 53bf 56dc 89bf 96cd cfbf
000001a0: c523 4dbf fd64 21bf ffbf 0fbf b6da 233d
000001b0: 5e09 19bf df53 81bf 2d50 bf3e 50a8 46bf
000001c0: d783 8a3d 47f1 c0bf 922a debe 3968 abbf
000001d0: 4fff 4cbf a2e9 5cbf 660b 9fbf 3752 ba3f
000001e0: 81aa 17bf c642 a1bf 76b4 88bf c028 ddbf
000001f0: 532c 83bf f17c 86bf a269 14bf bba2 a9bf
00000200: 252e 92bf 9e09 a5bd 7254 80bf cb92 7d3e
00000210: c6bd c6bf e72c a0bf 8674 81bf 6b0a 9bbf
00000220: c439 5bbf 3aae 8ebf 1427 a8bf 79e8 7abf
00000230: 3bf1 c7bf 03df cebf 6f52 693f bf1e 97bf
00000240: 8849 8cbf e852 5fbf f5d3 9abf bb32 723e

bn2.running_var f4 [148]
1.3825498 1.8403614 0.6526788 0.72707736 4.520179 2.6140373 0.8194989 1.3302145
0.8028999 0.95962507 0.39211154 1.0833703 1.2198905 0.6483618 0.4980119 2.0249872
1.4442228 0.58510184 0.9498459 1.4444952 1.1215165 0.08432758 2.0515292 1.3076184
0.5567629 0.7768433 0.57130015 0.4115536 3.2707958 0.31103638 0.23411584 0.91072077
0.9130689 1.2830597 1.0187168 0.5279278 0.6785417 1.3491936 0.65095145 0.5439737
0.45070767 0.53169775 0.21902445 1.108065 0.5669338 1.4956574 2.8008008 1.2276589
0.60104686 0.77700615 0.82112855 0.9010022 1.1871359 0.6375986 0.6194637 2.3398948
0.74864936 1.7036995 0.611036 0.90963924 0.7187542 1.4954982 0.77752554 0.9105289
0.04943232 0.84896594 1.111494 0.82541144 1.8985555 1.5581251 0.9480546 0.11904001
2.1983018 0.64022374 0.9225599 0.5816477 1.1867841 1.5460052 0.7906882 1.8188031
0.5814666 1.4013761 0.6415361 0.22608462 1.9927357 0.5392059 3.2037194 0.80232537
1.3079928 0.7993215 0.5779256 2.41819 0.55415016 1.0715994 0.57807994 0.6397234
0.7862137 0.75652784 1.3404158 0.8448322 0.51254606 0.706196 1.5723703 1.0132812
2.2618492 1.4012899 0.72822344 0.12649459 0.7994258 1.631264 0.69443136 0.7337837
0.13944036 2.7357917 0.22135724 0.6419917 1.0043646 1.3756063 0.59606606 0.65959305
0.47688517 2.6480875 0.6995366 0.7417959 0.5337665 1.6441432 0.4415757 1.021371
0.94994885 1.1766663 1.1292568 0.6754186 1.691501 1.069634 2.4333885 1.9103833
1.4844289 0.97044736 0.9982291 2.8825758 2.386716 2.9731956 0.6380751 0.66970086
0.7132627 1.1564447 0.68426 0.82080704
00000000: 64f7 b03f f690 eb3f f515 273f be21 3a3f
00000010: 4ea5 9040 634c 2740 aeca 513f 7844 aa3f
00000020: d98a 4d3f fda9 753f d8c2 c83e e1ab 8a3f
00000030: 5f25 9c3f 0afb 253f 6afb fe3e 6499 0140
00000040: 4bdc b83f 3cc9 153f 1a29 733f 38e5 b83f
00000050: da8d 8f3f f0b3 ac3d 414c 0340 0a60 a73f
00000060: 0388 0e3f 34df 463f ba40 123f 27b7 d23e
00000070: b854 5140 2940 9f3e 10bc 6f3e ff24 693f
00000080: e2be 693f 4d3b a43f 5065 823f 4726 073f
00000090: e9b4 2d3f 60b2 ac3f c1a4 263f dc41 0b3f
000000a0: 28c3 e63e 581d 083f f247 603e 13d5 8d3f
000000b0: 9322 113f b471 bf3f 5240 3340 ed23 9d3f
000000c0: 35de 193f e0e9 463f 7b35 523f 15a8 663f
000000d0: 12f4 973f a939 233f 2c95 1e3f d6c0 1540
000000e0: 7ca7 3f3f d312 da3f db6c 1c3f 1ede 683f
000000f0: 4600 383f 7c6c bf3f ea0b 473f 6c18 693f
00000100: 8b79 4a3d d555 593f 6f45 8e3f 2a4e 533f
00000110: de03 f33f a570 c73f b5b3 723f 40cb f33d
00000120: fab0 0c40 b4e5 233f e32c 6c3f dde6 143f
00000130: 8be8 973f 80e3 c53f 8b6a 4a3f 8ace e83f
00000140: ffda 143f 4b60 b33f b63b 243f ba82 673e
00000150: f711 ff3f 6609 0a3f bd09 4d40 3265 4d3f
00000160: 4f6c a73f 55a0 4c3f eff2 133f a0c3 1a40
00000170: c9dc 0d3f 2b2a 893f 0cfd 133f eac4 233f
00000180: 4d45 493f cfab 413f bf92 ab3f ec46 583f
00000190: 3836 033f 43c9 343f 6e43 c93f 33b3 813f
000001a0: 23c2 1040 785d b33f da6c 3a3f cc87 013e
000001b0: 2ba7 4c3f 42cd d03f 41c6 313f 40d9 3b3f
000001c0: 74c9 0e3e 3617 2f40 79ab 623e 9159 243f
000001d0: 058f 803f de13 b03f c997 183f 17db 283f
000001e0: 4b2a f43e 447a 2940 d514 333f 56e6 3d3f
000001f0: eca4 083f 4973 d23f 3616 e23e 49bc 823f
00000200: d92f 733f 009d 963f 7d8b 903f 3ce8 2c3f
00000210: 1b83 d83f c4e9 883f a3bc 1b40 7187 f43f
00000220: c401 be3f 3d6f 783f f18b 7f3f 1f7c 3840
00000230: f4bf 1840 d648 3e40 e458 233f 8471 2b3f
00000240: 6298 363f 6106 943f aa2b 2f3f 6920 523f
