20AgentsBias-best_actor.pth (torch_old, 96800 bytes, 14 tensors)

fc1.weight f4 [132, 33]
-0.12914957 -0.55362123 -0.41995928 0.10163546 0.07789302 -0.36485845 0.34961423 -0.64654106
-0.43302497 0.5891342 0.17852126 -0.5155026 -0.22663088 -0.077818446 -0.3036637 0.076296434
-0.10527559 -0.057905566 -0.11244476 -0.04721007 -0.17104198 0.28120905 -0.25784367 0.36135262
-0.33572388 0.46257544 -0.09984963 -0.0028851228 0.024879871 -0.07808538 0.07325352 0.08283712
-0.028703732 -0.46352917 -0.5692059 -0.5518413 0.102038674 -0.2412594 -0.25094965 -0.41048542
0.09662901 -0.527928 -0.4359176 0.0078638755 -0.3500625 -0.12517236 -0.12164357 -0.22551677
-0.30545396 0.059991725 -0.15363191 0.3101575 0.1482775 -0.104582585 -0.58789253 0.11261045
0.3805146 -0.10812147 -0.08372869 0.21546528 0.028852016 -0.16939847 -0.06924783 0.08115762
0.013818294 -0.15627785 -0.76970506 -0.36079326 -0.055153213 -0.110622175 -0.21667679 0.05333462
0.076824136 0.1132595 0.5216282 -0.775601 -0.53532803 -0.17437997 -0.044701178 0.044359744
-0.14069162 -0.012809165 0.36021918 -0.0709718 -0.09975291 -0.12971728 -0.14001405 0.2298664
-0.28751892 0.45313555 -0.32772383 -0.19506563 0.15562126 -0.021158952 0.10724623 -0.05469695
0.056899495 -0.05101356 0.12521625 0.19667763 0.14114088 1.0324013 -0.10927253 -0.35553896
0.15427592 -0.21126057 -0.032404862 0.030767266 -0.2118747 0.12025523 -0.50279224 0.6359676
-0.19150226 0.25575083 0.1840084 -0.11276864 0.07144051 -0.24292609 -0.13083163 -0.0060819937
0.30004326 0.019715954 -0.0027307863 0.11663942 -0.060996477 0.11788217 -0.0072737816 0.06625615
-0.072495215 -0.032391727 0.023473538 -0.37604648 0.25651473 0.7670535 0.697142 -0.10611121
0.4132269 0.038001522 0.36179715 0.017969552 0.11148658 0.49156833 0.25698406 0.42916554
0.046315577 -0.19725366 -0.24381013 -0.1361267 0.035645768 0.01942528 -0.03877086 0.0674037
-0.16496608 0.44815266 0.3127254 -0.18034835 -0.39993623 -0.2884215 0.10646435 0.03870415
-0.02020083 -0.06703461 0.07336771 -0.03776169 0.024953686 -0.08378932 -0.2022583 -0.59984595
0.0553974 -0.13270116 0.092258446 -0.15578839 -0.060763936 -0.19882238 -0.1214426 -0.067280635
-0.113761365 0.09546294 0.0026716543 0.16945875 0.6941713 -0.17397745 0.024748731 0.1064225
0.14444396 -0.055657435 -0.24502468 -0.057746112 -0.0005156183 0.10071531 0.46314508 0.12617573
0.0089236135 -0.034175567 -0.060204767 -0.035362743 -0.012859367 0.8436939 0.02465448 0.108166285
0.040781382 0.12836897 0.33352277 0.05989129 0.6101016 -0.13827673 -0.45712543 0.1761062
-0.05603829 -0.0047384333 0.27407104 -0.36706364 -0.040069304 -0.10931567 0.040624842 -0.017601294
-0.13612932 -0.06735799 0.056069147 -0.22369657 -0.24826445 -0.17819975 -0.16054043 0.3463747
0.05835328 -0.012358973 0.11830934 -0.08478028 -0.06973485 -0.07474205 -1.889561 -0.19621113
0.09307991 -0.14353387 0.12285257 -0.33928517 -0.20106402 0.13211182 -0.12590097 0.75958866
-0.11230266 -0.20528717 0.0878631 0.027438749 0.19843669 0.42659992 0.48119465 0.0076597924
-0.05302743 -0.121190056 -0.17395997 0.061681785 -0.36427268 -0.14724052 0.19366714 0.28556925
00000000: c93f 04be 1fba 0dbf e704 d7be 4126 d03d
00000010: 6086 9f3d bace babe a300 b33e b783 25bf
00000020: 73b5 ddbe 80d1 163f 47ce 363e faf7 03bf
00000030: ed11 68be 475f 9fbd cf79 9bbe 4e41 9c3d
00000040: bb9a d7bd 632e 6dbd 7049 e6bd 595f 41bd
00000050: a125 2fbe a2fa 8f3e 1604 84be 3603 b93e
00000060: 00e4 abbe b0d6 ec3e f67d ccbd 5414 3dbb
00000070: dfd0 cb3c 3aeb 9fbd f105 963d 82a6 a93d
00000080: 1724 ebbc b253 edbe 7ab7 11bf 7945 0dbf
00000090: a7f9 d03d b40c 77be 797c 80be 252b d2be
000000a0: 6ee5 c53d 4a26 07bf 9730 dfbe 7cd7 003c
000000b0: 643b b3be 2f2d 00be 4420 f9bd deed 66be
000000c0: 7664 9cbe e2b9 753d af51 1dbe f7cc 9e3e
000000d0: 0fd6 173e 652f d6bd 2080 16bf 4fa0 e63d
000000e0: cfd2 c23e ca6e ddbd f379 abbd eea2 5c3e
000000f0: 105b ec3c cb76 2dbe ced1 8dbd f735 a63d
00000100: 2066 623c 4d07 20be 640b 45bf e5b9 b8be
00000110: 56e8 61bd e18d e2bd 85e0 5dbe 6775 5a3d
00000120: f955 9d3d 99f4 e73d 6d89 053f ca8d 46bf
00000130: 420b 09bf aa90 32be 9518 37bd 90b2 353d
00000140: 7711 10be 88dd 51bc a66e b83e aa59 91bd
00000150: 414b ccbd 9bd4 04be d85f 0fbe 1962 6b3e
00000160: ae35 93be 6201 e83e 6bcb a7be 49bf 47be
00000170: 2e5b 1f3e 8a55 adbc e9a3 db3d e909 60bd
00000180: 720f 693d 98f3 50bd b038 003e dc65 493e
00000190: 3c87 103e ba25 843f 47ca dfbd 3409 b6be
000001a0: 82fa 1d3e b154 58be f6ba 04bd a20b fc3c
000001b0: aef5 58be 6048 f63d feb6 00bf c6ce 223f
000001c0: 2b19 44be c6f1 823e b36c 3c3e 3ff3 e6bd
000001d0: 674f 923d 9ec1 78be baf8 05be 764b c7bb
000001e0: 459f 993e 5a83 a13c fef6 32bb a6e0 ee3d
000001f0: 71d7 79bd 356c f13d e758 eebb 4eb1 873d
00000200: 5f78 94bd 30ad 04bd 944b c03c 2a89 c0be
00000210: e655 833e 9e5d 443f e677 323f d650 d9bd
00000220: 7a92 d33e 7ca7 1b3d 7a3d b93e e234 933c
00000230: 1353 e43d d8ae fb3e 6a93 833e 96bb db3e
00000240: 67b5 3d3d ddfc 49be 5da9 79be cc64 0bbe
00000250: 4c01 123d c421 9f3c 31ce 1ebd f30a 8a3d
00000260: deec 28be 4474 e53e 8b1d a03e 3dad 38be
00000270: 71c4 ccbe fcab 93be fb09 da3d 3e88 1e3d
00000280: 367c a5bc 7149 89bd cf41 963d 00ac 1abd
00000290: ac6b cc3c bc99 abbd cd1c 4fbe 818f 19bf
000002a0: 62e8 623d d0e2 07be fff1 bc3d fe86 1fbe
000002b0: 9be3 78bd 1898 4bbe e6b6 f8bd 6eca 89bd
000002c0: b8fb e8bd 1382 c33d ec16 2f3b 9886 2d3e
000002d0: 36b5 313f 2527 32be dabd ca3c 0af4 d93d
000002e0: 1ee9 133e 0df9 63bd c0e7 7abe 3087 6cbd
000002f0: 8f2a 07ba d443 ce3d 5a21 ed3e 3634 013e
00000300: 5934 123c aefb 0bbd 4699 76bd 86d8 10bd
00000310: 18b0 52bc 53fc 573f 31f8 c93c 4986 dd3d
00000320: 610a 273d 2873 033e 7fc3 aa3e 9250 753d
00000330: 9e2f 1c3f 6a98 0dbe 580c eabe 2f55 343e
00000340: 6888 65bd dc44 9bbb 0a53 8c3e c4ef bbbe
00000350: b61f 24bd e5e0 dfbd 3c66 263d 9730 90bc
00000360: 7c65 0bbe fcf2 89bd c3a8 653d b710 65be
00000370: 0939 7ebe ff79 36be b664 24be 0658 b13e
00000380: d903 6f3d 4a7d 4abc 2b4c f23d 49a1 adbd
00000390: 25d1 8ebd 5c12 99bd 23dd f1bf 92eb 48be
000003a0: aea0 be3d 8bfa 12be 219a fb3d c9b6 adbe
000003b0: bae3 4dbe 5248 073e 2fec 00be 6774 423f
000003c0: f0fe e5bd cd36 52be 92f1 b33d 3ac7 e03c
000003d0: fd32 4b3e 4e6b da3e 255f f63e fffe fa3b
000003e0: 4a33 59bd 7e32 f8bd 9022 32be 0aa6 7c3d
000003f0: f381 babe 38c6 16be ae50 463e 2236 923e

fc1.bias f4 [132]
-0.061727364 -0.08565175 0.04378695 -0.16043916 0.03691813 0.04366113 -0.13391459 0.11152665
-0.1558376 -0.09958003 -0.17240219 0.15540712 0.07876047 0.020109454 -0.16094716 0.097682446
-0.09199565 -0.1478612 -0.09551929 0.02625507 -0.16105476 0.16463488 0.046613213 0.17120132
-0.0062375623 0.075120986 0.08224752 0.11553809 0.07491668 -0.1393592 0.14316511 -0.12480874
-0.07195467 -0.030757526 0.04963935 0.11093582 -0.073555075 -0.00896262 -0.04322369 0.08242717
0.025470173 -0.13636993 -0.16203718 0.091862224 -0.003943182 0.15858158 0.025373155 0.15597504
0.11911178 -0.16093412 0.15574402 -0.16917185 -0.13276611 0.12603104 0.14076212 0.016481051
0.14563541 0.1642854 0.17056966 -0.0212577 0.15861191 0.11068176 0.13723539 -0.018898252
0.07401299 0.0109259365 0.07499443 0.044246424 0.123175085 0.15905993 0.14120017 0.037832227
-0.0400927 -0.094636895 0.096065596 -0.10986661 0.0123335095 -0.009338005 0.062346492 0.017480882
0.09686965 -0.13135122 0.03586411 0.055654343 -0.11912641 0.057060238 0.1501012 -0.04451881
-0.13224916 -0.066434674 0.16003117 0.08356625 -0.04380145 -0.096544795 0.015122296 -0.15347308
0.046458595 -0.14227389 -0.046803273 0.0268334 -0.10337147 0.14865929 0.049155958 0.06020174
0.09394513 0.17200546 0.012676439 -0.03888154 0.010960255 0.13006055 -0.13681822 -0.03248101
0.07877231 0.1441992 0.06929898 -0.016886838 0.022260893 -0.053662732 0.17031309 0.005798619
0.08193828 -0.091732934 0.16360298 0.14747259 -0.16688481 -0.08704904 0.15719764 0.01778242
-0.14867699 0.0012882657 0.1376227 -0.027658949
00000000: d5d5 7cbd 2f6a afbd f259 333d 2a4a 24be
00000010: 7737 173d 03d6 323d e820 09be 1668 e43d
00000020: e493 1fbe 9df0 cbbd 338a 30be 0b23 1f3e
00000030: 2b4d a13d 95bc a43c 55cf 24be bc0d c83d
00000040: 3768 bcbd ed68 17be 9e9f c3bd df14 d73c
00000050: 8aeb 24be 0c96 283e 7fed 3e3d 664f 2f3e
00000060: 7764 ccbb 08d9 993d 6371 a83d 3c9f ec3d
00000070: eb6d 993d 2eb4 0ebe e099 123e ba9b ffbd
00000080: f85c 93bd 35f7 fbbc a252 4b3d 5232 e33d
00000090: 0ba4 96bd f4d7 12bc 530b 31bd 93cf a83d
000000a0: d3a6 d03c 8fa4 0bbe 13ed 25be 4322 bc3d
000000b0: cf35 81bb 3663 223e 5ddb cf3c ecb7 1f3e
000000c0: e0f0 f33d eacb 24be 5c7b 1f3e 633b 2dbe
000000d0: d7f3 07be 480e 013e f223 103e 4503 873c
000000e0: 7321 153e 6f3a 283e d0a9 2e3e a124 aebc
000000f0: 296b 223e 1ead e23d 6f87 0c3e 82d0 9abc
00000100: 1f94 973d b302 333c ae96 993d bd3b 353d
00000110: 3843 fc3d 9be0 223e c796 103e f7f5 1a3d
00000120: 3e38 24bd fdd0 c1bd 0abe c43d bf01 e1bd
00000130: 7d12 4a3c 6ffe 18bc 095f 7f3d 1134 8f3c
00000140: 9863 c63d ef80 06be 3fe6 123d cff5 633d
00000150: 8cf8 f3bd ffb7 693d 21b4 193e 5b59 36bd
00000160: 536c 07be e70e 88bd 36df 233e c824 ab3d
00000170: 2669 33bd 47b9 c5bd 82c3 773c 0c28 1dbe
00000180: 5e4b 3e3d 3fb0 11be cab4 3fbd b8d1 db3c
00000190: 6cb4 d3bd 243a 183e c257 493d 1a96 763d
000001a0: 4e66 c03d 3322 303e d7b0 4f3c 4042 1fbd
000001b0: a492 333c 982e 053e 131a 0cbe cf0a 05bd
000001c0: 6053 a13d f5a8 133e a0ec 8d3d 4456 8abc
000001d0: 7a5c b63c 74cd 5bbd 8e66 2e3e 5702 be3b
000001e0: 42cf a73d 7ade bbbd 8a87 273e 0e03 173e
000001f0: dae3 2abe c446 b2bd 6bf8 203e 70ac 913c
00000200: c83e 18be 06db a83a f7ec 0c3e 0595 e2bc

bn1.weight f4 [132]
0.36019906 0.47257817 0.35050246 0.28975132 -0.29773748 0.7468473 0.31435767 -0.42243075
0.6291608 0.43709868 0.35683277 0.47635 0.49177423 0.47085518 0.5507934 0.31172886
0.50234896 0.40773898 0.4105113 0.37955275 0.45613876 0.4821528 0.53448695 0.40799886
0.64798987 0.26330826 0.46985042 0.46312273 0.4079 0.32220384 0.5868783 0.58066416
0.30073783 0.38758215 0.3681905 0.51251215 0.682475 0.63939834 0.59989333 0.54048574
0.34450912 0.344459 0.46599546 0.5415617 0.5305772 0.59494483 0.39878112 0.658948
0.71800345 0.49379274 0.4182018 0.7357129 0.6367691 0.6151746 0.32392284 0.3769742
0.4639392 0.40101892 0.5488528 0.6588853 0.6808343 0.6560485 0.33966747 0.73038405
0.29565868 0.5018669 0.3582514 0.57587624 0.54636335 0.5280076 0.57763857 -0.006305151
0.36217186 0.6306488 0.6880323 0.5436967 0.69980705 0.41985685 0.71465987 0.33478826
0.53769064 0.31606796 0.5473617 0.63270754 0.61372787 0.35922146 0.48551217 0.5123372
0.39120576 0.37165022 0.6056716 0.5336352 0.56252396 0.37967792 0.692567 0.5832192
0.69156164 0.44485644 0.38652962 0.4360038 0.6043097 0.25063384 0.45992294 0.50125706
0.53190696 0.58076733 0.55817014 0.6873914 0.5210729 0.64729816 0.7844997 0.4535533
0.6270503 0.64333355 0.47042522 0.7795397 0.3563101 0.56782407 0.6294907 0.6252695
0.50637853 0.4256784 0.46182355 0.58278614 0.4197095 0.5284983 0.4321512 1.0309479
0.51486385 0.34930196 0.6064327 0.3827445
00000000: 036c b83e c4f5 f13e 0f75 b33e 495a 943e
00000010: 0c71 98be 6231 3f3f 7df3 a03e d848 d8be
00000020: af10 213f 66cb df3e c9b2 b63e 26e4 f33e
00000030: d5c9 fb3e ee13 f13e cc00 0d3f ed9a 9f3e
00000040: f199 003f 2ac3 d03e 8a2e d23e bd54 c23e
00000050: 058b e93e bbdc f63e 23d4 083f 3ae5 d03e
00000060: aae2 253f 57d0 863e 3c90 f03e 6c1e ed3e
00000070: 45d8 d03e e7f7 a43e a83d 163f 68a6 143f
00000080: 4ffa 993e 2b71 c63e 7783 bc3e ff33 033f
00000090: aeb6 2e3f 9caf 233f 9c92 193f 465d 0a3f
000000a0: 8063 b03e ee5c b03e f596 ee3e caa3 0a3f
000000b0: e8d3 073f 4e4e 183f 0a2d cc3e d1b0 283f
000000c0: 13cf 373f 67d2 fc3e 8c1e d63e ae57 3c3f
000000d0: 4d03 233f 157c 1d3f 37d9 a53e c302 c13e
000000e0: 7089 ed3e 5a52 cd3e 9e81 0c3f b5ac 283f
000000f0: 284b 2e3f cbf2 273f e5e8 ad3e 73fa 3a3f
00000100: 9360 973e 597a 003f ba6c b73e a06c 133f
00000110: 78de 0b3f 822b 073f 1fe0 133f 719b cebb
00000120: 976e b93e 3372 213f e322 303f b52f 0b3f
00000130: 8e26 333f 7af7 d63e f3f3 363f 5e69 ab3e
00000140: 18a6 093f a9d3 a13e e51f 0c3f 1ff9 213f
00000150: 451d 1d3f e0eb b73e 0d95 f83e 8828 033f
00000160: 1f4c c83e f048 be3e 4b0d 1b3f 519c 083f
00000170: 9201 103f 2565 c23e 124c 313f da4d 153f
00000180: 2f0a 313f 39c4 e33e 36e7 c53e e43b df3e
00000190: 0ab4 1a3f 1453 803e 057b eb3e 6252 003f
000001a0: 0e2b 083f 2bad 143f 3de4 0e3f e2f8 2f3f
000001b0: 0965 053f 55b5 253f f9d4 483f 2338 e83e
000001c0: 5e86 203f 82b1 243f 93db f03e ea8f 473f
000001d0: 476e b63e eb5c 113f 4d26 213f a911 203f
000001e0: 06a2 013f 85f2 d93e 2374 ec3e 7931 153f
000001f0: 2ae4 d63e aa4b 073f ec42 dd3e 1af6 833f
00000200: 1ece 033f b5d7 b23e 2c3f 1b3f 16f7 c33e

bn1.bias f4 [132]
-0.3782005 -0.40012386 0.0064709364 0.049891926 -0.076012656 -0.56919986 -0.10017553 -0.26194143
-1.2840694 -0.3420791 -0.21014707 -0.527049 -0.46794432 -0.5729891 -0.18402518 -0.034852464
-0.48005098 -0.20928231 -0.27092522 -0.3312196 -0.17754795 -0.058003113 -0.21377975 -0.21841884
-0.3909215 -0.19922338 -0.2525192 -0.52100474 -0.32673672 -0.239018 -0.83628416 -0.596253
-0.07265847 -0.1880177 0.059478104 -0.28758878 -0.29446965 -0.38332498 -0.66936487 -0.3931023
0.006807718 -0.24428123 -0.31804237 -0.62321687 -1.2385659 -0.16403767 0.05746429 -1.0114957
-0.56918955 0.007886685 -0.15109088 -0.32310322 -0.5500742 -0.27089697 -0.045654386 -0.3430025
0.05869367 -0.28378808 -0.44408986 -0.63279253 -0.63577765 -0.4645258 -0.2119673 -0.20463134
-0.11890539 -0.35132807 -0.38427317 -1.2117431 -0.27600008 -0.6830307 -0.307577 -0.0880445
-0.56949055 -0.38186893 -0.28998643 -0.39788887 -0.38343307 -0.043733016 -0.9272109 -0.16759421
-0.4336081 0.21485656 -0.31057814 -0.6183182 -0.58413726 -0.13505906 -0.34623915 -0.4414819
-0.32680878 -0.27396044 -0.5111782 -0.5084969 -0.4564221 -0.089011855 -0.38455853 -0.36107996
-0.42412195 -0.3804098 0.1796778 -0.63292897 -0.5588206 0.045516934 -0.2798235 0.029291594
-0.25225803 -0.082630485 -0.15030679 -0.6485175 -0.39903855 -0.6295019 -0.37027985 -0.33917075
-0.25144407 -0.50163084 -0.31512004 -0.424715 0.024800332 -0.2298069 -0.41310385 -0.40082955
-0.21065806 -0.32363337 0.08288468 -0.6061053 -0.39521593 -0.5292121 0.32913202 -0.5944387
-0.60462457 -0.06752576 -0.2059117 -0.096942544
00000000: 7fa3 c1be 09dd ccbe 260a d43b 7a5b 4c3d
00000010: 86ac 9bbd 15b7 11bf d428 cdbd 301d 86be
00000020: 635c a4bf fe24 afbe cb30 57be afec 06bf
00000030: 6696 efbe 6aaf 12bf 1971 3cbe 75c1 0ebd
00000040: 3ec9 f5be 1a4e 56be b6b6 8abe 9e95 a9be
00000050: 21cf 35be ac94 6dbd 14e9 5abe 30a9 5fbe
00000060: dd26 c8be 3701 4cbe 324a 81be 9160 05bf
00000070: 094a a7be 22c1 74be b816 56bf 09a4 18bf
00000080: f7cd 94bd b687 40be 509f 733d d63e 93be
00000090: bac4 96be 2c43 c4be 7f5b 2bbf b444 c9be
000000a0: 4713 df3b dc24 7abe 73d6 a2be 248b 1fbf
000000b0: 5489 9ebf 7ef9 27be ad5f 6b3d b178 81bf
000000c0: 68b6 11bf 2837 013c 91b7 1abe c96d a5be
000000d0: aad1 0cbf 02b3 8abe 1800 3bbd 069e afbe
000000e0: c668 703d ac4c 91be bf5f e3be b1fe 21bf
000000f0: 53c2 22bf 53d6 edbe f50d 59be e18a 51be
00000100: ab84 f3bd 46e1 b3be 74bf c4be 661a 9bbf
00000110: e24f 8dbe 1adb 2ebf bc7a 9dbe ad50 b4bd
00000120: 22ca 11bf 5384 c3be 1a79 94be 17b8 cbbe
00000130: 5751 c4be 6421 33bd b25d 6dbf d19d 2bbe
00000140: e201 debe 5c03 5c3e 1904 9fbe 1a4a 1ebf
00000150: 058a 15bf ec4c 0abe 4246 b1be ea09 e2be
00000160: 7b53 a7be 8b44 8cbe 93dc 02bf da2c 02bf
00000170: 28b0 e9be d94b b6bd dbe4 c4be 79df b8be
00000180: 8326 d9be 13c5 c2be 75fd 373e a207 22bf
00000190: de0e 0fbf f76f 3a3d 0745 8fbe edf4 ef3c
000001a0: f727 81be 2c3a a9bd 06ea 19be 3e05 26bf
000001b0: c84e ccbe 0927 21bf 5295 bdbe caa7 adbe
000001c0: 47bd 80be e16a 00bf 6a57 a1be 3f74 d9be
000001d0: 112a cb3c 8052 6bbe 5982 d3be 8839 cdbe
000001e0: bfb6 57be 46b3 a5be 71bf a93d b829 1bbf
000001f0: be59 cabe 727a 07bf fe83 a83e 222d 18bf
00000200: adc8 1abf f24a 8abd 84da 52be d089 c6bd

bn1.running_mean f4 [132]
2.5238767 2.221738 1.6737692 -1.090825 -1.0755172 -0.17813577 -0.0990332 -1.4789213
-1.9908648 0.0014509704 2.383603 -0.17293142 -0.3658219 1.2425566 -0.0020827125 -1.1601073
-1.8580283 0.045267034 -1.1050209 0.37097114 1.672083 -0.88499737 -2.4705565 -0.7121984
-0.17743638 0.71945494 1.0589018 -1.1735642 -0.3473268 0.21573299 -2.897167 -0.9085509
-1.4276637 -0.22243479 3.3433812 1.0724994 -0.018508617 0.39230344 0.6169686 1.4684856
2.2144492 -1.0947269 1.982947 -0.01289516 -1.0573788 0.18614785 -1.2535493 -1.2735695
-0.0068094223 1.5232332 0.9234964 0.01902642 0.71862537 -0.19468825 -0.7923078 0.4256455
-0.12316952 -2.3136847 2.0494606 -1.7000228 -0.47683224 0.4736715 0.1578581 1.0093224
1.24403 -0.21883851 -0.51327485 -2.2190552 -1.1198803 -0.0050411946 0.9419159 -0.3859961
-4.6062913 -0.36030006 0.73386353 1.3995862 0.32828787 0.2840232 -0.94697505 -0.24601384
0.3123872 -0.26060274 0.2733991 0.05650996 -1.3046583 -1.1698768 0.022126768 0.1798824
-1.0902779 -0.6980493 -0.62275594 -0.9114366 -0.29932132 0.52928376 -0.44855595 -0.053226363
-0.1250363 -0.41857514 1.3638827 -3.5661428 -2.931419 -1.675664 0.86700445 -0.6668199
-0.19122772 0.3949794 0.41512772 -0.17263284 1.148111 -0.10651834 0.5820234 -1.0666423
0.54277515 0.20815001 -1.8823483 0.17025669 0.5641826 -0.08142839 0.16772205 0.077449374
-0.23332533 -1.4464023 0.79433995 -1.0711875 -2.2943313 -2.8693645 0.3582234 -0.37882936
1.6917186 1.3083163 0.09023383 0.25533476
00000000: 3287 2140 f530 0e40 123e d63f 27a0 8bbf
00000010: 8caa 89bf 3969 36be ebd1 cabd 4b4d bdbf
00000020: a8d4 febf 7d2e be3a f48c 1840 ef14 31be
00000030: 024d bbbe 180c 9f3f 1e7e 08bb 657e 94bf
00000040: dfd3 edbf ed69 393d 5371 8dbf eeef bd3e
00000050: d106 d63f 308f 62bf 991d 1ec0 a252 36bf
00000060: e2b1 35be 332e 383f 188a 873f 5a37 96bf
00000070: d1d4 b1be 1ce9 5c3e 2f6b 39c0 cb96 68bf
00000080: afbd b6bf f2c5 63be f5f9 5540 a947 893f
00000090: 629f 97bc ffdb c83e a7f1 1d3f 56f7 bb3f
000000a0: 89b9 0d40 0320 8cbf 35d1 fd3f 3946 53bc
000000b0: 3058 87bf 8b9d 3e3e 4e74 a0bf 5304 a3bf
000000c0: 9321 dfbb 4ef9 c23f 436a 6c3f 4bdd 9b3c
000000d0: d5f7 373f 5b5c 47be afd4 4abf 35ee d93e
000000e0: 4d40 fcbd 6913 14c0 5d2a 0340 599a d9bf
000000f0: 5b23 f4be 1285 f23e 8ea5 213e 7a31 813f
00000100: 603c 9f3f 3417 60be fb65 03bf 0005 0ec0
00000110: 3d58 8fbf 9b30 a5bb 6721 713f 48a1 c5be
00000120: bd66 93c0 4079 b8be 7bde 3b3f a425 b33f
00000130: 5915 a83e 7d6b 913e f56c 72bf 0deb 7bbe
00000140: 37f1 9f3e b96d 85be f8fa 8b3e fd76 673d
00000150: 0bff a6bf 86be 95bf 3243 b53c 1833 383e
00000160: 3a8e 8bbf 5cb3 32bf ef6c 1fbf e953 69bf
00000170: a540 99be 247f 073f 20a9 e5be e303 5abd
00000180: 8409 00be 7b4f d6be b593 ae3f af3b 64c0
00000190: 5e9c 3bc0 287c d6bf 01f4 5d3f b5b4 2abf
000001a0: 33d1 43be bd3a ca3e 9f8b d43e aac6 30be
000001b0: 4df5 923f 4a26 dabd 7cff 143f bc87 88bf
000001c0: 50f3 0a3f 4725 553e caf0 f0bf c557 2e3e
000001d0: 456e 103f eec3 a6bd 54bf 2b3e c79d 9e3d
000001e0: d6ec 6ebe b623 b9bf dd59 4b3f ac1c 89bf
000001f0: 53d6 12c0 aba3 37c0 0f69 b73e ecf5 c1be
00000200: 3c8a d83f e976 a73f 84cc b83d 3dbb 823e

bn1.running_var f4 [132]
6.8101187 12.751162 5.0941176 10.415505 3.5955746 5.6513352 4.8912477 8.361916
2.6932356 6.380241 10.523198 19.51003 9.864812 6.08737 4.644796 6.0693207
8.833507 7.2994423 8.650828 6.035106 4.367437 4.599029 9.432104 14.826862
3.8406496 2.0566525 17.828772 2.562646 21.28013 7.928117 8.6451235 5.63751
4.2702622 3.2252865 8.809998 7.0734477 4.2966647 2.2764647 9.946095 14.811023
4.7482085 6.3730702 6.297474 8.861129 6.5781236 8.66894 14.296984 4.767506
11.02379 10.252466 2.7621315 2.061715 4.7430954 2.2317712 2.3549273 5.1126456
1.6434959 8.847131 11.832653 8.835999 6.0699515 6.300068 2.5736406 2.503242
4.3510284 4.9517245 5.318486 7.649468 4.005147 2.6855857 5.897332 2.4634507
7.6607585 5.891518 6.428706 14.318691 2.8117702 15.611985 2.7078924 2.6233592
13.496032 2.8936853 15.485044 2.7303429 4.7186236 2.0365386 20.482132 3.8692565
6.1986556 6.7164416 5.0183964 6.607095 4.5285945 5.3083262 4.107466 5.720486
10.990194 11.797085 5.066923 4.253932 11.2242775 5.018555 4.6691613 7.1781845
4.4486523 11.271413 7.4129214 14.891892 7.8180757 6.4155493 5.36362 4.9583454
4.4405065 11.924478 7.738624 1.8076341 8.377787 3.4002798 2.8130476 14.207175
1.8853471 8.146274 4.339449 10.812103 19.030725 4.878407 1.3649317 1.4078088
5.432319 8.974908 6.3264575 3.9361584
00000000: 7eec d940 c204 4c41 0303 a340 e9a5 2641
00000010: e51d 6640 bdd7 b440 1a85 9c40 68ca 0541
00000020: f95d 2c40 ef2a cc40 055f 2841 8b14 9c41
00000030: 45d6 1d41 bccb c240 2ba2 9440 e037 c240
00000040: 0b56 0d41 0895 e940 cb69 0a41 971f c140
00000050: 0bc2 8b40 3f2b 9340 e6e9 1641 d43a 6d41
00000060: 34cd 7540 32a0 0340 53a1 8e41 6402 2440
00000070: b53d aa41 22b3 fd40 6d52 0a41 7b66 b440
00000080: fda5 8840 186b 4e40 c0f5 0c41 af59 e240
00000090: 477e 8940 99b1 1140 3523 1f41 f3f9 6c41
000000a0: 53f1 9740 31f0 cb40 e884 c940 2fc7 0d41
000000b0: fd7f d240 fab3 0a41 72c0 6441 698f 9840
000000c0: 7261 3041 1a0a 2441 c3c6 3040 23f3 0340
000000d0: 70c7 9740 57d5 0e40 21b7 1640 cb9a a340
000000e0: 135e d23f d98d 0d41 8c52 3d41 4060 0d41
000000f0: 0b3d c240 289a c940 87b6 2440 1e35 2040
00000100: a03b 8b40 8774 9e40 0a31 aa40 71c8 f440
00000110: 2a2a 8040 a3e0 2b40 f2b6 bc40 2da9 1d40
00000120: ef24 f540 5187 bc40 f6b7 cd40 5c19 6541
00000130: 0bf4 3340 b1ca 7941 1c4e 2d40 1ee5 2740
00000140: bfef 5741 2432 3940 bdc2 7741 f0bd 2e40
00000150: f7fe 9640 a656 0240 68db a341 e6a1 7740
00000160: 635b c640 17ed d640 b496 a040 526d d340
00000170: 3fea 9040 cfdd a940 5d70 8340 390e b740
00000180: d6d7 2f41 dcc0 3c41 3c24 a240 3620 8840
00000190: a496 3341 0198 a040 c569 9540 b0b3 e540
000001a0: 5c5b 8e40 b557 3441 a736 ed40 3145 6e41
000001b0: ad2d fa40 2e4c cd40 c6a2 ab40 c4aa 9e40
000001c0: a118 8e40 a9ca 3e41 cfa2 f740 8e60 e73f
000001d0: 6a0b 0641 2f9e 5940 f908 3440 9750 6341
000001e0: 0e53 f13f 2357 0241 c4dc 8a40 60fe 2c41
000001f0: ed3e 9841 e91b 9c40 15b6 ae3f 1433 b43f
00000200: 8fd5 ad40 3999 0f41 5772 ca40 05ea 7b40

fc2.weight f4 [132, 132]
-0.046754733 0.08170264 0.023062665 -0.05947409 -0.26563555 -0.08427945 0.8161882 -0.327547
-0.42577052 -0.2645772 -0.15138285 0.26885405 -0.050789952 0.018580126 0.7122671 0.24002625
0.64574635 -0.0751246 -0.033744697 -0.15914077 0.18045366 -0.41826287 0.2950022 0.047260907
-0.18883893 0.10277052 -0.3190658 0.10129163 0.44489205 -0.62956417 -0.33344266 -0.009226671
0.0115641365 -0.18097326 -0.29016307 0.23579541 0.1142578 0.15247811 0.122014634 -0.04847871
-0.16562931 -0.059065226 0.18036082 -0.18601799 -0.5196016 0.5504808 -0.29421443 -0.03603871
0.1464608 -0.21754843 -0.314506 -0.33372563 0.13703898 0.16081154 -0.3794053 -0.2443867
-0.029436028 0.07812089 0.24922337 0.0774988 0.27875227 0.12792721 0.25578284 -0.16878752
-0.40345252 -0.12468807 0.48639938 0.1413826 -0.27026087 0.1209529 0.30925265 0.005024807
0.006327119 -0.13908283 -0.18869513 -0.09194892 -0.08736209 -0.1891297 -0.07531679 -0.06050479
0.36915556 -0.091154546 0.030810751 -0.0054360563 -0.25341222 0.050102904 0.23956126 -0.40203196
-0.044840474 0.34211475 0.16020198 0.22168209 0.08080561 -0.23550788 0.1355212 -0.035351086
-0.59183496 0.44379225 -0.10471642 0.43256822 -0.14488499 0.3966393 -0.5736881 0.11724669
-0.35392225 0.32781342 0.23723291 0.19453558 0.6665156 0.26966462 -0.7460949 -0.113348216
-0.17681828 -0.21622324 0.22196332 -0.4246927 -0.404284 0.21570437 -0.11954206 -0.46701726
-0.28743842 0.04436416 -0.38105944 -0.017006684 0.34108558 -0.09574605 0.026222706 0.046331927
-0.5806855 -0.21291164 0.4777686 -0.08146732 0.069373265 -0.27740616 0.500049 0.398811
0.06007214 0.13752913 0.01854435 -0.8067965 -0.24128757 -0.14121062 -0.2643821 -0.21521187
0.26189473 0.039011464 0.06295339 -0.047516704 0.16527785 -0.25371963 -0.032459516 0.122802705
0.58110285 0.6118222 0.10381114 0.19426595 0.46896833 -0.28822136 -0.8697067 -0.2601407
-0.25072134 -0.31972903 0.30434656 0.060707495 0.12477197 -0.09646818 0.33304048 -0.34217054
0.13311943 0.3017434 0.087137744 0.058679502 -0.031678326 0.14706482 -0.014225601 0.36348125
-0.49172962 -0.35352728 -0.33693466 0.062717214 -0.5464909 0.028716227 -0.1354626 0.43384328
-0.6434036 0.3871777 0.35586268 -0.32008106 0.09083505 -0.48693565 0.08010769 -0.765525
-0.2427624 -0.054681443 0.20664103 0.114898175 -0.6890228 -0.123111755 -0.12599713 -0.48886946
-0.29809487 -0.27872747 -0.35824245 -0.05537947 -0.019784471 0.14795196 -0.1208501 -0.49410424
-0.21222176 -0.3472166 -0.2816482 0.39352578 -0.3737679 -0.3003571 -0.21837416 0.16414563
-0.016625 0.12054037 -0.8962188 -0.22182707 0.07034642 0.03012311 -0.5197964 0.40078178
0.13173094 -0.16757314 -0.056818247 -0.30394006 0.20322144 0.17134513 -0.025884895 0.13731228
-0.13032588 0.345291 -0.28255868 0.4672212 0.18943721 0.19369696 -0.017530898 -0.31929013
-0.46315622 -0.04018848 -0.042127054 -0.89657634 0.045880124 0.3371523 -0.042858146 0.22685553
-0.0076426635 -0.5909456 0.14866863 0.29201892 -0.24928308 -0.4169759 -0.027576314 -0.07460908
00000000: e481 3fbd b753 a73d eaed bc3c 1a9b 73bd
00000010: 6201 88be b49a acbd b6f1 503f 3eb4 a7be
00000020: 98fe d9be aa76 87be 1b04 1bbe 3da7 893e
00000030: 2009 50bd 5935 983c 2357 363f 71c9 753e
00000040: a24f 253f edda 99bd e137 0abd ccf5 22be
00000050: d8c8 383e 8d26 d6be 870a 973e a794 413d
00000060: fe5e 41be 5a79 d23d 985c a3be fc71 cf3d
00000070: e4c8 e33e 1e2b 21bf ffb8 aabe 772b 17bc
00000080: 8177 3d3c 0e51 39be 4190 94be 5a74 713e
00000090: feff e93d 3923 1c3e cfe2 f93d 9d91 46bd
000000a0: bb9a 29be 61ee 71bd 82b0 383e 807b 3ebe
000000b0: 9c04 05bf 4fec 0c3f 46a3 96be 549d 13bd
000000c0: d2f9 153e 04c5 5ebe ee06 a1be 16de aabe
000000d0: f253 0c3e c8ab 243e 6941 c2be 8240 7abe
000000e0: d323 f1bc d8fd 9f3d 6934 7f3e b1b7 9e3d
000000f0: 9eb8 8e3e 5aff 023e f8f5 823e a3d6 2cbe
00000100: 5491 cebe 755c ffbd 5709 f93e 9ac6 103e
00000110: a25f 8abe 27b6 f73d 5d56 9e3e 23a7 a43b
00000120: b953 cf3b bb6b 0ebe 4c39 41be b74f bcbd
00000130: e5ea b2bd 37ab 41be b03f 9abd dfd3 77bd
00000140: f501 bd3e 3caf babd d466 fc3c f220 b2bb
00000150: 3fbf 81be b438 4d3d 8c4f 753e 22d7 cdbe
00000160: a5aa 37bd aa29 af3e fd0b 243e a100 633e
00000170: 697d a53d fa28 71be 12c6 0a3e 4dcc 10bd
00000180: 7f82 17bf bd38 e33e 9075 d6bd 9579 dd3e
00000190: bb5c 14be 4e14 cb3e 39dd 12bf 081f f03d
000001a0: 4c35 b5be 29d7 a73e 2fed 723e 5634 473e
000001b0: c4a0 2a3f 7b11 8a3e 1300 3fbf 1c23 e8bd
000001c0: da0f 35be a069 5dbe 5a4a 633e 5271 d9be
000001d0: 50fe cebe 9be1 5c3e 78d2 f4bd e31c efbe
000001e0: 212b 93be 32b7 353d 391a c3be 9a51 8bbc
000001f0: c5a2 ae3e 8116 c4bd 00d1 d63c 8cc6 3d3d
00000200: cea7 14bf 8205 5abe 169e f43e 57d8 a6bd
00000210: 9213 8e3d 2e08 8ebe 3603 003f f530 cc3e
00000220: 340e 763d 70d4 0c3e 52ea 973c 378a 4ebf
00000230: 1714 77be 8499 10be 175d 87be 8060 5cbe
00000240: 1117 863e 7cca 1f3d b5ed 803d e0a0 42bd
00000250: 993e 293e 8ae7 81be 45f4 04bd fc7f fb3d
00000260: 28c3 143f 61a0 1c3f ef9a d43d a7ed 463e
00000270: 9e1c f03e c091 93be 19a5 5ebf 2931 85be
00000280: 8c5e 80be 86b3 a3be 50d3 9b3e 6ca8 783d
00000290: 7288 ff3d 1c91 c5bd 4884 aa3e fa30 afbe
000002a0: 7650 083e 1c7e 9a3e 4675 b23d eb59 703d
000002b0: 22c1 01bd 2998 163e 7f12 69bc 371a ba3e
000002c0: fcc3 fbbe 8701 b5be b382 acbe e271 803d
000002d0: d4e6 0bbf 4b3e eb3c b5b6 0abe b520 de3e
000002e0: 19b6 24bf 283c c63e a233 b63e aae1 a3be
000002f0: ba07 ba3d a14f f9be 800f a43d 72f9 43bf
00000300: b596 78be a6f9 5fbd b599 533e bc4f eb3d
00000310: cc63 30bf 0422 fcbd 6405 01be 194d fabe
00000320: e49f 98be 5eb5 8ebe 8e6b b7be 95d5 62bd
00000330: 0b13 a2bc b880 173e 4280 f7bd 3bfb fcbe
00000340: a950 59be 60c6 b1be 3134 90be 367c c93e
00000350: 825e bfbe 68c8 99be 7a9d 5fbe cb15 283e
00000360: 2731 88bc dfdd f63d 986e 65bf a326 63be
00000370: c911 903d bec4 f63c 6011 05bf 4533 cd3e
00000380: 7ae4 063e 4b98 2bbe 40ba 68bd 089e 9bbe
00000390: 4819 503e 1975 2f3e 8f0c d4bc 979b 0c3e
000003a0: 2674 05be fbc9 b03e 88ab 90be 9e37 ef3e
000003b0: d4fb 413e 7f58 463e f59c 8fbc ff79 a3be
000003c0: d022 edbe ad9c 24bd 6b8d 2cbd 0786 65bf
000003d0: ccec 3b3d 3a9f ac3e 068c 2fbd d14c 683e
000003e0: 4f6f fabb 3648 17bf 973c 183e 8183 953e
000003f0: 1044 7fbe dd7d d5be b9e7 e1bc a5cc 98bd

fc2.bias f4 [132]
-0.036402468 -0.012309147 0.06922734 0.03416342 0.020434843 0.012798169 -0.07069193 -0.019707765
-0.046115894 -0.009525098 -0.019220864 -0.017849995 -0.05952882 -0.07693804 0.08477741 0.004371402
0.07616487 0.01178253 0.036836006 0.066581525 -0.065340005 -0.045266896 0.062363755 0.084721036
0.015647996 0.012334698 -0.010371482 -0.0461377 0.033595975 -0.08357025 -0.018558519 -0.0064167995
-0.028252354 0.051493976 -0.071234904 0.07108899 0.033618335 -0.0030361752 -0.029322062 -0.02170133
-0.015822086 0.07676796 -0.057811536 -0.045881588 -0.012316146 -0.027282927 0.022965947 0.076100826
0.063383095 -0.036652148 0.05810495 -0.07801773 0.018361017 0.03917698 0.020387864 0.07076424
-0.011944891 0.044176668 -0.049317 0.07569859 0.061176803 0.01697177 0.028211303 0.080735736
0.03821823 0.07992519 0.025509525 0.05170565 -0.020869758 -0.015130897 -0.03877386 -0.06956985
-0.06708773 0.07005312 0.035305597 0.041881036 -0.029024933 0.06278529 -0.066216245 -0.057925723
0.080653645 0.0832886 -0.059394028 0.0029473607 -0.04883387 0.051819023 -0.024107272 -0.07663696
-0.022716524 -0.07246856 -0.03577037 -0.08533585 -0.03780362 -0.0029398405 -0.024386387 0.046972636
0.05743543 -0.07843726 0.0058946563 0.061456274 -0.05528158 -0.008280646 -0.064275645 0.08331833
-0.03754004 0.039998136 0.020910956 -0.010981919 0.023625497 -0.0098778345 0.014190465 0.08666596
0.038295936 -0.00057354075 -0.077896155 0.05280665 0.052444316 0.013124953 -0.06734096 0.011034552
-0.08294449 -0.018266872 0.059265785 -0.016505713 0.0641123 0.03666475 0.062441662 -0.0798012
0.027057234 -0.028584275 -0.07093117 -0.0650926
00000000: c11a 15bd 4eac 49bc 10c7 8d3d f1ee 0b3d
00000010: f966 a73c 69af 513c eec6 90bd 2e72 a1bc
00000020: 05e4 3cbd 280f 1cbc 1375 9dbc 273a 92bc
00000030: 7ed4 73bd b191 9dbd c79f ad3d fa3d 8f3b
00000040: 54fc 9b3d 830b 413c 5ae1 163d e55b 883d
00000050: fbd0 85bd c869 39bd 2371 7f3d 3982 ad3d
00000060: 3a30 803c 7917 4a3c 26ed 29bc e3fa 3cbd
00000070: ef9b 093d e126 abbd 0908 98bc 0444 d2bb
00000080: 7b71 e7bc 59eb 523d 9be3 91bd 1b97 913d
00000090: 61b3 093d 91fa 46bb d234 f0bc fdc6 b1bc
000000a0: 529d 81bc 8538 9d3d cacb 6cbd 55ee 3bbd
000000b0: a9c9 49bc 7280 dfbc 1523 bc3c c0da 9b3d
000000c0: ffce 813d 9020 16bd 75ff 6d3d c2c7 9fbd
000000d0: d869 963c 0a78 203d 7304 a73c d8ec 903d
000000e0: 81b4 43bc 98f2 343d 9f00 4abd dd07 9b3d
000000f0: 8794 7a3d 6208 8b3c 641b e73c c758 a53d
00000100: b88a 1c3d d1af a33d 5af9 d03c 4ec9 533d
00000110: 0ef7 aabc 95e7 77bc 57d1 1ebd a37a 8ebd
00000120: 4b65 89bd 0378 8f3d 9a9c 103d 738b 2b3d
00000130: b2c5 edbc 9395 803d 629c 87bd 8643 6dbd
00000140: bd2d a53d 3793 aa3d 2747 73bd 8228 413b
00000150: 0606 48bd 2f40 543d 9d7c c5bc d7f3 9cbd
00000160: 0118 babc 656a 94bd f483 12bd 90c4 aebd
00000170: f8d7 1abd 57aa 40bb f6c5 c7bc 6166 403d
00000180: 6a41 6b3d b7a3 a0bd f627 c13b 93b9 7b3d
00000190: f06e 62bd 8cab 07bc f3a2 83bd cda2 aa3d
000001a0: 96c3 19bd 16d5 233d 744d ab3c 82ed 33bc
000001b0: 428a c13c a4d6 21bc 207f 683c ec7d b13d
000001c0: 33dc 1c3d ab59 16ba 0588 9fbd c94b 583d
000001d0: dacf 563d 0b0a 573c 0fea 89bd 44ca 343c
000001e0: cdde a9bd 68a4 95bc aec0 723d fd36 87bc
000001f0: 4f4d 833d c72d 163d d4c2 7f3d d06e a3bd
00000200: 22a7 dd3c 9229 eabc 5c44 91bd 454f 85bd

bn2.weight f4 [132]
1.0354402 0.972931 1.0511276 0.9425631 1.5817604 1.255814 1.2910874 1.0842732
1.0761707 0.9640619 1.2120305 1.1745205 0.9287195 1.7469814 1.3049289 1.6945105
1.1417279 1.3977561 1.0383258 1.3683872 1.5931023 1.4316382 1.3927774 1.3979834
1.2524148 1.0078715 1.1835243 0.8178054 0.8295465 1.3531833 1.4256878 1.3382733
1.207246 1.6996938 0.9634275 0.8721901 0.8570201 1.0049086 0.66735864 1.2526163
1.3101885 1.2521236 1.1830562 1.579818 1.1076548 1.5673609 1.0306817 0.8728991
1.072184 1.7595071 1.0695267 1.3859186 1.3086514 1.2801394 1.447638 0.93812436
1.183681 0.75471014 1.4219873 0.9809139 1.4832584 0.9950663 1.0952523 1.0907224
1.2164433 1.2268475 1.2716572 0.8688865 1.1843888 0.97911626 1.0562295 0.9962876
1.0395952 0.792793 1.5322937 0.87631273 1.3892711 1.2008048 1.0547373 0.86133724
1.0500377 1.0898429 0.9952726 1.09348 1.0895101 0.92276794 1.007681 0.70919293
1.3370967 0.8305471 1.6830419 1.1541413 1.0933578 1.3736013 1.0910625 1.3543806
1.5244071 0.5985026 1.085192 0.68107754 1.5876461 0.8891544 1.2997706 1.0993983
1.3978142 1.0659243 1.2267675 0.90986574 1.010364 1.08821 0.7349516 0.92738885
1.072773 1.2743152 1.371152 1.1228386 1.2715605 0.8426385 1.036451 0.8264439
1.2168881 1.0006143 1.0413338 1.2138592 1.350519 0.8537346 1.5553231 1.3536297
1.1490765 1.2083019 0.7881154 1.2332649
00000000: 4e89 843f 0212 793f 598b 863f d14b 713f
00000010: 2077 ca3f 83be a03f 5a42 a53f 77c9 8a3f
00000020: f6bf 893f c3cc 763f d123 9b3f b056 963f
00000030: 90c0 6d3f 169d df3f e907 a73f b8e5 d83f
00000040: 2424 923f ace9 b23f dce7 843f 5027 af3f
00000050: c7ea cb3f ec3f b73f 8846 b23f 1ff1 b23f
00000060: 214f a03f ef01 813f b97d 973f b25b 513f
00000070: 295d 543f 1c35 ad3f f07c b63f 8a4c ab3f
00000080: 0987 9a3f 918f d93f 2fa3 763f da47 5f3f
00000090: ab65 5b3f d8a0 803f 04d8 2a3f bb55 a03f
000000a0: 42b4 a73f 9645 a03f 636e 973f 7a37 ca3f
000000b0: a2c7 8d3f 489f c83f 61ed 833f 5176 5f3f
000000c0: 533d 893f 8737 e13f 40e6 883f c865 b13f
000000d0: e481 a73f 9cdb a33f 344c b93f eb28 703f
000000e0: dc82 973f af34 413f ae03 b63f 2c1d 7b3f
000000f0: 69db bd3f aabc 7e3f 3a31 8c3f cb9c 8b3f
00000100: 6ab4 9b3f 5709 9d3f aac5 a23f 586f 5e3f
00000110: 0d9a 973f 5da7 7a3f 8732 873f b40c 7f3f
00000120: 7511 853f 7bf4 4a3f 3322 c43f 0856 603f
00000130: a3d3 b13f f9b3 993f a201 873f 9980 5c3f
00000140: a367 863f f97f 8b3f 2fca 7e3f 27f7 8b3f
00000150: 1175 8b3f 853a 6c3f b1fb 803f ab8d 353f
00000160: fc25 ab3f bc9e 543f eb6d d73f e7ba 933f
00000170: 26f3 8b3f 2bd2 af3f f0a7 8b3f 585c ad3f
00000180: c61f c33f 7737 193f 92e7 8a3f 195b 2e3f
00000190: fd37 cb3f 9f9f 633f e25e a63f 15b9 8c3f
000001a0: 93eb b23f 3570 883f b806 9d3f f6ec 683f
000001b0: 9c53 813f 774a 8b3f ca25 3c3f 5b69 6d3f
000001c0: a050 893f c31c a33f e981 af3f 2db9 8f3f
000001d0: 7fc2 a23f 28b7 573f 6daa 843f d491 533f
000001e0: fdc2 9b3f 2114 803f 6d4a 853f bd5f 9b3f
000001f0: cedd ac3f 5a8e 5a3f d414 c73f bd43 ad3f
00000200: f014 933f a3a9 9a3f eec1 493f a0db 9d3f

bn2.bias f4 [132]
-0.83836055 -0.3984807 -0.29408157 -0.78539175 -2.8090801 -1.9277167 -1.4446441 -0.5437461
-0.3191722 -0.11618048 -1.0428149 -0.93117243 -0.9717224 -0.75447005 -0.61062056 -1.2659695
-1.6843982 -0.22701459 -0.24979398 -2.5216858 -1.7448691 -1.0931865 -1.9899198 -2.4423165
-0.8850979 -0.8075557 -0.3588806 -0.9201057 0.117195025 -2.153474 -1.5648474 0.06497102
-1.903458 -2.4003563 -2.320139 -0.4998318 -0.5638357 -0.36435843 0.49994087 -0.8610642
-1.0474237 -1.3398802 -1.4421207 -1.7443095 -0.20786665 -1.6218042 -0.25811946 -0.030220963
-0.98107326 -1.4476037 -0.6285706 -1.1265264 -0.478438 -0.17049727 -1.4815779 -1.9451597
-1.1072742 0.078395024 -0.07627645 -1.4557809 -0.5683744 -1.6147449 -0.49290755 -0.3179513
0.03675314 -0.47089612 -2.5995271 -0.13887449 -1.2934344 -1.1298101 -1.9159347 -0.45105612
0.09454247 -0.7711552 -0.9294068 -0.611105 -0.46374655 -0.39755392 -0.40244696 0.24508396
-0.4368172 -1.9372717 0.06113963 -0.8410621 -0.42403102 -0.83204436 -0.36235267 -0.2761184
-2.5021288 -0.30674988 -2.043219 -0.9561681 -1.2049239 -0.27698702 -0.08187484 -0.3336665
-0.5625049 0.19830883 -0.46197394 0.10335133 -1.2291402 -0.7844463 -0.19234209 -1.6822277
-0.96832 -1.112648 -0.49579316 -0.6447747 0.13100988 -1.399291 -0.840002 -0.38672933
-0.44689432 -2.6644957 -1.4089417 -0.4842668 -0.23949109 -0.15349767 -2.3720977 -0.3440057
-1.1777604 -0.53752255 -1.079833 -0.80406463 -0.5859953 -0.8432736 -1.0179958 -0.8624259
-0.8008908 -1.479883 -0.8805595 -1.5991963
00000000: cc9e 56bf aa05 ccbe dc91 96be 6f0f 49bf
00000010: f8c7 33c0 6cbf f6bf 19ea b8bf f232 0bbf
00000020: 8a6a a3be 08f0 edbd f57a 85bf 5161 6ebf
00000030: cdc2 78bf f324 41bf a151 1cbf 4a0b a2bf
00000040: 5c9a d7bf 8376 68be fec9 7fbe 4d63 21c0
00000050: df57 dfbf 89ed 8bbf b1b5 febf ea4e 1cc0
00000060: c795 62bf f8bb 4ebf 33bf b7be 0c8c 6bbf
00000070: f203 f03d 85d2 09c0 eb4c c8bf 870f 853d
00000080: 83a4 f3bf 709f 19c0 287d 14c0 f4e9 ffbe
00000090: 8957 10bf 308d babe 40f8 ff3e b46e 5cbf
000000a0: fb11 86bf 3281 abbf 6997 b8bf 8945 dfbf
000000b0: ffda 54be 4897 cfbf 3c28 84be f491 f7bc
000000c0: 9e27 7bbf 144b b9bf 01ea 20bf 0432 90bf
000000d0: d3f5 f4be d696 2ebe 58a4 bdbf fefa f8bf
000000e0: 29bb 8dbf 928d a03d d436 9cbd 0757 babf
000000f0: fc80 11bf f6af cebf 615e fcbe 83ca a2be
00000100: 768a 163d 4c19 f1be a75e 26c0 1d35 0ebe
00000110: 428f a5bf 9e9d 90bf 593d f5bf d4f0 e6be
00000120: 7c9f c13d 6d6a 45bf 9bed 6dbf 6171 1cbf
00000130: 3070 edbe 308c cbbe 870d cebe 4af7 7a3e
00000140: 81a6 dfbe 85f8 f7bf 8c6d 7a3d d94f 57bf
00000150: 981a d9be dc00 55bf 4a86 b9be 645f 8dbe
00000160: e122 20c0 520e 9dbe 1ac4 02c0 6fc7 74bf
00000170: f23a 9abf 3ed1 8dbe ffad a7bd 56d6 aabe
00000180: 5200 10bf 7811 4b3e d987 ecbe dda9 d33d
00000190: 7754 9dbf 79d1 48bf 53f5 44be 3d53 d7bf
000001a0: d2e3 77bf 406b 8ebf 9ad8 fdbe f40f 25bf
000001b0: 7427 063e f81b b3bf 5f0a 57bf 6301 c6be
000001c0: 55cf e4be 1987 2ac0 3458 b4bf d1f1 f7be
000001d0: 273d 75be 7e2e 1dbe 73d0 17c0 8421 b0be
000001e0: dac0 96bf 149b 09bf f837 8abf 2ed7 4dbf
000001f0: ca03 16bf c7e0 57bf b04d 82bf f2c7 5cbf
00000200: 2e07 4dbf ce6c bdbf 596c 61bf 77b2 ccbf

bn2.running_mean f4 [132]
-0.45156142 -0.41398013 -0.15002504 0.29677483 1.214345 0.8741533 0.5384356 -0.47797385
-0.06521402 -0.790416 0.07756653 0.40118855 -0.20712 0.49628606 -0.15292075 -0.30975297
0.758489 -1.8253407 -0.8542315 1.4244969 0.33352375 -0.6084891 0.50166905 1.1756831
-0.7979738 0.136818 -0.045030713 -0.1407787 -0.93116736 -0.24275966 0.68825465 -1.4576651
0.872286 1.163488 0.8771826 -0.60060066 -0.2773199 -0.013180024 -0.36883855 0.12415708
0.1395849 0.6506347 0.6854251 0.33512083 0.7952853 0.54993004 -0.15348364 0.26100734
-0.91651547 1.1271521 -0.75821954 -0.6574649 0.8208879 0.4388019 0.17337605 0.8357141
0.47868785 -0.16723777 -0.5379368 -0.765563 -0.6719724 0.62029105 -0.08949777 -0.58071893
-0.70913386 -0.12047405 0.8824359 -0.6180604 0.85484034 -0.10449057 0.6211724 0.32313567
-0.5455066 0.59679943 0.9508995 0.40125975 -0.8776729 0.38303903 -0.7739339 -0.612407
-0.9917727 0.7623198 -0.48681816 -0.43197343 -0.8131091 -0.67936397 0.6465516 0.037496746
0.33358365 -0.80720085 0.8828634 -0.8887559 0.62861425 -0.47412926 0.32042742 -0.65532357
0.22113764 -1.6900022 -0.8991884 -0.85096496 1.1759928 -0.35780498 0.9408219 0.52904075
-1.1255574 0.5080277 -0.5259809 0.24531865 -0.16568202 -0.46157414 0.011380947 -0.74475193
0.39259565 0.8289441 0.77709144 -1.047181 -0.803473 -0.66386473 0.35474062 -0.07041048
-0.143972 -0.41971993 0.3252481 0.31032148 -0.5589521 -0.84725523 -0.21705653 0.51166666
-0.026316023 0.21257396 -0.6897259 1.5319057
00000000: 0f33 e7be 34f5 d3be 2aa0 19be dff2 973e
00000010: a86f 9b3f 83c8 5f3f ead6 093f fdb8 f4be
00000020: ee8e 85bd b458 4abf 33db 9e3d 9668 cd3e
00000030: 4417 54be 3519 fe3e 4297 1cbe f197 9ebe
00000040: 562c 423f c4a4 e9bf eaae 5abf ea55 b63f
00000050: a0c3 aa3e f1c5 1bbf 626d 003f c97c 963f
00000060: 0348 4cbf 051a 0c3e 2072 38bd 4b28 10be
00000070: fc60 6ebf fd95 78be 7531 303f c594 babf
00000080: 234e 5f3f 2ded 943f 0a8f 603f f7c0 19bf
00000090: e0fc 8dbe 07f1 57bc 68d8 bcbe 1146 fe3d
000000a0: 58ef 0e3e ff8f 263f 0578 2f3f f594 ab3e
000000b0: d197 4b3f 37c8 0c3f d12a 1dbe c1a2 853e
000000c0: c2a0 6abf 8546 903f ad1a 42bf 9f4f 28bf
000000d0: b625 523f a5aa e03e 7e89 313e 5cf1 553f
000000e0: 9316 f53e 6140 2bbe 3ab6 09bf f0fb 43bf
000000f0: 6206 2cbf 65cb 1e3f 9b4a b7bd ffa9 14bf
00000100: cc89 35bf 19bb f6bd 52e7 613f 3539 1ebf
00000110: d1d6 5a3f 27ff d5bd 2805 1f3f 0a72 a53e
00000120: 52a6 0bbf d9c7 183f 266e 733f eb71 cd3e
00000130: 2caf 60bf b11d c43e 8820 46bf b5c6 1cbf
00000140: d1e4 7dbf 6427 433f 3b40 f9be 9f2b ddbe
00000150: eb27 50bf ccea 2dbf 6884 253f 3096 193d
00000160: 7acb aa3e b7a4 4ebf 5603 623f 8285 63bf
00000170: ddec 203f 12c1 f2be 100f a43e 49c3 27bf
00000180: e871 623e fe51 d8bf 3631 66bf d7d8 59bf
00000190: ef86 963f 3732 b7be b4d9 703f 376f 073f
000001a0: 4412 90bf 1a0e 023f afa6 06bf d034 7b3e
000001b0: 8ca8 29be 7253 ecbe 2777 3a3c 10a8 3ebf
000001c0: 4c02 c93e ae35 543f 77ef 463f 070a 86bf
000001d0: 68b0 4dbf 0af3 29bf 90a0 b53e 5f33 90bd
000001e0: 656d 13be 88e5 d6be eb86 a63e 75e2 9e3e
000001f0: 7c17 0fbf b8e5 58bf 1144 5ebe 96fc 023f
00000200: b394 d7bc fdac 593e e091 30bf 7c15 c43f

bn2.running_var f4 [132]
0.5400971 1.5998341 0.28090543 0.5591331 1.2148299 0.7637492 0.9175662 0.41911897
0.90067434 1.1377046 0.3703266 0.7260612 0.7021331 1.0394061 0.6195584 0.41906783
0.95639586 2.769336 0.72024655 0.7865713 0.7555316 0.41637567 0.6799131 0.8233019
0.34111717 0.34534496 0.48328263 0.34845933 0.98401064 0.8658203 1.0257163 2.092372
0.7615684 1.0178204 0.7018136 0.73547816 0.580819 0.44477904 0.9165376 0.538362
0.71288824 1.1949898 0.653173 0.63509625 1.0262116 1.0096489 0.8802193 0.94170946
0.40003183 1.259356 0.30675852 0.38366297 1.0656058 0.7125182 0.69179744 0.64925206
0.650099 1.0672977 0.6787808 0.2692128 0.6420405 0.5377761 0.7185722 0.7927479
0.8853837 0.3402777 0.7952464 0.46568763 1.1748104 0.4801797 0.66748106 0.7778653
0.5729279 0.640232 0.95355093 0.58234113 1.3522656 0.9602839 0.7842421 0.9335708
1.763021 0.5577483 1.0062298 0.49767047 0.6179871 0.3500357 0.94451284 0.5471955
0.7177949 0.49265304 1.2543501 0.4523326 0.9374472 0.7189422 0.628031 0.74765074
0.6119562 2.3710718 0.9222281 0.8923375 0.947706 0.39531925 1.3790706 0.76023656
0.6252557 0.7255095 0.41236874 0.67678195 0.90752065 0.56880444 0.82037437 0.46188495
0.66717255 0.4941781 0.7301191 0.52304447 0.57839036 0.70278454 0.8189901 0.88415635
0.5305369 0.49429318 0.68384224 0.83325624 0.43371764 0.3146295 0.521512 0.7231155
0.5137391 1.077271 0.68266314 1.1923504
00000000: ce43 0a3f 5dc7 cc3f d6d2 8f3e 5923 0f3f
00000010: 8c7f 9b3f 1185 433f 9ee5 6a3f c396 d63e
00000020: 9892 663f 4ea0 913f 739b bd3e 26df 393f
00000030: ffbe 333f 420b 853f 619b 1e3f 0f90 d63e
00000040: 5cd6 743f cd3c 3140 1462 383f bd5c 493f
00000050: 856a 413f 312f d53e c90e 2e3f eac3 523f
00000060: e9a6 ae3e 0ed1 b03e d270 f73e 4369 b23e
00000070: 1fe8 7b3f 66a6 5d3f ac4a 833f 6ce9 0540
00000080: 26f6 423f f047 823f 0eaa 333f 4c48 3c3f
00000090: 8eb0 143f 14ba e33e 35a2 6a3f 18d2 093f
000000a0: d87f 363f 6df5 983f 5936 273f ab95 223f
000000b0: e75a 833f 2d3c 813f 0d56 613f df13 713f
000000c0: f9d0 cc3e 9432 a13f 740f 9d3e 796f c43e
000000d0: c565 883f 9867 363f a319 313f 6235 263f
000000e0: e36c 263f 369d 883f 94c4 2d3f 43d6 893e
000000f0: c45c 243f b2ab 093f 59f4 373f 87f1 4a3f
00000100: 82a8 623f e138 ae3e 4595 4b3f 9c6e ee3e
00000110: 3060 963f 1dda f53e 0ae0 2a3f 2e22 473f
00000120: 67ab 123f 3fe6 233f ea1b 743f 4f14 153f
00000130: 0a17 ad3f 2ad5 753f 17c4 483f 7ffe 6e3f
00000140: acaa e13f 98c8 0e3f 23cc 803f aace fe3e
00000150: 6734 1e3f e137 b33e 98cb 713f 0115 0c3f
00000160: 68c1 373f 053d fc3e 8b8e a03f 2398 e73e
00000170: 8afc 6f3f 990c 383f a4c6 203f 0a66 3f3f
00000180: 29a9 1c3f a4bf 1740 2417 6c3f 3b70 643f
00000190: dc9c 723f 4967 ca3e 6385 b03f dd9e 423f
000001a0: c210 203f feba 393f ff21 d33e 9541 2d3f
000001b0: 4653 683f 2b9d 113f 0e04 523f 2f7c ec3e
000001c0: d2cb 2a3f e904 fd3e 16e9 3a3f 3ee6 053f
000001d0: 6411 143f b0e9 333f 56a9 513f 1258 623f
000001e0: 44d1 073f ff13 fd3e 4910 2f3f 4850 553f
000001f0: 3d10 de3e 1e17 a13e cf81 053f 191e 393f
00000200: 6884 033f 04e4 893f 03c3 2e3f f09e 983f

fc3.weight f4 [4, 132]
0.13540964 0.49624527 -0.033680957 -0.78008413 0.24589126 0.5170927 0.55588984 -0.16375683
-0.68291277 0.854212 1.8526654 -0.047051948 0.37171042 0.018277971 -0.3038324 2.3589377
-0.9305667 0.52474236 -0.1621191 0.043333378 -0.16701764 -2.3222418 0.3167174 -1.7441741
-0.054201346 -0.19047412 0.5539484 -0.07481751 -0.35381317 -0.76115286 -0.1766413 0.0460653
-0.12142345 0.5170664 2.9780524 -0.05449734 0.7106921 0.064784296 -0.76089525 -0.05768703
-0.6006702 -0.45852476 -0.2762324 0.99833995 0.86054754 0.44026345 -0.652427 0.12185011
0.1001383 -0.17808153 -0.730664 0.006191727 -0.26149425 -0.5958052 0.12654242 -0.01605043
-0.111546405 -0.60340005 0.14161962 0.034402043 0.16350183 -0.10896178 0.086263016 -0.07419599
0.06950547 0.3316902 -0.7979096 -0.6524591 1.1344222 0.6979018 0.7626392 0.054152064
0.18986724 0.38722944 -0.94419324 -0.028609537 -0.53656894 -0.16606613 0.79914284 -0.4873871
-0.43474922 0.5738983 -0.171581 -0.2221321 0.56354505 -0.32704452 -0.015365877 0.071763
1.575924 -0.15055533 -0.691794 -0.23086092 0.9872818 0.6404162 0.47709602 -0.56367487
0.31065136 -0.091274485 0.62813354 0.6160202 0.9465795 0.32446414 -0.5407103 -0.42278042
0.17871869 -0.14171116 0.21333596 -0.4084269 -0.41973585 -0.33423164 0.03740007 0.25462723
0.58626556 -0.25287405 0.3604522 0.7206923 -0.55253536 -0.038189065 -0.5713518 -0.19094907
0.32182828 -0.42509484 0.27338126 -0.72309667 -0.28483966 -0.58753747 -0.68867975 -0.26904705
0.202498 0.31133476 1.1921661 -1.7895793 0.3881871 0.16517901 0.008395786 -0.32393685
-0.29078507 0.89835715 -1.51944 -1.0584116 0.7496479 -0.57438964 -0.0076690414 0.9293951
-0.30383372 -0.3622666 0.11957871 0.09778273 -0.29702726 -0.068968944 -0.49301562 2.4173524
-0.91477317 -0.051841892 1.2242377 0.3318538 -0.8168919 0.116609216 0.49354604 0.6241441
0.69513476 -0.7756079 -1.5167568 0.43979746 1.5230693 -0.14445053 -1.0709496 0.24786997
-0.12179379 -0.36655724 -0.26808426 0.39641094 0.6711258 1.0215302 -0.28546047 0.14312549
-0.1495745 -0.9572362 0.22043979 0.92218083 -0.3606071 1.4364525 0.92006534 2.6819763
1.0831101 -0.4162157 -0.11913451 0.9842483 1.361038 0.031489294 1.5334688 0.5188064
-1.4584345 -0.5234814 -0.0628569 -1.0228256 -0.70467204 0.034693576 -0.26252535 0.15475136
0.099807285 -0.6179969 0.08459137 -0.59157085 0.12531899 0.11321534 -0.3750991 -0.28738242
-0.3283863 -1.591353 0.51809704 -0.28930822 1.0331668 -1.5245994 -0.028922556 1.6206273
0.2813697 -0.28544387 -0.92764616 0.49540535 0.71699363 -0.49740082 0.45307317 -0.5161581
-0.30641106 0.07530572 -0.5892689 -0.123265065 -1.2110021 0.1417244 -0.071251854 -0.4649689
0.61392707 0.6309045 -0.6484728 -1.160421 0.42872807 -0.067245275 0.67744136 -0.76105124
0.044424172 -0.643381 0.08625986 -1.1919947 -0.50236726 -2.3424249 0.91263163 -0.3091557
-0.4876906 -0.38500184 1.1200236 -0.20796213 -0.08113211 -0.6622064 0.21182038 0.18806216
00000000: d3a8 0a3e dc13 fe3e 0bf5 09bd 98b3 47bf
00000010: ebca 7b3e 3060 043f cc4e 0e3f dfaf 27be
00000020: 5fd3 2ebf a3ad 5a3f 2424 ed3f 8bb9 40bd
00000030: d450 be3e afbb 953c ec8f 9bbe d6f8 1640
00000040: 9f39 6ebf 8455 063f 8d02 26be 577e 313d
00000050: ac06 2bbe 9c9f 14c0 c828 a23e 1941 dfbf
00000060: 3b02 5ebd a60b 43be 90cf 0d3f ec39 99bd
00000070: 0027 b5be eada 42bf 75e1 34be f8ae 3c3d
00000080: dcac f8bd 775e 043f 6998 3e40 9a38 5fbd
00000090: ebef 353f a1ad 843d 08ca 42bf 3c49 6cbd
000000a0: 86c5 19bf c2c3 eabe 556e 8dbe 3593 7f3f
000000b0: d84c 5c3f 366a e13e 7505 27bf 8d8c f93d
000000c0: 4f15 cd3d 015b 36be cc0c 3bbf f8e3 ca3b
000000d0: 93e2 85be b186 18bf 5694 013e 317c 83bc
000000e0: 7172 e4bd 6d78 1abf bc04 113e 28e9 0c3d
000000f0: 066d 273e 5b27 dfbd aaaa b03d 11f4 97bd
00000100: e258 8e3d 4cd3 a93e ce43 4cbf 8f07 27bf
00000110: bf34 913f b1a9 323f 533c 433f 8ece 5d3d
00000120: 8f6c 423e f042 c63e a6b6 71bf 8c5e eabc
00000130: 955c 09bf 3d0d 2abe a094 4c3f cd8a f9be
00000140: 7397 debe 00eb 123f eeb2 2fbe 9976 63be
00000150: 7d44 103f 6172 a7be 29c1 7bbc 7bf8 923d
00000160: e1b7 c93f 2d2b 1abe 6919 31bf ce66 6cbe
00000170: 80be 7c3f 51f2 233f ee45 f43e ff4c 10bf
00000180: b20d 9f3e 1eee babd 5ccd 203f 80b3 1d3f
00000190: 0953 723f 2a20 a63e fd6b 0abf ad76 d8be
000001a0: 0802 373e bb1c 11be be74 5a3e 551d d1be
000001b0: 9ee7 d6be 6920 abbe d130 193d 805e 823e
000001c0: 8015 163f b578 81be 318d b83e 4a7f 383f
000001d0: f572 0dbf 236c 1cbd 1d44 12bf 2788 43be
000001e0: adc6 a43e 08a6 d9be a1f8 8b3e dd1c 39bf
000001f0: 81d6 91be db68 16bf 514d 30bf 89c0 89be
00000200: a35b 4f3e 4567 9f3e e698 983f ef10 e5bf
00000210: 76c0 c63e b024 293e 7b8e 093c 0ddb a5be
00000220: c8e1 94be bcfa 653f 037d c2bf 087a 87bf
00000230: ede8 3f3f 330b 13bf 954c fbbb d6ec 6d3f
00000240: 1890 9bbe 027b b9be afe5 f43d 5042 c83d
00000250: f513 98be 973f 8dbd 8b6c fcbe e7b5 1a40
00000260: 932e 6abf 2a58 54bd d2b3 9c3f bee8 a93e
00000270: d41f 51bf d0d0 ee3d 11b2 fc3e e8c7 1f3f
00000280: 5af4 313f 3d8e 46bf 1625 c2bf 222d e13e
00000290: eff3 c23f d7ea 13be e014 89bf a0d1 7d3e
000002a0: 066f f9bd 64ad bbbe 5742 89be 60f6 ca3e
000002b0: e7ce 2b3f 80c1 823f e027 92be 7d8f 123e
000002c0: 0f2a 19be 6e0d 75bf f8ba 613e 0b14 6c3f
000002d0: 7ea1 b8be addd b73f 6789 6b3f 80a5 2b40
000002e0: 5aa3 8a3f 391a d5be cbfc f3bd b2f7 7b3f
000002f0: 7e36 ae3f ebfa 003d b548 c43f 7fd0 043f
00000300: fbad babf e102 06bf 1ebb 80bd f3eb 82bf
00000310: 6365 34bf da1a 0e3d b969 86be 2477 1e3e
00000320: c367 cc3d 0b35 1ebf 3d3e ad3d 3071 17bf
00000330: 9f53 003e 72dd e73d fd0c c0be ca23 93be
00000340: 4022 a8be 75b1 cbbf 02a2 043f 3520 94be
00000350: cf3e 843f 1326 c3bf ffee ecbc b770 cf3f
00000360: b00f 903e b325 92be 387a 6dbf c5a5 fd3e
00000370: e58c 373f 52ab febe 35f9 e73e f022 04bf
00000380: e9e1 9cbe e339 9a3d 54da 16bf 6572 fcbd
00000390: 1e02 9bbf 3320 113e 7eec 91bd 6710 eebe
000003a0: 532a 1d3f f582 213f 5002 26bf ad88 94bf
000003b0: 3f82 db3e e4b7 89bd cc6c 2d3f 41d4 42bf
000003c0: 1ff6 353d 9eb4 24bf 02a9 b03d 4893 98bf
000003d0: 249b 00bf 4aea 15c0 3aa2 693f a849 9ebe
000003e0: 95b2 f9be f61e c5be ef5c 8f3f 06f4 54be
000003f0: 9728 a6bd 5c86 29bf 71e7 583e 5e93 403e

fc3.bias f4 [4]
-0.09266912 -0.09200401 -0.06750199 0.07014856
00000000: 4fc9 bdbd 996c bcbd 7c3e 8abd 0caa 8f3d
