20AgentsBias-goal_actor.pth (torch_old, 96800 bytes, 14 tensors)

fc1.weight f4 [132, 33]
00000000: 9743 06be 21b6 f8be e7aa dcbe f866 4e3e
00000010: 5a9f 4ebd 2865 f1be 0431 c83e e47e 1bbf
00000020: 0a4a c4be 64ce 003f 1d9d 6f3e c5b8 00bf
00000030: a36e 04be 1637 01bd cd68 01be dc64 173e
00000040: 85b5 7cbe 5363 42be 8a6e 0cbe 353d e3bd
00000050: 5a6c 86bd 9515 633e 78f9 80be bc1a e23e
00000060: 7be3 81be 1d4f ca3e 50bd 1dbe 4e22 44bb
00000070: 757a f4bb 3aeb 9fbd 5a3e 963d 82a6 a93d
00000080: 99bd 1bbe 36f6 3dbe 976a 29bf 7a00 e3be
00000090: 9982 313d 0832 bf3b d11f 4fbe 3376 8bbe
000000a0: 8b56 00bc cf6f 25bf b1ed d0be 59fd 033d
000000b0: 2f29 ccbe 49a3 98bd 853d f4bd 987a 6bbe
000000c0: 73a0 84be d6cf 953d 8898 c1bd 7c77 8e3d
000000d0: 429c 383c da45 5abe fb66 fdbe 39d3 983e
000000e0: a4f9 043f 1fb2 9fbc 8e18 48bd a338 1f3e
000000f0: c55f ea3c 546c 14be ced1 8dbd c3b4 a63d
00000100: 2066 623c 906f 623c 0222 28bf cd7a b6be
00000110: 08c0 c9bd dfa3 86bd b8c3 69be 6c3b d8bd
00000120: f082 463c 1b2e d13d b40b 883e 121f 66bf
00000130: 94de 11bf 49a9 68be 49c7 7cbb 3188 ee3c
00000140: 6222 21be 82af 843c 89a2 233e 43f2 cfbd
00000150: 61f7 13bd 4f94 dbbd a8b3 1abe dce6 273e
00000160: e75d bcbe bd66 bb3e baea 6ebe b321 75be
00000170: 1c11 653e 8c6b adbc bbab bcbc e909 60bd
00000180: 741a 693d 98f3 50bd 81b7 e9bc b0ea a93e
00000190: 4d44 d03d 7908 5c3f a2a2 13be ad92 d4be
000001a0: b02f 1bba 384a 8bbe 58d4 3f3c 7fed b13d
000001b0: 0e71 fabd 8e49 003e 5325 fabe 64e7 2c3f
000001c0: c46e f7bd 7761 893e b0ad ba3d e677 80be
000001d0: 2d7a 3a3e 65a5 e8bd 4cf1 c23c fbf8 17bc
000001e0: 8439 8b3e 75e0 49bc 1bb2 0d3d 64d3 183d
000001f0: 63dd d5bb 97ab 283e 19b0 eebb 4ef3 cf3d
00000200: 5f78 94bd 28a2 04bd 944b c03c 93ca c7be
00000210: b11f 9f3e 81b0 273f 4932 243f f904 c2bd
00000220: 8c6b e83e add8 c6bc 6ad4 a83e 52cb fb3d
00000230: 00ee 473e f628 f63e cbff 823e 9756 c83e
00000240: 796c b13d 2781 1abe 6f34 3dbe c0a0 07be
00000250: 9b0d 9a3d c0d7 053e 660d edbd eda6 e2bd
00000260: c076 53be 5ec2 e33e 88a4 693e 3e61 ccbd
00000270: de31 a4be 5d42 afbe 90c0 fd3d f405 1f3d
00000280: 7dd2 febd 7149 89bd 0b03 963d 00ac 1abd
00000290: c296 95bd 88ed 32be 823a 76be b3ca f3be
000002a0: 1b8b 5d3d c41c 76be 4d69 113e b159 d9bc
000002b0: 92b1 a13c 9e73 863d 8d07 0abe ae5c 81bd
000002c0: c691 14be c156 3c3b 6cb6 4c3d be73 183e
000002d0: d7cb 283f 87e6 98bd bc12 673c 129f c33d
000002e0: 2839 5b3d 649a d1bd d25a 16be 8789 85bd
000002f0: b052 6bba d402 9f3d 95d8 c33e 91ca 003e
00000300: c6a9 153c ed31 dcbd 4699 76bd d5b5 11bd
00000310: 18b0 52bc 02d9 783f b433 5abd e9f2 0e3e
00000320: 9850 9bbc b948 593e 4a18 483e 0008 24bd
00000330: 8ba5 3a3f f2c9 08be d53b 06bf e855 f43d
00000340: 338c 6fbd 37c1 35be 63af a83e 218f b7be
00000350: 2c2e edbc 0b9b 9cbd 7039 903d eb6a e4bd
00000360: 19e3 12be e4eb c9bd b35b ca3d a5e3 a5be
00000370: e418 65be c60d bebd 178f 4ebe dacc 9d3e
00000380: 9c62 ce3d 26ee 49bc 33bb ee3d 49a1 adbd
00000390: 18e3 8ebd 5c12 99bd 5712 d5bf eb2c 07be
000003a0: e45a 1abd 5edf 85be 7325 943d 2fa6 59be
000003b0: 7016 17be d4fc e83d 1b07 26be 0f08 013f
000003c0: 4a0d ecbb fec4 49bd 8cf0 3c3d 7de4 45bd
000003d0: 002c 3b3e 7500 b33e 8a99 c43e 6f3b 57bc
000003e0: b272 46be eb4a 923c 8330 9dbd 8d76 4d3e
000003f0: e8c4 c5be b783 0abe eadd 653e fd7e 803e
-0.13111721 -0.48576453 -0.43099138 0.20156467 -0.05044494 -0.4714749 0.39099896 -0.60740495
-0.38337737 0.5031493 0.23399778 -0.50281936 -0.1293283 -0.031546675 -0.12637635 0.14784569
-0.24678619 -0.18983202 -0.13714042 -0.11095659 -0.06563635 0.22176202 -0.2519033 0.44161022
-0.25368866 0.39513484 -0.15404248 -0.0029927674 -0.007460887 -0.07808538 0.07336111 0.08283712
-0.15209045 -0.18550953 -0.6617827 -0.443363 0.04333744 0.0058348216 -0.20226981 -0.27238616
-0.007833133 -0.6462373 -0.40806344 0.032224033 -0.3987517 -0.07453019 -0.119257964 -0.22995985
-0.25903663 0.07315032 -0.09452921 0.069563836 0.0112677235 -0.21315709 -0.4949263 0.2984865
0.5194342 -0.019494114 -0.048851542 0.15548949 0.02861012 -0.14494449 -0.06924783 0.08139946
0.013818294 0.013820544 -0.6567689 -0.35640565 -0.0985108 -0.06574225 -0.22828567 -0.10558209
0.012116179 0.10213872 0.2657143 -0.8989116 -0.5698025 -0.22720827 -0.0038570932 0.029117675
-0.15735772 0.01619697 0.15979971 -0.1015363 -0.03612459 -0.10721647 -0.15107596 0.1639666
-0.36790392 0.3660182 -0.23331729 -0.23938636 0.22369808 -0.021169446 -0.023031106 -0.05469695
0.056909993 -0.05101356 -0.028529884 0.33186865 0.10169277 0.8595043 -0.14417508 -0.41518155
-0.0005919887 -0.27205062 0.011708342 0.08687877 -0.12228595 0.12528059 -0.488566 0.67540574
-0.12081674 0.26832172 0.091151595 -0.25091475 0.18210669 -0.113596715 0.0237967 -0.00927567
0.27192318 -0.012321581 0.034593683 0.037310973 -0.0065266355 0.16471706 -0.007284176 0.101538286
-0.072495215 -0.032381207 0.023473538 -0.3902174 0.31078866 0.655037 0.6413923 -0.09473605
0.45394552 -0.024273241 0.3297456 0.1229464 0.19524384 0.48078126 0.2558578 0.39128563
0.08663268 -0.1508833 -0.18477033 -0.13244915 0.07522126 0.13070583 -0.11574821 -0.11066995
-0.20650768 0.44484228 0.2281667 -0.09979485 -0.32069296 -0.3423032 0.12390244 0.038824037
-0.12442491 -0.06703461 0.07324799 -0.03776169 -0.073041454 -0.17473423 -0.24045756 -0.47615585
0.05408774 -0.2403441 0.14200325 -0.026532026 0.019737992 0.06565021 -0.13479443 -0.06316505
-0.14508733 0.0028738233 0.04997866 0.14887902 0.65936035 -0.074658446 0.014103588 0.09551825
0.053521305 -0.10234526 -0.14683083 -0.06520372 -0.000897686 0.07764211 0.38251176 0.12577273
0.009134715 -0.1075171 -0.060204767 -0.0355738 -0.012859367 0.9720613 -0.053271964 0.1395985
-0.018959329 0.21219148 0.19540516 -0.040046692 0.7290885 -0.13358286 -0.52435046 0.11930448
-0.058483314 -0.17749487 0.3294631 -0.35851386 -0.02895268 -0.076467596 0.07042205 -0.111532055
-0.14344443 -0.09859446 0.098807715 -0.32400241 -0.22372776 -0.09279971 -0.20171772 0.30820352
0.10077402 -0.012324845 0.11656799 -0.08478028 -0.069769084 -0.07474205 -1.6646222 -0.13200729
-0.037684336 -0.26146978 0.07233705 -0.212548 -0.14754653 0.11376348 -0.16213648 0.5040292
-0.0072037326 -0.049260132 0.04612784 -0.048313607 0.18278503 0.34961286 0.3839839 -0.013136729
-0.1937969 0.01785799 -0.076752685 0.20064755 -0.3862679 -0.13526808 0.22447935 0.25096884

fc1.bias f4 [132]
00000000: 279e 7cbd 1f03 afbd 9ec1 323d 7e4b 24be
00000010: bc86 163d 4585 323d fc2a 09be 839a e43d
00000020: 9d85 1fbe 6504 ccbd 3394 30be bc30 1f3e
00000030: 8062 a13d 9e4a a43c 95ca 24be 47ed c73d
00000040: d2be bbbd 9267 17be ffab c3bd 83ee d63c
00000050: 03cb 24be d056 283e 7ea2 3f3d b74c 2f3e
00000060: b2ef d0bb 29ef 993d e46a a83d 9830 ed3d
00000070: fd66 993d 67b7 0ebe 46e1 113e 71a1 ffbd
00000080: 71e9 92bd fb3d fbbc d85a 4b3d df5b e33d
00000090: 4c46 96bd a846 0fbc 8bd3 30bd 72f6 a83d
000000a0: aee6 d03c 41b0 0bbe 9eeb 25be 5b1b bc3d
000000b0: fa06 83bb 9a35 223e 6e3f d03c 4a7d 1f3e
000000c0: 3f0c f43d 6eaf 24be 4f6e 1f3e b674 2dbe
000000d0: 871f 08be 8f14 013e 93e4 0f3e 924f 873c
000000e0: 6355 153e 8b21 283e 2ea9 2e3e 79cf aebc
000000f0: cc5e 223e 83ab e23d 1ea5 0c3e df66 9cbc
00000100: 0a82 973d bb2d 363c 7997 993d 8183 353d
00000110: 79a1 fb3d d8d3 223e 0f90 103e f7f5 1a3d
00000120: 2db4 23bd f32e c2bd 8678 c43d 3538 e1bd
00000130: d75f 4b3c b8fc 18bc 2e82 803d 1b68 8f3c
00000140: 7d75 c63d bf7a 06be 76bc 123d 10f8 653d
00000150: 0e1e f4bd b4ba 693d 47b2 193e bcd5 35bd
00000160: 7c53 07be 0a25 88bd 5fd6 233e 6b16 ab3d
00000170: dcfc 33bd 3076 c5bd 4157 773c ab45 1dbe
00000180: 607b 3e3d deb5 11be d73d 3fbd 4b7c dc3c
00000190: e969 d3bd a233 183e 559b 483d 5d45 763d
000001a0: d080 c03d 9831 303e 24be 4e3c 5730 1fbd
000001b0: 4cc3 333c 570a 053e cd75 0cbe ec43 05bd
000001c0: 722c a13d f68c 133e 46eb 8d3d 7890 8abc
000001d0: edf4 b53c 0d92 5cbd a850 2e3e 821b bf3b
000001e0: b8b8 a73d f8d2 bbbd 5844 273e a7ea 163e
000001f0: 75e3 2abe d91f b2bd 4a2c 203e 5d0c 8f3c
00000200: b42a 18be 3f7d a13a fc58 0d3e 837a e2bc
-0.061674263 -0.08545517 0.04364168 -0.16044423 0.036749586 0.043584127 -0.13395303 0.11162283
-0.15578313 -0.09961776 -0.17244034 0.15545934 0.078801155 0.020055111 -0.16092904 0.09762054
-0.091672555 -0.14785603 -0.0955429 0.026236778 -0.16093068 0.16439366 0.046785824 0.17119108
-0.00637623 0.07516319 0.08223513 0.11581534 0.074903466 -0.1393715 0.14246091 -0.124819644
-0.07173432 -0.030669203 0.049647182 0.111015074 -0.07337627 -0.008744873 -0.043170493 0.08250131
0.025500622 -0.13641454 -0.16203162 0.09184905 -0.0039986344 0.1584076 0.02542087 0.15575138
0.11916398 -0.16082546 0.15569423 -0.16939053 -0.13293277 0.12605499 0.14052038 0.016517434
0.14583354 0.16419046 0.17056724 -0.021339165 0.15856475 0.110678695 0.13734862 -0.019092022
0.0739785 0.011119301 0.07499594 0.044314865 0.12286658 0.15901124 0.14117454 0.037832227
-0.03996675 -0.09481611 0.095933005 -0.10997049 0.012412987 -0.009337597 0.0627483 0.017505696
0.09690378 -0.13132761 0.03582426 0.056144774 -0.11919795 0.05706282 0.15009414 -0.044393286
-0.1321544 -0.0664769 0.15999745 0.08353885 -0.043942317 -0.09641683 0.015096487 -0.15358607
0.04650438 -0.14229533 -0.046689834 0.026914736 -0.10322935 0.14863446 0.04897626 0.060124744
0.09399569 0.17206419 0.012618575 -0.03886446 0.010971855 0.12992226 -0.13716812 -0.03253548
0.078698054 0.14409241 0.069296405 -0.016914591 0.022211516 -0.053850222 0.17022955 0.0058321366
0.08189529 -0.091710985 0.16334665 0.1473795 -0.1668833 -0.08697481 0.15641895 0.01746195
-0.1486004 0.0012320651 0.13803476 -0.027646309

bn1.weight f4 [132]
00000000: d6eb c33e 0dfc e53e b5fb 813e 74d1 963e
00000010: 05d9 90be 70b2 353f 2605 c13e 14a4 dbbe
00000020: 9869 303f d4b5 c03e 6d01 c83e 28b2 e13e
00000030: a6f1 f43e 1bc1 043f 4684 063f 56d5 9c3e
00000040: 69ad 0a3f 3fe1 ca3e 2c29 9c3e 1058 c23e
00000050: 3985 d13e 2159 e93e ab08 143f 2585 c43e
00000060: 2311 213f 62d4 9b3e 11e9 e63e fcc4 0a3f
00000070: d6ce b83e fc08 8e3e dc43 073f 92d8 0e3f
00000080: a017 863e bc95 d63e 5c84 ce3e 08a2 083f
00000090: de37 253f f5fe 243f 4730 223f ad77 f53e
000000a0: 31c9 7d3e d6e8 cc3e 3955 ec3e 4a61 043f
000000b0: 746f 063f 90e8 0d3f abcf b63e f29a 233f
000000c0: 7838 423f f798 ec3e c762 d83e d5b6 3e3f
000000d0: 124b 1b3f 9524 0c3f 04f0 873e 2362 b93e
000000e0: 9441 ed3e 849e d63e 422e 033f 2fc9 303f
000000f0: 9e95 263f a353 253f f098 963e 8bb1 253f
00000100: b2b2 863e 886f e83e a7e5 af3e bc33 183f
00000110: 3a5a 103f dacd ef3e eb44 073f 719b cebb
00000120: 9c41 b73e 686e 1a3f 282c 3f3f d11b f23e
00000130: 75ca 2b3f 2dd7 de3e 8bfc 443f 79bc 9b3e
00000140: 5929 103f 363f ab3e ab85 053f 1813 1d3f
00000150: 696b 233f f023 aa3e 66a5 f23e 6562 fa3e
00000160: 6fe6 c43e 5d81 af3e f58e 173f 1ffe fc3e
00000170: fbb7 013f ed78 d43e c93d 303f 2d82 223f
00000180: a15c 1f3f 92aa c43e 8588 b43e fb0e d53e
00000190: f609 153f 1bc7 6b3e 4f9b de3e d73c ec3e
000001a0: dd84 f73e f746 1e3f 219c 2c3f f21c 2e3f
000001b0: 6084 e63e cb0a 363f db4b 483f 8699 d13e
000001c0: e1c0 173f 6d83 2a3f 84f1 023f 4301 3e3f
000001d0: 1bf6 bd3e f3ba 083f 7250 213f 6ab6 2a3f
000001e0: dc33 033f e4d3 d33e 6bfb e03e fdc1 1d3f
000001f0: a042 e03e ac1b 063f fffe cb3e 746a 853f
00000200: bb7a e63e ef09 ce3e a26c 153f f6e3 c73e
0.38265866 0.44918862 0.2538735 0.29456675 -0.28290573 0.709754 0.3769924 -0.4289862
0.68911123 0.37638724 0.39063588 0.44081235 0.47840613 0.51857156 0.52545583 0.30631512
0.5417085 0.39624974 0.30500162 0.3795781 0.40921953 0.45575812 0.57825726 0.3838283
0.62916774 0.30435473 0.4509969 0.54206824 0.36095303 0.2774123 0.5283792 0.5579921
0.261899 0.41911113 0.40335357 0.5337224 0.6453837 0.64451534 0.63354915 0.47942868
0.2478378 0.4002139 0.4615877 0.5171095 0.52513814 0.5543299 0.35705313 0.639083
0.75867414 0.46210453 0.4226286 0.7449773 0.60661423 0.5474332 0.26550305 0.36207685
0.46339095 0.41917813 0.5124246 0.6905698 0.6507205 0.64580745 0.29413557 0.64724034
0.2630821 0.45397592 0.34354898 0.5945394 0.56387675 0.4683674 0.52839535 -0.006305151
0.35792243 0.60324717 0.7467675 0.47286847 0.671058 0.4352354 0.7694785 0.3041723
0.5631309 0.33446664 0.52157086 0.6135726 0.6383577 0.33230543 0.47391814 0.48903194
0.38457057 0.34278384 0.5920251 0.4941263 0.50671357 0.4149851 0.68844277 0.6347988
0.62250715 0.38411385 0.35260406 0.41612992 0.58218324 0.23025171 0.43477866 0.46140167
0.48343554 0.61827034 0.67425734 0.6801292 0.4502287 0.7111022 0.78240746 0.40937442
0.59278685 0.6660679 0.51149774 0.74220675 0.37101826 0.5341026 0.63013375 0.6668459
0.51251006 0.41372597 0.43941817 0.6162413 0.4380083 0.52385974 0.39842984 1.0423112
0.4501551 0.40241954 0.58368886 0.39041108

bn1.bias f4 [132]
00000000: 6e1e a5be 01b2 f1be 60ab 85bd 8b91 113c
00000010: 16e1 f9bc 2186 0dbf 47a1 cdbd 1e0d 6cbe
00000020: 4199 94bf 5b01 98be f5b8 0fbd adbe 03bf
00000030: fa01 d4be 1ca1 0bbf 0b69 63be cd53 8dbd
00000040: dc10 d8be 1ccb 18be 3777 89be dc37 9ebe
00000050: 3746 29be 605b 62bd 6dfb 5bbe fff6 a8be
00000060: 0c4f a4be 004b 22be cdae a2be 7fdd cdbe
00000070: 0418 a4be 4c01 86be 8382 56bf b8bf 1dbf
00000080: 1f6e d8bd 62ad 46be 902f 1dbd bcab 9abe
00000090: 2f6c 77be 38e4 e5be 5cfd 19bf edad bebe
000000a0: 60ba 7a3d 25cb 4fbe e639 8abe 0785 19bf
000000b0: 5660 9cbf 3466 e5bd 01f5 873d 6cad 7dbf
000000c0: b942 0cbf aed7 6bbd 0858 52be 82fa d2be
000000d0: f5aa 0fbf 6278 9bbe bb62 b2bc ae16 a1be
000000e0: 9798 043e 3103 88be ef78 fcbe 5d80 1dbf
000000f0: fcb0 19bf e6b8 d6be 1eb5 6fbe c974 63be
00000100: 1095 66bd 51a0 9ebe 42dc bcbe ad74 93bf
00000110: be1f 9abe 7ea9 4ebf 9bf1 8ebe ad50 b4bd
00000120: 09b0 02bf 9061 c7be 3c55 abbe 21e4 ccbe
00000130: 9ff2 dabe 3336 5cbd 08e4 57bf acd3 02be
00000140: f2e2 d6be 75b9 9c3e f085 9fbe 470a 13bf
00000150: 7118 01bf 2a23 4bbe 6d02 98be a85c d2be
00000160: 04ed 98be 46e9 87be f20a f4be cef5 ecbe
00000170: 4619 f6be 9557 43be b359 cdbe b9d3 c6be
00000180: 6f0e 04bf fe89 a6be 75d0 003e 55f5 07bf
00000190: 705b 0abf d56b c13d 691e a3be d226 363b
000001a0: 6909 a0be ac9e 64be 804f 47be 54d0 22bf
000001b0: 58ca d6be 72e5 14bf a347 e2be d0f9 a6be
000001c0: e4b1 86be 9228 03bf 8247 a4be 1e54 d8be
000001d0: 12c4 3ebd 9875 89be 3ecd e8be 7d18 a5be
000001e0: 286c 50be cdd1 9cbe 2234 ae3d 5d99 22bf
000001f0: 243a b4be 23c8 13bf 998a f33e 44db 23bf
00000200: 74d7 36bf a3e5 c7bc 0eae 16be 14a0 12be
-0.32249779 -0.4720612 -0.06526828 0.008884798 -0.030502837 -0.5528279 -0.10040527 -0.23051879
-1.1609269 -0.29688534 -0.0350885 -0.51462823 -0.41407758 -0.5454271 -0.2220804 -0.06900749
-0.42200363 -0.1492123 -0.26848766 -0.30901992 -0.16530691 -0.055262923 -0.2148263 -0.33000943
-0.32091558 -0.15848923 -0.31773987 -0.4020805 -0.32049572 -0.26172864 -0.83792895 -0.61620665
-0.10567879 -0.19402078 -0.038375437 -0.30209148 -0.24162363 -0.4490068 -0.6015222 -0.3724207
0.061212897 -0.20292337 -0.26997298 -0.5996861 -1.2216899 -0.11201134 0.06638528 -0.99092746
-0.5478931 -0.057578735 -0.20541394 -0.41206747 -0.56120235 -0.30365282 -0.021775594 -0.31462616
0.12948833 -0.26564935 -0.49311015 -0.6152399 -0.6003568 -0.4193794 -0.23408934 -0.22212519
-0.0562945 -0.30981687 -0.36886793 -1.1519982 -0.30102342 -0.80727375 -0.27918705 -0.0880445
-0.5104986 -0.38941622 -0.33463466 -0.400178 -0.4276323 -0.053762626 -0.84332323 -0.12776059
-0.4197002 0.30610242 -0.31156874 -0.57437557 -0.5042792 -0.19837633 -0.2968935 -0.41086316
-0.2986833 -0.2654516 -0.476646 -0.46281284 -0.48066157 -0.19076379 -0.40107498 -0.38833407
-0.51584524 -0.32527155 0.1257952 -0.5310872 -0.5404577 0.094443955 -0.3185914 0.0027794135
-0.3125718 -0.22326154 -0.1946392 -0.63599133 -0.4195125 -0.58162606 -0.4419528 -0.32612467
-0.26307595 -0.5123378 -0.32085806 -0.42251676 -0.046573706 -0.2684753 -0.45469087 -0.32245246
-0.20353758 -0.30628815 0.08506037 -0.63515264 -0.35200608 -0.5772726 0.4756668 -0.6400645
-0.71422505 -0.024401492 -0.14714834 -0.14318877

bn1.running_mean f4 [132]
00000000: 6d42 da3f 7d77 1640 a6c6 be3f c037 94bf
00000010: f4e8 6fbf 9acc babc 38b9 80be dc9a 5dbf
00000020: 246f 07c0 d2f7 813e a547 0840 89e5 a9be
00000030: 1fbd 34bf 094f 533f 7358 32be 88bb b4bf
00000040: abbc 0ec0 7f48 06bf e366 a2bf e07f 28bf
00000050: 7d89 a53f 01d4 8abf 6513 f8bf 2697 8abf
00000060: 5f8a 23bd b356 603f 7916 143f 1a7f 4ebf
00000070: eb3c 03bf 67a6 8dbb 8b72 33c0 3eb1 16bf
00000080: c017 b2bf e01c 2c3d 9ad1 4340 a6ae 5d3f
00000090: 4070 7b3e 1fd3 a93e 6970 113f 4951 cc3f
000000a0: 88a6 cf3f 90b8 32bf 95cc ff3f fd50 b0be
000000b0: a78b 74bf 6b0f 0a3f 881d 39bf cd68 92bf
000000c0: 3084 393d 821f d43f 8179 3d3f caee 2d3e
000000d0: 17e5 873f 3778 1d3e 1205 91bf 128f 073f
000000e0: 6f32 d5bd aba7 f4bf 498f 903f 70d2 05c0
000000f0: eb08 46be c1ae 723f 4de9 b5be 678f 3e3f
00000100: 9d83 103f 0f72 11be 0b79 efbd 2dd1 01c0
00000110: a489 8bbf ca9e f53e adc2 f03e da4c cfbe
00000120: b27f 51c0 49c7 48bf a2da 153f 14ff 793f
00000130: e84e 393e c0c1 d23f a4a3 80bf fc2a abbe
00000140: f632 2c3f 8fa3 dfbe 6c83 093f e98d e73e
00000150: 0000 78bf 5b11 98bf 89ab 913e 4e65 e93e
00000160: c10b 9cbf e7d8 4fbf 30f1 2dbf ec4a 28be
00000170: f28c c5be 810f 7bbe 88af 82be 68d9 02be
00000180: d13a 24bf a9f8 07be ccf7 d13e 8af1 35c0
00000190: 9644 32c0 0586 9bbf e5f1 ba3e 4662 a5be
000001a0: 94f6 1cbf 2d56 c63e 3ecb a6be bd9f bebe
000001b0: 7092 673f 36cb a9be a5bf b03e 0f70 1dbf
000001c0: cea5 0c3f bca5 87bd e9db e7bf 9c11 823e
000001d0: f221 703f e640 18bd 26e3 1f3f dcfe 633e
000001e0: 25d4 863e d200 adbf 7e16 8c3f 6ec2 d4bf
000001f0: 5d5c f4bf 70cf 29c0 2946 953e f983 c3be
00000200: a995 953f b0b3 9c3f fe97 ce3e 063d 683d
1.7051522 2.351043 1.4904373 -1.1579514 -0.93714833 -0.02280264 -0.2514131 -0.8656442
-2.1161585 0.25384384 2.1293728 -0.33182934 -0.70601076 0.82542473 -0.17416553 -1.411973
-2.2302654 -0.5245437 -1.2687649 -0.6582012 1.2932583 -1.0845948 -1.9380919 -1.0827377
-0.039926883 0.8763229 0.5784679 -0.8066269 -0.5126483 -0.004322815 -2.8038661 -0.588642
-1.3913498 0.042019725 3.059668 0.8659462 0.24554539 0.33168885 0.5681215 1.5962306
1.6222696 -0.6981287 1.9984308 -0.3443679 -0.9552559 0.53929776 -0.72310686 -1.1438233
0.04529208 1.6572115 0.74013525 0.16985622 1.0616788 0.1537789 -1.1329672 0.5295268
-0.1041001 -1.9113668 1.1293727 -2.090969 -0.1933934 0.94797903 -0.35529557 0.74437565
0.56450826 -0.14203666 -0.11693009 -2.028392 -1.090138 0.4797271 0.47023526 -0.4048832
-3.273419 -0.78429085 0.5853673 0.97654843 0.18096507 1.6465378 -1.0049939 -0.33431232
0.6726526 -0.43679473 0.5371616 0.45225456 -0.96875 -1.1880296 0.28451183 0.45585102
-1.2191087 -0.8119034 -0.6794615 -0.1643483 -0.38584095 -0.24517633 -0.25524545 -0.12778246
-0.64152247 -0.1327845 0.41009367 -2.8428674 -2.7854362 -1.2150275 0.36512676 -0.3230154
-0.6131375 0.38737622 -0.32576936 -0.37231246 0.9045782 -0.3316285 0.34521213 -0.6149911
0.549405 -0.06623408 -1.8113986 0.2540406 0.93801796 -0.037171267 0.62455976 0.2226519
0.26333728 -1.3515875 1.0944364 -1.6621835 -1.9090687 -2.653286 0.2915509 -0.38186625
1.1686298 1.2242336 0.40350336 0.05669882

bn1.running_var f4 [132]
00000000: ee5a eb40 507a 3641 5e04 8640 a26c 0d41
00000010: 581a 6040 65fb 9740 dbaa 9a40 8058 e940
00000020: 3a02 2a40 cf05 1741 982e 2441 e84b 7841
00000030: 7568 1e41 fda1 f940 d1a2 a540 f0fa df40
00000040: b7eb c340 da1f e740 5671 c840 0df7 b240
00000050: 1beb 8a40 31e9 9440 48a0 f840 d000 1641
00000060: f36c 4c40 b364 e03f 2e3b 4741 7b7d 3940
00000070: 6d6d c141 7d19 ed40 fb7d c140 84fd fb40
00000080: e5be 9140 37a6 3840 5491 0541 e509 0141
00000090: 4049 7340 50a6 f73f a17d f740 d627 7341
000000a0: f7ae 9040 0278 ab40 1b41 fb40 9f17 1f41
000000b0: 4ce5 cb40 3c0a d540 eb73 3b41 0d29 8d40
000000c0: 3c85 4e41 b702 0c41 8f6a 1e40 8ff0 df3f
000000d0: 972c bb40 64d1 1f40 cd79 1940 c93c b540
000000e0: 61d2 f93f ffef 3a41 c107 6941 cb4e 0141
000000f0: 51ba 8e40 623c 9440 249e 4c40 413d 2440
00000100: d834 ba40 e0c8 8840 02c0 9840 a05b dd40
00000110: a907 9140 d7e6 1540 12a0 8840 e233 2540
00000120: 8535 0241 b806 a240 5366 ca40 fd03 3341
00000130: f63a e93f 55a3 7041 db2d 2c40 d204 0e40
00000140: bae0 1941 56a7 1440 ae77 a041 825f d23f
00000150: 357d a640 8fa2 0b40 1e42 ad41 d1ce 6140
00000160: 52bc ab40 f8a3 cb40 b3c6 c740 8730 fe40
00000170: 30d6 9240 fee5 dd40 5071 7b40 9ea5 9840
00000180: 0f05 2241 7688 3f41 d814 d840 f4d0 7740
00000190: 6a99 1841 6252 b240 5e87 8840 9e7e f440
000001a0: 9462 8f40 7d85 3241 ee57 f640 791a 3b41
000001b0: 7de4 0441 e1ad 0f41 a0a8 b640 86fa 9440
000001c0: ef13 8f40 43db 2b41 2726 c740 e847 993f
000001d0: 84ac 0741 b746 8f40 62ce 6940 b9d2 5141
000001e0: bc9a 0f40 172c 0341 7e83 5e40 9aff 2041
000001f0: a279 9341 abda 9040 bbf1 c13f 4993 dd3f
00000200: 8cd0 c440 078a f940 0f3e a140 ad1f 9f40
7.35485 11.404861 4.188033 8.839022 3.501608 4.749438 4.8333564 7.292053
2.656386 9.438918 10.261375 15.518532 9.900502 7.801024 5.176125 6.999382
6.122524 7.222638 6.263835 5.5926576 4.3411994 4.6534657 7.7695656 9.375198
3.1941497 1.7530731 12.451948 2.8982837 24.17843 7.4093614 6.0466285 7.8746967
4.5545526 2.885145 8.3479805 8.064916 3.8013458 1.934763 7.7340856 15.197226
4.521358 5.3583994 7.8516974 9.943267 6.3717403 6.6574993 11.7158 4.411261
12.907528 8.750663 2.4752538 1.7495288 5.849193 2.4971552 2.3980591 5.66367
1.9517328 11.683593 14.564393 8.081737 4.4602437 4.632371 3.1971521 2.5662386
5.8189507 4.274521 4.7734385 6.9174347 4.532185 2.3422143 4.26954 2.5812917
8.138066 5.06332 6.3249907 11.188474 1.8221118 15.039876 2.6902988 2.2190442
9.617365 2.3227134 20.058437 1.6435397 5.202784 2.1817968 21.657284 3.528248
5.3667383 6.3637657 6.2430053 7.9434237 4.588646 6.934325 3.928791 4.770217
10.126235 11.970816 6.7525444 3.8721285 9.537455 5.5725565 4.2665243 7.640456
4.4807835 11.15759 7.6982336 11.693963 8.305783 8.979951 5.708084 4.6555815
4.4711833 10.741031 6.2234073 1.1975069 8.479618 4.477382 3.6532216 13.113946
2.2438192 8.198264 3.4767756 10.062403 18.434391 4.526693 1.5151895 1.7310573
6.1504574 7.798099 5.0388255 4.9726167

fc2.weight f4 [132, 132]
00000000: 9ab8 8e3c 60f4 703e 37fe 0c3e 3023 63be
00000010: 4850 4ebe 4f49 25be 4e21 543f f64c c9be
00000020: c454 e1be 4850 0cbe 4cf1 35be c7a6 8a3e
00000030: c790 3bbe 5ae3 e8bd 196a 143f 770f 7f3e
00000040: 0fd4 1f3f 1ded 00be 40de 603a 4b3c 4fbe
00000050: 484e 2f3e c178 94be c03e 3f3e 0775 183d
00000060: 2a4c 81be 9a65 1e3d 16fd a8be ce14 cd3d
00000070: 9748 c83e 75cb 33bf 83b1 b4be 5769 80bd
00000080: 3470 f0bd 69a6 96bd a8b6 cabe 4d32 b13e
00000090: c49d 8c3e 6f84 623e 749a e2bc 2c81 123e
000000a0: 7aac 09be 144a 06be 3794 b73e fa82 50be
000000b0: a68d a6be 7bac ba3e 93e9 59be 4ead c73c
000000c0: 4171 b73c f68f 42be 7113 80be 0cbd f9be
000000d0: d140 4e3e fa60 88bd f808 28be 753d 35be
000000e0: 179d 05be 67e7 cb3c a4a3 b83e 1098 213e
000000f0: a0cf 3d3e ad55 943d 245c 903e 3c00 debd
00000100: 9eed c1be 93c9 24be 6d98 eb3e eabd fbbc
00000110: 06e6 71be fbab 573e 0382 343e 23a7 a43b
00000120: 8978 02be 5a8b 02be 30f1 00bd bc41 d6bd
00000130: b834 debd 8b36 c0bc 6b30 4cbd 6e63 92bd
00000140: 43d9 d33e aac0 9e3c bce1 b6bd a275 8dbd
00000150: 9e5f 3fbe 9cdd 99bd 2626 933e a032 d4be
00000160: afb3 37bd 8595 b13e 7c1a 2b3e 59d3 703d
00000170: b6d1 68bd 8a09 6dbe f605 993e 46a1 eebd
00000180: 739a e0be 9fca 803e 3a52 17be b624 ac3e
00000190: cee9 68be ab22 c93e e223 0abf fdc4 153e
000001a0: 42ca c6be 2aec 743e 5446 9d3e 6aba 943e
000001b0: 072c 143f f130 7d3e 0572 00bf faf9 8ebe
000001c0: 5676 bebd 9b19 edbe 9cd5 4a3e bf39 c3be
000001d0: 5a19 b5be 6fed 8d3e f71b 12be deba febe
000001e0: acac afbe 5d16 84bd 5d36 95be f53a fe3d
000001f0: 43c7 683e 4a1e 34be 7cb2 fcbb 2961 083e
00000200: 0451 b2be ea92 9dbe 1990 bb3e 948d 0fbe
00000210: d2ef 083c aa35 8ebe ac46 133f ded0 dd3e
00000220: 2a88 a03d 1a40 963c 5970 16bd 569c e2be
00000230: a888 60be 5a90 ccbd 0f5a dfbe 16a0 56be
00000240: 05c1 8c3e fd91 68bd 7714 b03d b148 d8bd
00000250: e186 903e 4186 b9be acb7 91ba c68d 743d
00000260: a698 093f 532a 043f c008 7bbc a2a4 8e3e
00000270: 4e42 a43e 342f 18be 5d0b 43bf db31 45be
00000280: fb7a cfbd 3b5f a2be beed 3e3e 7cc0 cd3b
00000290: 5d97 1e3e 1d6b 55be 498a ae3e 7bdd 80be
000002a0: de7d 713c c823 9a3e ce01 403e 1070 2d3e
000002b0: 4799 51bd 5810 803e ad6a cc3d f273 1c3e
000002c0: e6d3 f1be e5a2 9ebe a773 23be ab54 54bb
000002d0: 330d 0fbf ec34 0a3e 0635 d7be 9a2e a33e
000002e0: 7b13 a7be 782d f03e 7cb9 cd3e bf50 c7be
000002f0: 8de7 fb3d 1a9f 89be a2f7 3d3e a44d 3dbf
00000300: 5c05 5cbe a514 a63d 816e 583d c197 fe3c
00000310: 1ea1 10bf 1013 7f3e 8ad7 bcbe 88cd 10bf
00000320: 65c6 e3be fe87 d8be 1d1d a9be 95d5 62bd
00000330: 4a3a ef3c 0861 333e 7165 adbd fee4 0dbd
00000340: f545 1c3d 8c1b b2be b800 5dbe 2e92 053f
00000350: c108 56be 3d26 83be 172d 9cbe 228f 3a3e
00000360: 1bcc 6e3d 2006 dc3d 694c 39bf 818c 73be
00000370: eac7 e43d 363f f73d e45b f6be 0fdb 9d3e
00000380: a94d 503e a43b bebd d090 1fbd d689 f4be
00000390: 154d 283d c117 903e 1337 98bd ca57 e93d
000003a0: 4f16 f5bc 13b1 9c3e 8d26 2fbe c242 a83e
000003b0: 1f2c f23d 3631 963e 3562 e5bc bf50 85be
000003c0: 5461 a1be 7f9d a43d 8cac 873b 9e71 45bf
000003d0: 4b39 64bb c103 c13e c237 fe3c 32bd 3e3e
000003e0: a80d 1fbd 5081 2bbf 9e3b 1b3e 0a0b 3a3e
000003f0: eb7e 0cbe 9481 a5be 3787 07be 37fb 25be
0.01742201 0.23530722 0.1376885 -0.22181392 -0.20147812 -0.16141246 0.8286332 -0.3931653
-0.44009984 -0.137025 -0.17767829 0.27080366 -0.18316947 -0.11371489 0.5797439 0.24908243
0.6243295 -0.12590452 0.00085780397 -0.20237844 0.17119706 -0.28998378 0.18676281 0.03722098
-0.2525342 0.038671114 -0.3300559 0.10013734 0.39117882 -0.70232326 -0.3529168 -0.06270092
-0.11740151 -0.07355959 -0.3959248 0.3460869 0.27464116 0.22120832 -0.02766154 0.14307088
-0.13444701 -0.13114196 0.35855266 -0.20362464 -0.32529944 0.36459717 -0.21280508 0.02437463
0.02239287 -0.19000229 -0.25014833 -0.48777044 0.20141913 -0.06659122 -0.16409671 -0.17699225
-0.13048206 0.024890615 0.36062348 0.15780663 0.18536234 0.07242904 0.28195298 -0.108398885
-0.378766 -0.1609252 0.4601473 -0.030730207 -0.23622903 0.21061699 0.1762772 0.005024807
-0.12741293 -0.12748471 -0.031480014 -0.104617566 -0.10849899 -0.023463508 -0.049850862 -0.07147871
0.41376695 0.019378979 -0.08929774 -0.06907202 -0.18688819 -0.07512972 0.28740042 -0.41444874
-0.044849094 0.34684387 0.16709322 0.058795307 -0.05684062 -0.2314817 0.2988736 -0.11651854
-0.43867835 0.25154588 -0.1477746 0.33621758 -0.2274544 0.39284262 -0.53961 0.14625926
-0.38826185 0.23918214 0.3071772 0.29048473 0.5787968 0.24725701 -0.5017398 -0.27925092
-0.092999145 -0.46308598 0.19808048 -0.38129994 -0.35370904 0.2772021 -0.1426848 -0.49751943
-0.34311426 -0.06449578 -0.29143038 0.12413589 0.22732262 -0.1758968 -0.0077117067 0.13318314
-0.34827435 -0.3077615 0.36633375 -0.14018852 0.008357959 -0.27775317 0.5752971 0.43323416
0.07838471 0.018341113 -0.036728237 -0.442599 -0.2192713 -0.099884704 -0.43623397 -0.20959505
0.27491012 -0.05677985 0.08597653 -0.1056074 0.28227904 -0.3623524 -0.001111736 0.05970552
0.5374855 0.5162708 -0.01532191 0.2785998 0.32081836 -0.14861757 -0.76189214 -0.192573
-0.101308785 -0.3171328 0.18645379 0.0062790494 0.15487428 -0.20841642 0.34089878 -0.25168976
0.014739482 0.30105424 0.18750688 0.1693728 -0.051171567 0.2501247 0.09981284 0.15278605
-0.47231978 -0.30983654 -0.15962087 -0.00323991 -0.55879515 0.1349675 -0.4203264 0.31871492
-0.3263205 0.4690969 0.40180576 -0.38928792 0.12300024 -0.26879197 0.18551496 -0.73946595
-0.2148642 0.081094064 0.05283976 0.031078221 -0.56495845 0.24909616 -0.36883193 -0.56563616
-0.444873 -0.42291254 -0.33030024 -0.05537947 0.0292026 0.17517483 -0.08466614 -0.034642212
0.038152654 -0.34786642 -0.21582305 0.5217618 -0.20901777 -0.2561511 -0.3050315 0.18218663
0.05830012 0.10743356 -0.7238222 -0.23784067 0.11170943 0.120726034 -0.48116982 0.3083119
0.20342125 -0.09288719 -0.038956463 -0.4776141 0.041089136 0.28143123 -0.074323796 0.113936976
-0.029917864 0.30603847 -0.1710455 0.32863432 0.11824822 0.2933442 -0.02800093 -0.26038167
-0.31519568 0.080378525 0.0041404422 -0.7712649 -0.0034824188 0.37698177 0.031032447 0.1862686
-0.038831383 -0.6699419 0.15159461 0.18168274 -0.1372029 -0.32325423 -0.13235174 -0.16209112

fc2.bias f4 [132]
00000000: 7c18 16bd 7fef 48bc 009b 8e3d 853f 0b3d
00000010: c2f9 9e3c 2d8d 363c 99b2 91bd e206 a3bc
00000020: 656e 3bbd 56af 1bbc de27 9cbc da38 91bc
00000030: a3f6 73bd 419c 9dbd 0ffe ad3d dfa6 913b
00000040: 8532 9d3d 314d 413c f5fc 183d 0eff 853d
00000050: 88c2 85bd 2e26 3abd 8864 7b3d 05ed ae3d
00000060: c8ea 833c 38bf 3d3c 03a1 21bc ac08 3ebd
00000070: c57d 093d 6132 abbd c092 95bc 1510 d6bb
00000080: d63a e9bc 1404 503d bb5c 92bd 40b1 903d
00000090: 0571 093d 51f5 42bb 3d3c eebc 721c b2bc
000000a0: f83e 80bc c865 9d3d 708a 6dbd b6a9 3bbd
000000b0: 3320 43bc 2fb2 dbbc d7f4 bc3c df95 9c3d
000000c0: 39ff 7a3d 4d52 16bd 0b85 6b3d fb25 a1bd
000000d0: 1909 963c e1c0 213d 0da8 aa3c a753 8f3d
000000e0: 66c6 49bc e93a 343d 7801 4dbd cbb8 9a3d
000000f0: 89a3 783d d22b 873c eaae e83c e4b4 a53d
00000100: 2040 1a3d 4d18 a33d 3d44 d03c 18da 543d
00000110: a654 a5bc fb99 7bbc ebed 1bbd 1793 8dbd
00000120: 8513 89bd c85d 8f3d 7f08 0f3d 6632 2c3d
00000130: 306a eebc 3fc9 803d b4a3 86bd ad65 6bbd
00000140: 28c7 a53d 4b4a aa3d 8298 73bd c23a 153b
00000150: 9206 46bd 1f11 553d 85ec c5bc 44d1 9cbd
00000160: 5459 bcbc 51d4 94bd 83c0 14bd e9bc b0bd
00000170: 9161 1cbd 699d 74bb c22c ccbc ee34 413d
00000180: 36fb 693d 922a a0bd 9078 bf3b 0934 7e3d
00000190: 3504 5fbd c70f 0cbc af18 84bd 15d9 aa3d
000001a0: c3c1 14bd cccf 203d 5d9f a83c 969e 3abc
000001b0: 9ffd bf3c 5a54 1dbc f333 673c 7e7a b23d
000001c0: 8eed 1d3d 9883 7a38 3e42 a0bd b5f1 593d
000001d0: d326 593d 4a5f 543c 6dc1 8abd d4f9 2f3c
000001e0: ec67 a9bd a676 97bc 01ea 723d a662 86bc
000001f0: c6aa 823d 0c1b 1f3d c3ed 7e3d d7eb a2bd
00000200: 74fc dc3c 076d eabc 5ef1 90bd 4808 86bd
-0.036644444 -0.012264132 0.06963158 0.033996124 0.019406203 0.011142057 -0.07114143 -0.019900743
-0.045759577 -0.009502253 -0.019061979 -0.017727304 -0.059561383 -0.07695819 0.084957235 0.0044449414
0.076756515 0.011798189 0.037350614 0.065427884 -0.065312445 -0.045446567 0.06137517 0.08541302
0.016103163 0.011581235 -0.009865048 -0.04639499 0.03356721 -0.083592184 -0.018258452 -0.006532679
-0.028470438 0.05078514 -0.07146593 0.07065058 0.03355505 -0.002974827 -0.029081458 -0.02174208
-0.015655026 0.07685429 -0.057993352 -0.045816146 -0.011909532 -0.026818363 0.023065967 0.07645773
0.061278556 -0.036699582 0.057499927 -0.07868572 0.018314885 0.039490584 0.020832086 0.06998377
-0.012315368 0.044001494 -0.05005023 0.07554778 0.060702834 0.016500387 0.028403718 0.08091143
0.03765881 0.079636194 0.025423164 0.051965803 -0.020181965 -0.015356536 -0.038068693 -0.06912821
-0.06693176 0.07000309 0.034920212 0.04204025 -0.029103369 0.06288385 -0.06574193 -0.057470012
0.08094627 0.083149515 -0.059471615 0.0022770618 -0.04834611 0.05201828 -0.024160633 -0.07657102
-0.022991814 -0.07267059 -0.036316406 -0.08629782 -0.038178984 -0.003732527 -0.024923686 0.04716962
0.05712434 -0.0782062 0.0058432296 0.062061343 -0.05444737 -0.0085486835 -0.064500205 0.08342186
-0.036317598 0.03926067 0.020583803 -0.011390349 0.023436366 -0.0096026305 0.014111507 0.0871477
0.038556628 5.97272e-05 -0.07825135 0.053209025 0.05301554 0.012962172 -0.06775174 0.010740716
-0.08271775 -0.018489193 0.059305195 -0.016404461 0.06380229 0.038844153 0.062238466 -0.07955139
0.026975848 -0.028616441 -0.07077287 -0.06544548

bn2.weight f4 [132]
00000000: 824a 873f 7a74 763f 93dd 833f 0681 5b3f
00000010: 8fb0 d03f 39e6 a93f 99f3 ad3f f49e 963f
00000020: ccf5 863f 1775 803f 63fa 8d3f 5963 9d3f
00000030: 6efe 863f a486 e43f 9428 b43f c6cc d43f
00000040: 88ff 953f d00a b73f 5a90 8c3f 8715 b73f
00000050: cacf cd3f 073f b13f 49e6 b43f a32e c03f
00000060: e177 a03f a312 763f 45d6 a13f 1047 553f
00000070: cbe5 473f a321 b43f aac0 bb3f 795b ac3f
00000080: 5293 a43f 265f d93f 6b66 873f f876 6d3f
00000090: 8c88 6b3f 5129 823f 4f20 313f 1298 a53f
000000a0: 2a33 ac3f 5fdc a43f 66de 993f f2df d03f
000000b0: 5372 9a3f 5f0b d83f e532 803f 3dc5 5d3f
000000c0: 8637 853f 416f ef3f 8440 8e3f 1179 b03f
000000d0: 0cdd bb3f fb6c a73f e05b c13f 9d9f 693f
000000e0: fb2c 9e3f 7904 433f ff09 ae3f 2fe0 783f
000000f0: 94e5 be3f 51e1 8d3f 298b 8d3f c17b 7c3f
00000100: fd27 913f 4d32 923f f368 b03f a446 603f
00000110: 6138 993f 46dc 843f 99d1 943f a620 773f
00000120: a82b 763f f7b1 3f3f 54e9 c13f 8aef 7f3f
00000130: bbe4 b53f e3ff 963f faf5 8b3f ea36 5d3f
00000140: d4af 8b3f 5f32 9b3f b857 803f ff30 8e3f
00000150: 0ccf 943f 0196 6f3f 8d24 8d3f 09f9 2b3f
00000160: 818c c23f c5b2 543f 7da3 dc3f d500 913f
00000170: b2ae 963f fcec ae3f 4f2c 8f3f 0579 ab3f
00000180: 244f ca3f 0ecb 3a3f 8ca2 933f ba75 2e3f
00000190: a868 d73f 4c98 633f 7ebd a53f ba07 993f
000001a0: 1a4c ae3f e2f7 883f 8b57 a43f 50e5 643f
000001b0: 07e6 7c3f 8a41 8a3f d6ca 403f 3d85 763f
000001c0: 921c 833f 776b ac3f 4b7c b73f b5b4 8f3f
000001d0: 7d78 a13f 3a0e 6f3f 87df 903f 2ab7 653f
000001e0: e01e 9f3f 1cec 883f 9847 8f3f d28d 9e3f
000001f0: 2ac8 a73f 9315 423f b26a c23f fa49 b63f
00000200: 85fd 933f eb38 993f aefc 463f e2fb a33f
1.0569613 0.9627148 1.0301994 0.8574375 1.6303881 1.3273383 1.3589965 1.1767259
1.0543761 1.0035733 1.1092037 1.2295943 1.0546396 1.7853589 1.4074883 1.6624992
1.1718607 1.4300175 1.0981553 1.4303445 1.6079037 1.384736 1.4132777 1.5014232
1.2536584 0.9612219 1.2643515 0.8331156 0.7808501 1.4072765 1.4668171 1.3465415
1.2857459 1.6982162 1.057813 0.92759657 0.9200523 1.0168859 0.69189924 1.2937033
1.3453114 1.2879752 1.2020996 1.6318343 1.2066139 1.687847 1.0015532 0.86629087
1.040757 1.8705827 1.1113439 1.3786947 1.4676833 1.3080133 1.5106163 0.91259176
1.2357477 0.761787 1.35968 0.97217077 1.4913812 1.1084386 1.1058093 0.98626333
1.1340328 1.14216 1.3782028 0.8760779 1.197033 1.0379722 1.1626464 0.9653419
0.96160364 0.7488093 1.5149331 0.9997488 1.4210428 1.179684 1.0934441 0.8641192
1.0913033 1.2124747 1.002677 1.1108702 1.1625686 0.9358826 1.102678 0.6717687
1.5199128 0.8308528 1.7237393 1.1328379 1.1772063 1.3666072 1.1185397 1.3396307
1.5805402 0.72966087 1.153398 0.68148386 1.6828814 0.8890426 1.2948453 1.1955483
1.3616974 1.0700648 1.2839216 0.89412403 0.98788494 1.0801251 0.75309503 0.96297055
1.0243094 1.3470296 1.4334806 1.1227022 1.2614895 0.93381083 1.1318215 0.8973261
1.2431297 1.0697055 1.1193724 1.238703 1.310796 0.7581417 1.5188811 1.4241326
1.1561743 1.1970495 0.7772931 1.2811244

bn2.bias f4 [132]
00000000: 8fa6 44bf 69c0 d8be 4853 80be 7915 63bf
00000010: 80e5 2ac0 9f2e eabf 0c93 b3bf ca2d c7be
00000020: 7c64 adbe 695b 17be e8dd 86bf 3caf 65bf
00000030: 8f32 50bf c494 43bf adc0 06bf 7559 9bbf
00000040: c86b d2bf a294 20be 2633 c6be cdd9 15c0
00000050: 3aa8 dabf c6c4 81bf 6055 f3bf 9828 16c0
00000060: f8f4 67bf 637a 4ebf 3442 a6be 6008 70bf
00000070: c3c9 083e 7d19 03c0 c4cf bebf ad72 bcbc
00000080: e45e e7bf f598 11c0 ad28 06c0 a9e2 cfbe
00000090: cfaa ddbe bfd7 bebd b860 e33e 559f 6ebf
000000a0: 3ba0 84bf 1c5c a7bf 4de5 b0bf ebf6 e7bf
000000b0: 8d71 87be 06f8 b9bf 198f 8dbe f9b8 35bd
000000c0: 89de 72bf b7d1 9abf 5fd3 f4be 1781 77bf
000000d0: c903 d6be b15d 68be 4385 acbf 239e f6bf
000000e0: ed87 8cbf e9e4 83bd e418 0dbd e3dc aabf
000000f0: c778 eabe 1675 bdbf 18eb bfbe 6815 72be
00000100: 42b6 ff3b 4954 e3be ffe3 1bc0 260b 3dbe
00000110: d5ed a1bf f3d6 82bf 358e e4bf ef06 c1be
00000120: ed17 553d 77f5 46bf ce6f 3ebf 22c9 edbe
00000130: 2f21 fcbe 159d cfbe f34b b8be 7390 2d3e
00000140: 73ac d4be 2868 debf 3c34 883d f16f 5ebf
00000150: 352b 9bbe bb02 37bf 0184 46be a430 1abe
00000160: 7eba 08c0 fb62 c3be 642e f5bf dac3 58bf
00000170: 71bc 8dbf 5c8d 9bbe 2bcd 8bbd 6fea d2be
00000180: 5bf4 d0be 044b 913e e182 aabe dcba 3d3d
00000190: 636f 89bf 1cc0 47bf 2d42 5abe 8233 c4bf
000001a0: 422c 6bbf 9a6f 83bf 8e9c d7be bb63 3dbf
000001b0: 3f0a 043e 5f84 b3bf bb2a 52bf 2668 98be
000001c0: 5ffb c0be 32bc 19c0 04ba a8bf cc52 bcbe
000001d0: 0371 81bd efa0 0bbe 1738 0fc0 dcbb 7cbe
000001e0: ef2b 82bf 41c3 ccbe 437a 6fbf 0e7b 34bf
000001f0: 5065 c2be c52d 3abf b453 70bf 549f 55bf
00000200: 6469 3ebf 30fe b9bf 2842 70bf f450 bebf
-0.7681665 -0.42334297 -0.2506354 -0.8870464 -2.6702576 -1.8295478 -1.402925 -0.38902122
-0.33865726 -0.14780964 -1.053647 -0.8972051 -0.81327146 -0.76398873 -0.5263775 -1.2136675
-1.6439142 -0.15681699 -0.38710898 -2.3414185 -1.7082589 -1.0138175 -1.9010429 -2.3462276
-0.9060817 -0.806555 -0.32472384 -0.9376278 0.13358216 -2.0484307 -1.4907155 -0.0230039
-1.8075833 -2.2749608 -2.0962327 -0.40602615 -0.4329438 -0.09318494 0.44409728 -0.9321187
-1.0361398 -1.3074985 -1.3819977 -1.8122228 -0.2645382 -1.4528816 -0.27648237 -0.044365857
-0.9487081 -1.209525 -0.47817513 -0.9668135 -0.41799763 -0.2269199 -1.3478168 -1.926701
-1.0978981 -0.064401455 -0.034447566 -1.3348659 -0.4579527 -1.4801357 -0.3748405 -0.23640978
0.0078037092 -0.44400242 -2.4357908 -0.18461284 -1.2650706 -1.0221847 -1.7855898 -0.37700602
0.05202477 -0.777183 -0.7438935 -0.46442515 -0.49244067 -0.40549532 -0.35995445 0.16949634
-0.41537818 -1.7375536 0.06650588 -0.8688956 -0.30306402 -0.7148854 -0.19386293 -0.15057617
-2.1363826 -0.38161454 -1.9154782 -0.84673846 -1.1073133 -0.30381286 -0.06826242 -0.41194484
-0.40811428 0.28377545 -0.33302978 0.04632078 -1.0737118 -0.7802751 -0.21314307 -1.5328219
-0.9186441 -1.0268433 -0.4211163 -0.739803 0.12894534 -1.4024771 -0.8209645 -0.2976696
-0.3769178 -2.4021115 -1.3181767 -0.3678192 -0.063203834 -0.1363561 -2.2377985 -0.24681038
-1.0169657 -0.39992717 -0.9354593 -0.70500267 -0.3796792 -0.7272609 -0.9387772 -0.8344624
-0.74379563 -1.4530697 -0.93850946 -1.4868455

bn2.running_mean f4 [132]
00000000: 159a b8be 0880 f3be 6a14 9fbe 099d d43c
00000010: 4df5 9f3f 173b 863f 5094 143f 1c59 93be
00000020: ec40 9d3e d084 88bf cf34 783e ae1f 433e
00000030: 1f31 1bbe 56e6 a13e dc40 11be 8505 3ebd
00000040: 88ff 933f 87c4 c7bf dd1e 7abf 3637 9a3f
00000050: 7c77 083f a489 eebe 50b2 383f ecc9 923f
00000060: ca6f ecbe 4bb8 d9be 6f19 d6bd 1e4c e43d
00000070: bf32 70bf 9a5f a03d 382d 323f a5d8 94bf
00000080: df10 643f a409 9c3f 9781 5f3f cf3a f6be
00000090: 49df d73c a4aa 1f3e a3f6 9cbe bac2 f13e
000000a0: 297f 0d3f 3c6c 773f 1595 273f 6226 b13e
000000b0: 885a 4f3f 2132 1d3f 37d4 38ba edc9 173e
000000c0: e38d 22bf 151c 663f f6f1 5bbf d01e 83bf
000000d0: 0feb 473f e485 473e f227 833d 7efe 5e3f
000000e0: 3a15 6f3f 43b2 3fbf 8519 17bf 5dcc 4fbf
000000f0: 18ae 33bf 945f 1a3f 7b28 9a3c 68a6 e4be
00000100: 0c97 85be 8e3d 47bd 7838 483f eccc 21bf
00000110: 2754 0e3f 37aa 863d 8075 e73e 9860 57bd
00000120: 9598 48bf 1076 213f 1d54 813f 6296 083e
00000130: 7817 03bf d01d 013f 66ce 21bf 2309 56bf
00000140: 343e 6abf 8feb 4f3f d734 07bf 95fd 1cbf
00000150: 855b 55bf f743 41bf 1f2d 3c3e 8d3e 57be
00000160: 243e 123f 81f3 28bf 329f 7f3f b4bf 5fbf
00000170: 310f 013f 2c6f bbbe 454b a33e 2dc8 15bf
00000180: 6707 093f c7fb cebf 1377 5dbf 6c14 4fbf
00000190: f124 833f bed3 1ebe cee4 363f 744a 203f
000001a0: 6c05 57bf 77b5 293f b209 b3bd 0799 9e3e
000001b0: c8da 6bbe 9169 46be 78d4 703c 5a9f 2dbf
000001c0: 792c 213f fc5d 803f ac46 4d3f 71b5 8bbf
000001d0: 4375 4fbf c395 f8be dd0c 3c3f 1ca8 37be
000001e0: 7874 37bd b124 2ebe 98e3 2d3f 7097 e63e
000001f0: 0930 a3be 3a59 4cbf bd98 8d3d e0eb f03e
00000200: 21cb 84bd 27e1 a63c 79f0 8dbe 343b c93f
-0.36055055 -0.47558618 -0.31070262 0.025953786 1.2496735 1.0486783 0.58038807 -0.28778923
0.30713594 -1.0665531 0.24238895 0.19055054 -0.15155457 0.31621045 -0.14184898 -0.046391983
1.1562357 -1.560685 -0.97703344 1.2048099 0.5330732 -0.46589386 0.72147083 1.1467872
-0.46179038 -0.42523417 -0.1045407 0.11147331 -0.9382743 0.078307346 0.6960025 -1.1628615
0.89088243 1.2190442 0.87307113 -0.48091742 0.026351588 0.15592438 -0.3065692 0.47218877
0.55272156 0.9664953 0.65461856 0.34599596 0.80997515 0.61404616 -0.00070506654 0.14823122
-0.6349775 0.898866 -0.8591608 -1.0243778 0.78093046 0.19484669 0.06404103 0.87107074
0.93391764 -0.7488138 -0.59023315 -0.8117121 -0.7018752 0.6030209 0.01881813 -0.44658208
-0.26091802 -0.048642687 0.78211164 -0.6320331 0.55597156 0.06575435 0.45206833 -0.052582353
-0.7835782 0.63070774 1.0103794 0.13338616 -0.51207685 0.50436115 -0.63205564 -0.8360769
-0.91501164 0.8121881 -0.52815 -0.61324435 -0.8334277 -0.7549433 0.18376587 -0.21019955
0.5712607 -0.6599656 0.9985229 -0.8740189 0.50413805 -0.36608255 0.31893364 -0.5850857
0.5352692 -1.6170586 -0.8650982 -0.80890536 1.0245649 -0.1551046 0.7144288 0.62613606
-0.8399265 0.6629252 -0.087420836 0.30976126 -0.23032677 -0.19376208 0.014699094 -0.67821276
0.62958485 1.0028682 0.8018596 -1.0914747 -0.810383 -0.4855176 0.7345713 -0.17935222
-0.044788808 -0.17006184 0.67925406 0.45037413 -0.31872585 -0.7982365 0.06913898 0.47054958
-0.06484056 0.020371033 -0.2772253 1.5721192

bn2.running_var f4 [132]
00000000: 47ce f73e 5e00 973f 5037 913e 8f6f 093f
00000010: b5d7 a23f 8deb 863f 24f6 823f e8db d53e
00000020: 9abb 523f 79b5 ae3f 0587 f73e 845d 193f
00000030: 06cf 523f 7639 893f dba6 073f 07b8 883e
00000040: c4a8 843f 9a1e 2d40 1c06 453f b5ff 6b3f
00000050: b682 5a3f 1f3a 843e ab8c 2d3f ecaf 5e3f
00000060: 71b4 a93e 506b ab3e 074e e73e 3e5b ca3e
00000070: 7df8 a03f 610e 733f 42a2 a23f 048d fe3f
00000080: 24d3 663f c790 a93f 97f3 733f d223 193f
00000090: 777f 0c3f 8c6d fa3e 682a 773f 6917 373f
000000a0: ae90 763f d59a ac3f 1940 2d3f b1fa 4f3f
000000b0: a4dd 593f 91df a43f e74c 043f a10f e83e
000000c0: 9b00 763e 33dc b13f 685e 093f c9c5 953e
000000d0: c71b 983f 4eb6 143f 6ad7 333f afd7 363f
000000e0: 79f3 723f 3d19 8d3f 432c 343f 215e 3e3e
000000f0: 438d 083f 48e7 1a3f 40cd 343f fb06 233f
00000100: 7dd2 5c3f 38fa e03e 7552 5e3f d0d3 e13e
00000110: afcb 973f b83b 0b3f 20bc 463f 50f0 193f
00000120: 445a 783f 9893 423f 347a 993f 36d5 223f
00000130: d52e 833f 0f13 8c3f 540a 5d3f 0a8a 973f
00000140: 5409 0540 05b9 2d3f 462e 9c3f d891 d43e
00000150: 5672 2a3f 837f 823e 8d07 403f 8cd0 153f
00000160: cbfc 543f 84f6 133f 6c9b a93f c6ca ba3e
00000170: 0364 6b3f 5c5b 1a3f c645 923f c960 3a3f
00000180: 4b94 4b3f 00e9 1540 227e 1b3f 0afe 613f
00000190: c80a 813f e1df 9b3e 7b8b ac3f d083 693f
000001a0: 365e 033f 49d1 453f cf9c b53e 395e 1f3f
000001b0: b81d a33f b067 143f 1968 503f 2d56 e33e
000001c0: 6339 083f 0e0d 353f 581e 553f 699c 083f
000001d0: d5fe 1b3f fa8a 2e3f 8176 4c3f 669d 813f
000001e0: d500 333f 437c 1d3f a190 393f 2efa 783f
000001f0: e758 ec3e e1e7 613e ca5a 243f f888 813f
00000200: a3e2 183f 8485 703f f77a 123f 2725 aa3f
0.48399565 1.1796987 0.28362513 0.5368585 1.2722079 1.0540634 1.0231366 0.41769338
0.8231751 1.3649131 0.483452 0.5990832 0.8234714 1.0720661 0.52988976 0.26702902
1.0364003 2.7049928 0.7696245 0.9218705 0.853557 0.25825593 0.6779277 0.86987185
0.33145478 0.3348031 0.45176718 0.39522737 1.2575833 0.94943815 1.2705767 1.9886785
0.90165925 1.3247308 0.95293564 0.5982028 0.54881996 0.48911703 0.9654908 0.71520096
0.96314514 1.3484751 0.6767593 0.812419 0.8510382 1.2880727 0.51679844 0.45324424
0.24023668 1.3895324 0.5365968 0.2925246 1.1883477 0.58090675 0.7025057 0.7142286
0.9490276 1.1023327 0.7038004 0.18590595 0.5334055 0.6050916 0.70625687 0.63682526
0.8625868 0.43940902 0.8684457 0.44106913 1.1859034 0.54388 0.77630806 0.6013231
0.97012734 0.7600646 1.1990418 0.63606584 1.0248667 1.0943316 0.86343884 1.1839001
2.0786943 0.6786044 1.2201622 0.4151752 0.6658071 0.2548791 0.7501152 0.5852134
0.8319823 0.5779803 1.3250556 0.3648283 0.9194948 0.60295653 1.1427543 0.7280393
0.7952315 2.3423462 0.6073934 0.8827826 1.0081415 0.30444244 1.3480066 0.91216755
0.5131563 0.7727247 0.35471198 0.6225315 1.2743444 0.57970715 0.8140884 0.44401684
0.53212565 0.70723045 0.83249426 0.5336366 0.6093572 0.6818081 0.7986832 1.0126159
0.69923145 0.61517733 0.7248631 0.97256744 0.46161577 0.22061111 0.64201033 1.0119925
0.5972082 0.9395373 0.5721888 1.3292588

fc3.weight f4 [4, 132]
00000000: 8c3a 373e b8b7 043f 27c7 06be c557 56bf
00000010: d336 823e 34de 183f 36b5 173f da53 5cbd
00000020: c3e8 20bf 5260 673f 4244 d03f 9b21 fc3d
00000030: d42a dd3e 8f6d 153d 47cb e7be 6dbb 0b40
00000040: ee7d 6dbf 1fab 0e3f 4ee4 27be 5919 973c
00000050: f5bc 37be 2e23 03c0 7c2f cb3e d0a0 e7bf
00000060: a08d 2dbd 9eba 7cbe de09 103f 564a 833d
00000070: ccf9 bfbe fe10 44bf a983 27be fb63 af3d
00000080: b9c1 43be 2c19 f93e ba92 3740 fb96 43be
00000090: 39f7 2b3f 6e6c 84bb 6246 40bf 2efa 043e
000000a0: e044 06bf 253f 08bf 3118 d8bd 9996 793f
000000b0: 84c9 793f 449e e13e f7dc 13bf 30fe 8f3d
000000c0: 6c44 963c a232 5abe 94ef 32bf cce5 24be
000000d0: 2003 8ebe 8004 19bf 4e87 273e beff debb
000000e0: e761 6abe 0187 0ebf ad0b 513e c550 d8bd
000000f0: 4477 4b3e 1779 d13b cd76 923c 254d c2bd
00000100: 27fe 5d3e 5086 b03e fd6c 4dbf 1424 22bf
00000110: 4977 933f 7bc6 263f 0ef5 433f d285 e23d
00000120: b5fc 3b3e 788f a03e 7b5e 63bf 7874 c1bd
00000130: 6f9c 12bf abe5 69be 0f6a 1f3f 0529 0fbf
00000140: a171 84be 6c09 dd3e 3ab8 68be f08f 58be
00000150: e023 e63e 70df 90be 077b 4e3d bc6a 3fbc
00000160: 0e34 bc3f 4e0d 29be dd08 1ebf c17c 9abe
00000170: e7a8 823f a4a5 1c3f 863c f13e f353 0dbf
00000180: b4b5 d43e 1105 09bd 2204 193f cf73 2a3f
00000190: d592 5f3f 49ea 633d 2e15 e8be 655c e2be
000001a0: 8e37 863e 651c 74be 797e 813e 5ac0 e6be
000001b0: ed16 09bf 202d 85be 3f70 d0bc 73b0 963e
000001c0: 94bc d63e 795a 44be 396c d33e 7e9e 323f
000001d0: 242a 0bbf 72f8 77be bbb2 1abf 6b70 0fbe
000001e0: 339d ac3e 9a6c e7be 45be 973e 8687 2abf
000001f0: c7f5 b7be 94b9 dbbe b736 28bf c3c5 a1be
00000200: 3338 103e ac5b a73e 5c73 993f 1123 e0bf
00000210: 7646 ec3d 0303 883d 8deb 913c 3003 96bd
00000220: a579 a5be af19 733f d32c c5bf 1366 8bbf
00000230: 486c 463f c792 0fbf b238 f33d 6de6 7f3f
00000240: 7457 7fbe 7efe e2be c040 dc3e 2dc1 ac3d
00000250: 6350 72be 5960 febc 20bf 22bf 9263 1240
00000260: 460f 88bf ac03 a33d d62c 8b3f d51a cf3e
00000270: f359 3fbf 263c 743e bef6 0f3f 30ee dc3e
00000280: 6644 103f 2c67 67bf 0501 c6bf 5636 e13e
00000290: cc43 c03f 2c6c 29be 4107 94bf 7733 5a3e
000002a0: b999 2dbd dde7 bdbe 8ae2 12be 5026 173f
000002b0: 51b0 453f dc44 8f3f 5a07 edbe 6ceb f73d
000002c0: f6d8 1fbe 7900 85bf fe78 b33e 4f88 643f
000002d0: e673 8cbe a9d2 b63f 8e14 723f d988 1740
000002e0: 4bd3 a53f 43d5 e9be d75d 32bd ef50 6d3f
000002f0: bc14 af3f 79c4 ffbd 60f2 b83f c2f8 f03e
00000300: 6ac6 b1bf efaa 18bf 7bad b93c af84 50bf
00000310: 451d 2dbf 66cb 4d3e 6e9a 13be 1f18 163e
00000320: 86d2 303d 4583 09bf fb58 ed3d 81ca 0bbf
00000330: 7c3a 323e cf92 a6bd 5a05 ccbe ed7a cdbe
00000340: 2e84 b2be 741f c2bf f927 3e3f 44b1 94be
00000350: dacc a73f c9ff c9bf aada 8b3c ae60 ac3f
00000360: 4611 a63e c556 8abe bcd8 79bf 6dfe ed3e
00000370: 417b 2d3f f042 13bf 5189 bc3e f9b6 c5be
00000380: 255c 8abe fcf7 843d c874 15bf 063a 83bd
00000390: 2ff3 8fbf 6d3a 633e 8c2a 85be 1dca 17be
000003a0: 5b60 353f ad1d 153f e353 2bbf 3b03 96bf
000003b0: 7536 523f c0f3 5e3d c1f3 1f3f ed3c 3abf
000003c0: 7d20 9bbc 4c30 2abf ebbb 3a3c 5569 91bf
000003d0: ce09 04bf f89e 13c0 b469 713f a1e8 adbe
000003e0: 6dd2 e8be 169b 08bf 7145 a13f b8fc 86be
000003f0: c946 423c 18cb 2ebf 537d 963e 8986 823e
0.17893428 0.5184283 -0.13161908 -0.83727676 0.25432453 0.59714055 0.5926088 -0.053790905
-0.62855166 0.9038135 1.6270831 0.12311097 0.43196738 0.036481436 -0.45272276 2.1833146
-0.9277028 0.5572986 -0.16395685 0.018444704 -0.17943175 -2.0490222 0.39684665 -1.8095951
-0.042371392 -0.24680564 0.56265056 0.06410663 -0.37495267 -0.7658843 -0.16358818 0.08563992
-0.19116868 0.48652017 2.8683305 -0.19100563 0.67174107 -0.004041246 -0.75107396 0.12986061
-0.52448845 -0.5322135 -0.10551489 0.9749542 0.97573113 0.4406606 -0.5775904 0.07030904
0.018343173 -0.21308377 -0.6989682 -0.16103286 -0.2773676 -0.5977249 0.16360208 -0.006805389
-0.2288891 -0.5567475 0.2041461 -0.105622806 0.19869715 0.006392609 0.017878914 -0.094873704
0.21678983 0.34477472 -0.8024443 -0.633363 1.1520778 0.6514661 0.765458 0.110606804
0.18358119 0.31359458 -0.8881604 -0.09446043 -0.5726995 -0.22841518 0.6227121 -0.55921966
-0.25867942 0.4317125 -0.22726527 -0.21148658 0.44949245 -0.2829547 0.050410297 -0.011683162
1.4703386 -0.16508982 -0.61732274 -0.30173305 1.0207795 0.6119025 0.47116488 -0.5520622
0.41544878 -0.033452097 0.5977193 0.6658296 0.8733342 0.055643354 -0.4532866 -0.44211116
0.2621426 -0.23838957 0.25291803 -0.45068628 -0.53550607 -0.2601099 -0.025444148 0.29431495
0.4194075 -0.19175138 0.41293505 0.6977309 -0.54361176 -0.24215868 -0.6042897 -0.14007728
0.33713683 -0.45200044 0.29637352 -0.6661304 -0.359297 -0.42915022 -0.6570849 -0.31596193
0.14083938 0.32687128 1.198833 -1.7510701 0.11536877 0.066411994 0.017812515 -0.07324827
-0.3231937 0.94961065 -1.5404304 -1.0890526 0.77508974 -0.5608334 0.11876048 0.99960977
-0.24935704 -0.44334787 0.4301815 0.08435283 -0.23663478 -0.031051802 -0.63572884 2.2873273
-1.0629661 0.07959685 1.0873058 0.4045016 -0.74746627 0.2385107 0.56235874 0.43150473
0.5635437 -0.903918 -1.5469061 0.43986768 1.502069 -0.1654517 -1.1564714 0.21308695
-0.04238293 -0.3709096 -0.1434423 0.59042835 0.7722216 1.1192889 -0.4629467 0.1210545
-0.15610108 -1.0390769 0.35053247 0.8927049 -0.27432173 1.4283038 0.94562614 2.3677275
1.2955106 -0.45670518 -0.043546524 0.9270162 1.3678203 -0.12488646 1.4448967 0.47064787
-1.3888676 -0.59635824 0.02266573 -0.8145246 -0.67622787 0.20097122 -0.14414379 0.14657639
0.04316952 -0.53715926 0.11589237 -0.5460587 0.17405123 -0.0813347 -0.39847833 -0.40132847
-0.3486647 -1.5165849 0.74279743 -0.29041493 1.3109391 -1.5781184 0.01707204 1.3467004
0.32435054 -0.27019325 -0.97596335 0.46483174 0.67766196 -0.57524014 0.36823514 -0.3861616
-0.27023426 0.06492612 -0.5838132 -0.064075515 -1.1246089 0.22190256 -0.26009023 -0.14823194
0.7085015 0.58248407 -0.66924876 -1.1719736 0.82114345 0.054431677 0.62481314 -0.72749215
-0.01893639 -0.66479945 0.011397342 -1.136027 -0.5157746 -2.3065777 0.94301915 -0.33966544
-0.45473042 -0.5336164 1.2599317 -0.26364684 0.011857697 -0.68278646 0.2939249 0.25493267

fc3.bias f4 [4]
00000000: 5686 a6bc eb96 efbd 8db3 dbbc 5fb0 883d
-0.020327728 -0.11698707 -0.026819015 0.06674265
