20Agents-best_critic.pth (torch_old, 118307 bytes, 13 tensors)

fc1.weight f4 [148, 33]
000000 61 1c 95 3e 22 09 9f be 8a 0d 31 be 95 88 0b bd
       0.29123214 -0.31061655 -0.17290321 -0.0340658
000010 0f 57 4c 3d b5 ce af bc a2 b5 0b 3e 62 cc 3e bd
       0.049887713 -0.02146087 0.13643506 -0.046581633
000020 37 2f 8f bd a6 b4 6f 3e 71 91 85 3d d3 31 11 3c
       -0.069914274 0.23408756 0.06521881 0.008861977
000030 8e 31 1b 3d 7b e8 a0 be f4 f7 69 3e cd c5 33 3e
       0.037889056 -0.3142737 0.22848493 0.17555924
000040 37 fc cf 3d 49 80 08 3d f5 42 43 bc 71 ac da bd
       0.10155528 0.033325467 -0.011917819 -0.10677422
000050 68 0b 03 3d 3a 9f 95 bd f9 e2 16 3c b1 12 7b bd
       0.0319933 -0.07305761 0.009209388 -0.061297122
000060 69 d8 83 3d a5 3c 4b 3d 38 e3 8e 3e 8f ee 59 bd
       0.06437761 0.049618382 0.2790773 -0.053206023
000070 0e 5f 41 be 49 7d 9e bd 36 af 48 bd 26 bd 9a bd
       -0.18883917 -0.0773874 -0.04899522 -0.075556085
000080 0e 05 00 c0 29 c9 5b be 43 9a 8d 3e 88 df 42 be
       -2.0003085 -0.21463455 0.27656755 -0.19030583
000090 23 d0 21 be 42 26 9b b9 68 fd b6 bd e3 53 75 bd
       -0.15802054 -0.00029592408 -0.08935052 -0.059894454
0000a0 84 fe 1d 3d d3 9a 41 be a8 f3 21 3e 9b dd 5f be
       0.038572803 -0.18906717 0.15815604 -0.2186188
0000b0 bc e6 68 3e 11 57 eb 3c 7d 1b b0 be fa 5a b3 3d
       0.22744268 0.02872804 -0.34395972 0.08757587
0000c0 a6 a9 e8 3d c1 64 19 3e a6 e2 12 be db 06 fa 3d
       0.11360483 0.14979841 -0.14344272 0.12208339
0000d0 bf c5 00 be fd 6d 01 3d 7c 55 45 bd db 02 db 3d
       -0.12575434 0.031599034 -0.048177227 0.10693904
0000e0 10 be 3e be c5 c3 8e 3e bc fa fd 3d 80 53 4e 3d
       -0.1862719 0.27883735 0.124013394 0.0503726
0000f0 c8 65 81 3d b3 01 c2 be 90 ac 81 bb f8 96 2e 3d
       0.06318241 -0.3789192 -0.0039573386 0.042624444
000100 ba 27 65 3d 52 7f bc bf 28 b5 1b 3e bd 35 7a be
       0.05594609 -1.4726355 0.15205824 -0.24434562
000110 24 8d 0a 3e ee 6e 9b 3e f8 1b d3 bd 32 32 ac be
       0.13530403 0.3035807 -0.10308069 -0.33632046
000120 a3 ea bd 3e e3 35 ae be ef 5a 16 be 42 f1 0c bc
       0.37093076 -0.34025487 -0.14683126 -0.008602442
000130 02 1f 67 3d cc d5 7c be 52 70 c0 3e 81 1e a0 be
       0.056426056 -0.24690932 0.37585694 -0.31273273
000140 2f a8 89 be 56 bf 47 bd 3a 3f 5f bd 30 5a c3 3e
       -0.26886126 -0.048766457 -0.054503657 0.38154745
000150 78 ff 97 3e 07 ae 62 3d 32 ad 60 3c 17 6f ae bd
       0.29687095 0.055341747 0.013713168 -0.085172825
000160 4c eb 51 be 06 7d 77 3e a4 2b 5e be 58 f6 c0 3e
       -0.20499915 0.24168786 -0.21696335 0.37687945
000170 2f 20 a0 be 15 26 78 bd 97 dd f2 bd f1 23 83 3d
       -0.31274554 -0.060583193 -0.11858671 0.0640334
000180 70 61 b4 3c 26 8b 7e 3d bb 5b 41 3f 98 66 88 3e
       0.022019118 0.06214442 0.75530595 0.26640773
000190 74 e2 0a be cd ff 5f bc ee 66 31 3e 8a 88 86 bc
       -0.13562948 -0.0136718275 0.17324421 -0.016422529
0001a0 c4 7e 92 3d 07 bc 9d bd 36 3f ec bc 03 a4 00 3e
       0.07153085 -0.07701879 -0.028838735 0.12562566
0001b0 94 ba 7f bc b1 e7 86 3c c0 2b 1d bd 81 ba 40 bd
       -0.015608449 0.016467901 -0.0383718 -0.047052864
0001c0 59 2c c9 be 88 8e e2 3d 65 1a 1e bc 43 30 5c be
       -0.39291647 0.11062342 -0.009649848 -0.21502785
0001d0 09 73 e8 bd 1d af 0a 3d a4 39 1a be d2 65 ec 3b
       -0.11350066 0.033858407 -0.1506105 0.0072142864
0001e0 69 1f 97 3c 96 e0 26 bc a7 93 29 be 0b 54 7a 3c
       0.018447595 -0.010185381 -0.16560231 0.0152788265
0001f0 cc c1 2e 3c e9 34 bf 3d b8 3d 9b 3d 21 df 01 3e
       0.010666322 0.09336264 0.07580131 0.12682773
000200 e7 62 0f bd 21 c1 7d bd 84 d4 9c 3c ab 85 16 40
       -0.03500643 -0.06195176 0.019144304 2.3519084
000210 8e 17 04 3f 6a 52 99 be 75 f7 42 3e 1a 2a 19 3e
       0.5159844 -0.2994569 0.1903971 0.14957467
000220 39 df 78 be 00 ab 40 bd f8 d0 a6 3d c4 e8 1b 3e
       -0.24303903 -0.04703808 0.081453264 0.15225512
000230 ca c2 b3 3c 6f be 28 bd 59 98 0c 3e ed 87 b9 bc
       0.021943469 -0.041197237 0.13729991 -0.022647822
000240 5e d5 c3 3d 6b 20 0c bf 19 87 12 3d 37 f6 d2 bd
       0.09562181 -0.54736966 0.03577337 -0.10300868
000250 b7 60 6f bc c5 32 3a bd 2c 80 f0 3d d5 ba 38 3d
       -0.014610461 -0.045458574 0.11743197 0.045100052
000260 44 d8 82 bd a6 a7 d4 bd 13 46 3f bc 71 f9 d8 be
       -0.06388906 -0.10383539 -0.011674422 -0.4237781
000270 2f 9d 0f be 73 c3 8c bb 10 99 f6 bc 4b 8c ec 3c
       -0.14024805 -0.0042957603 -0.030102283 0.02887549
000280 d0 07 07 3e 09 5b 81 3d 8b 14 21 bd ac ff ec 3c
       0.13186574 0.06316192 -0.039326232 0.028930508
000290 e9 17 8f 3f c5 22 1f bf 07 5f f0 3e c1 79 90 3d
       1.1179172 -0.6216243 0.469475 0.07054473
0002a0 eb 0f 47 3e 0a e5 14 be 4d 7a 52 3e f1 9a ca 3e
       0.19439666 -0.14540496 0.20554467 0.39571336
0002b0 48 b4 6d 3e 72 3f 25 bd b7 0a a9 3e f9 6d a9 be
       0.23213303 -0.04034371 0.33015987 -0.33091715
0002c0 b9 91 1e 3d ec 50 3a 3e 48 49 e4 3c fb 98 1d be
       0.03871319 0.18194932 0.027866974 -0.15390389
0002d0 29 f4 8e bd dd 6f 46 bd ea 5d 84 3d a5 84 86 be
       -0.069801636 -0.048446525 0.06463225 -0.26273075
0002e0 58 75 83 3e 1a c3 f5 3d 04 18 f8 be fb 8c 77 3e
       0.25675464 0.12000103 -0.48455822 0.24174874
0002f0 cc 4e de 3d cd 68 70 be 8c 95 85 bd 9e a3 c0 3e
       0.10854873 -0.23477478 -0.065226644 0.3762483
000300 40 92 72 bd 11 34 17 be 9c ca 85 3c 32 dc 94 3c
       -0.059221506 -0.14765956 0.016331963 0.018171404
000310 c8 22 67 bc 83 9d 9e 3e 50 b5 87 3d ac 70 9d bc
       -0.014107414 0.30979547 0.066263795 -0.019218765
000320 70 d7 ce 3d e2 8d 77 be 79 fc 4b 3d 51 05 87 3c
       0.10099685 -0.24175218 0.049801324 0.016482027
000330 c6 ce 1b 3b 94 f1 08 3e e7 c3 b0 3d a7 13 a8 3d
       0.002377437 0.13373405 0.086311154 0.082068734
000340 22 25 ec bd 7e c6 7e 3e c7 62 cf 3d d7 17 6e bb
       -0.1153052 0.24880406 0.10126262 -0.0036330128
000350 e4 cf a6 3d 5c 87 bb 3e be bc 2e bd aa d5 81 3d
       0.08145121 0.36626709 -0.042660467 0.06339581
000360 6d a3 a7 bd cc a1 e5 bb 4a 1d cc bd c5 74 f3 3d
       -0.08185468 -0.007007813 -0.09966524 0.118875064
000370 af 19 8d 3d 06 76 cf 3d d1 07 66 3e 3f f7 dd 3e
       0.068896644 0.10129933 0.22463919 0.43352696
000380 9f 53 b0 3e b2 94 38 3d 0c 11 55 be c6 31 7a 3d
       0.34438798 0.045063682 -0.20807284 0.061082624
000390 49 05 27 3d 68 04 50 bc 2a 8c 5a 3f f9 a5 9c be
       0.040776525 -0.012696363 0.85370123 -0.30595377
0003a0 dc 29 37 bf 57 f8 28 3f 70 67 df 3d 98 c9 ef be
       -0.7154825 0.66003937 0.10908401 -0.4683349
0003b0 0f a4 02 bf 98 10 35 3d d1 69 88 3e 9d d9 36 3f
       -0.51031584 0.04420528 0.26643232 0.714258
0003c0 99 8d ed bd cc 43 b1 3e a2 a6 15 be e6 83 83 3e
       -0.11599273 0.34622037 -0.14614347 0.25686568
0003d0 fc 2e 3f bc 69 53 40 bd d5 c3 6a 3d 73 c9 c7 3e
       -0.011668917 -0.046954546 0.057315666 0.3902088
0003e0 ed 7f 43 3d 87 59 30 be ce 7d 70 3c 45 18 53 bd
       0.04772942 -0.17221652 0.014678432 -0.051536817
0003f0 b9 35 41 be 46 63 06 bf c1 b1 31 be 6b d7 64 3d
       -0.1886815 -0.5249523 -0.17352964 0.0558695

fc1.bias f4 [148]
000000 92 5d ad bd b9 f6 c3 3d b5 98 67 3c 82 b3 1b 3d
       -0.08465113 0.09568543 0.014135529 0.03801299
000010 86 1b 09 3e 25 35 54 be 47 ba 29 3e 1f 32 d4 3d
       0.13389406 -0.20723398 0.16574965 0.10361122
000020 78 b0 70 bd b6 a3 2b be e2 af de bd 83 fa 1e 3e
       -0.058762044 -0.1676167 -0.10873391 0.1552525
000030 0f 72 a8 bd 3d 5f 4d bd bf af 95 bd 01 7b 8b 3d
       -0.0822488 -0.050139654 -0.073089115 0.068105705
000040 25 03 2c 3d 55 9f 8d bd b9 49 36 3e 55 5c f0 3d
       0.041995186 -0.06915156 0.1780156 0.11736361
000050 20 38 bb bd 11 17 25 be 56 b1 4b be 1f 83 3a bb
       -0.09141564 -0.1612208 -0.19891867 -0.0028459502
000060 60 83 1d be 15 9c 18 3e 65 21 61 3d ee 03 d6 3c
       -0.15382147 0.1490329 0.054963488 0.02612492
000070 37 ea a0 3c b0 1a d9 3c 98 a6 e4 bd 1c 9a 32 be
       0.019642932 0.026501983 -0.11164588 -0.174416
000080 6c f3 03 3e c0 57 11 3e c6 f4 b7 3d b0 00 3c 3e
       0.12885827 0.1419363 0.08982234 0.18359637
000090 ae 72 0f be b5 a3 1d be bd d3 e0 3d c1 47 26 3e
       -0.1400859 -0.1539448 0.10977886 0.1623831
0000a0 1e dd 32 3d 23 4c c8 3d 23 68 c7 3d 36 60 9f 3d
       0.043667905 0.09780147 0.097366594 0.07782023
0000b0 86 03 1e bd f0 9a 06 bd 23 af fb bc ff 52 07 3e
       -0.03857758 -0.032862604 -0.03072316 0.13215254
0000c0 90 56 3a bd a3 9e d9 bd 24 85 38 3c ed 59 e2 3d
       -0.04549271 -0.10625961 0.011262212 0.11052308
0000d0 be b0 0c 3d c3 22 23 be 0e 59 8f bd fd e9 ca 3d
       0.034348242 -0.1593123 -0.06999408 0.09907911
0000e0 24 cb a0 3d e5 57 bf bd d0 47 c9 bd a5 8f 4e 3d
       0.07851246 -0.093429364 -0.0982815 0.05042996
0000f0 a6 fe 17 be 7e f5 c5 3d 51 ab ec 3c 93 21 bf 3c
       -0.14843234 0.096659645 0.028890284 0.02333144
000100 e7 7a 30 3b 89 0c 0c 3e 14 43 c3 3c f6 30 b3 bd
       0.0026928724 0.13676657 0.023835696 -0.08749573
000110 1b b0 b9 3d d3 c4 c3 bd 8b 61 50 bd f6 64 00 3e
       0.090667926 -0.095590256 -0.050874274 0.12538514
000120 21 3c 2b 3d a5 0f f7 bd b7 58 35 bc 1a 91 fb 3d
       0.04180539 -0.12063531 -0.011068515 0.12283535
000130 57 e7 e0 3d 73 50 3a 3d 1c e8 2b 3e 62 e0 03 3e
       0.109816246 0.04548688 0.16787761 0.12878564
000140 6b f6 b8 bc 29 56 09 be 64 2a 3b bd 90 38 15 3d
       -0.022578439 -0.13411774 -0.045694724 0.036430895
000150 f4 62 52 be 16 aa 0d 3e 7c 0a 40 be 5c 7e 13 3e
       -0.2054556 0.13834414 -0.18754 0.14403671
000160 01 ad cb bd be d2 90 3d ef a9 34 be 74 9f 95 3d
       -0.09945107 0.07071446 -0.1764295 0.07305804
000170 05 1e a6 3d d8 71 49 3d ca 51 88 3d 0c 7c 93 3d
       0.081111945 0.049180835 0.06656225 0.072013944
000180 05 23 1c 3e e7 67 b8 3c de 96 a1 3d 42 4a c6 bc
       0.15247734 0.022510482 0.07890104 -0.02420533
000190 22 d1 ba bd f3 18 3d be 5c ec 36 3d 6e 1a 0a 3e
       -0.0912192 -0.18466549 0.044659004 0.13486645
0001a0 07 57 0b 3e 4d 0d 20 3e 65 7e e9 3d 7c 0a ff bd
       0.13607417 0.15630074 0.11401061 -0.124531716
0001b0 b8 70 ba bd fc a3 11 3e 4c ea 03 bc b0 56 0a be
       -0.09103531 0.14222711 -0.008051466 -0.13509631
0001c0 35 2a 8c 3c c5 4a 05 be 2c 34 15 3e 91 43 ac 3b
       0.01710997 -0.13016804 0.14570683 0.005257078
0001d0 39 9a 15 be 36 90 90 3d dc f4 62 3d 1c d4 05 3e
       -0.14609613 0.07058756 0.055409297 0.13069195
0001e0 37 00 08 be 6b 3d d2 3d c6 d1 0f be 39 66 33 3e
       -0.13281332 0.10265621 -0.14044866 0.17519464
0001f0 dd 7e f2 3d 29 fc 38 3d 36 e2 ff bd 45 da 22 be
       0.118406035 0.045162354 -0.12494318 -0.15903576
000200 11 65 29 3e c1 ed 28 3e 97 e3 0e bd 77 b2 9a 3d
       0.1654246 0.16496946 -0.034885015 0.07553571
000210 36 4b c1 3d 22 15 cb bd 9f e2 93 3d 7b c6 eb bd
       0.094381735 -0.0991614 0.07220959 -0.115124665
000220 3f 8f a3 bd ab 40 50 3d b0 53 1c 3e dd f7 64 3d
       -0.079863064 0.050842922 0.15266299 0.055900443
000230 df b9 fa bb 92 55 3e 3e 40 2c 8b bd 63 ea 8e 3d
       -0.007651552 0.1858733 -0.067955494 0.069782995
000240 77 78 df bc 54 2e a1 bd 49 73 60 be ba be 2a 3e
       -0.027279122 -0.078701645 -0.21918978 0.16674319

bn1.weight f4 [148]
000000 a8 9b 22 3f 9a 71 00 3f 52 a3 03 3f f8 b0 25 3f
       0.6351876 0.5017334 0.5142108 0.6472316
000010 98 b2 e4 3e bb d2 d7 3e 40 55 2b 3f 57 b2 40 3e
       0.44667506 0.42152962 0.66926956 0.18818031
000020 3c 4e 32 3f da 24 dc 3e c9 ca 0d 3f 39 e0 05 3f
       0.69650626 0.42996866 0.5538755 0.5229526
000030 05 0c c2 3e e7 89 9c 3e b2 ba 1a 3f 52 e9 2f 3f
       0.37899795 0.3057396 0.60441124 0.68715394
000040 6d b6 ed 3e 72 3f 25 3f 3e 56 0e 3f 33 92 9a 3e
       0.46428242 0.64549935 0.55600345 0.30189666
000050 f4 ed 09 3f 6b ee 4e 3f b4 9a 01 3f 4d 2b b7 3e
       0.5387871 0.80832547 0.50626683 0.35775223
000060 b7 7b 22 3f 43 f2 02 3f 63 ef c2 3b 7e 86 d2 3e
       0.63470024 0.5115091 0.0059489473 0.41118234
000070 9c bc a0 3e 55 b4 1f 3f 7f e7 c3 3e ee ed d2 3e
       0.31393898 0.6238454 0.38262555 0.4119715
000080 d4 a5 0a 3f e9 2e b0 3e c7 58 b7 3e bb b4 c6 3e
       0.54159284 0.3441079 0.3580992 0.3880976
000090 d5 d8 1c 3f 20 c4 ab 3e 30 51 e1 3e dd 15 a6 3e
       0.6126836 0.3354807 0.44007254 0.32438555
0000a0 cf 39 ea 3e a3 04 08 3f 17 02 b4 3e 23 8f 0d 3f
       0.4574723 0.53132075 0.35157844 0.55296534
0000b0 0a 87 04 3f d7 cf 0f 3f 87 bb 0f 3f 16 f0 22 3f
       0.51768553 0.56176513 0.5614552 0.6364759
0000c0 54 f3 00 3f ba 0a 69 3f b1 cd de 3e 48 bf 2d 3f
       0.5037129 0.9103199 0.43516305 0.6787
0000d0 4e a9 f9 3e e2 d7 09 3f 2f 81 c4 3e bc 69 f2 3e
       0.48761982 0.53845036 0.3837981 0.47346294
0000e0 d2 c4 9b 3e 3e 23 33 3e 63 9c e2 3e fa b3 84 3e
       0.304236 0.17493913 0.4425994 0.2591856
0000f0 e3 61 77 3e de 5b d0 3e 92 14 a9 3e c3 d4 2e 3f
       0.24158435 0.4069509 0.33023506 0.682934
000100 30 d3 c5 3e dc 9b 29 3f f4 fa ab 3e 11 47 21 3f
       0.38637686 0.6625345 0.335899 0.62999064
000110 d9 5c c9 3e 0d f7 6c 3f 3c 75 e1 3e 01 a8 1e 3f
       0.3932865 0.9256447 0.44034755 0.61975104
000120 0d 8a da 3e 86 b5 bf 3e ee 2e 7b 3e 6a 61 06 3f
       0.4268345 0.3744318 0.24529621 0.5249239
000130 b3 fe 96 3e f8 bc 17 3f 1b 74 bc 3e 12 5f 88 3e
       0.29491195 0.5927272 0.3680733 0.26635033
000140 7d fb d7 3e 8b af 30 3f 1f d2 01 3f f0 30 a5 3e
       0.42184058 0.6901786 0.50711244 0.322639
000150 52 3e bf 3e bd 91 1c 3f e5 ec 09 3f 50 9b 2d 3f
       0.37352234 0.6115988 0.538771 0.67815113
000160 44 db 1b 3f c4 c2 1c 3f c8 3b 8c 3e a3 9d d2 3e
       0.6088145 0.6123469 0.2738936 0.41135892
000170 e4 81 a0 3e a1 e3 e5 3e a0 15 16 3f d4 5d 0c 3f
       0.313491 0.4490023 0.5862675 0.5483067
000180 38 eb f5 3e 6d f1 12 3f d1 46 58 3e 0a 43 64 3f
       0.4803102 0.57399637 0.21120764 0.89164793
000190 11 06 9a 3e c2 f9 dd 3e 15 67 f3 3e c8 6f 2d 3f
       0.30082753 0.43354613 0.47539583 0.6774869
0001a0 bf 63 02 3f bc 0b 0e 3f dc 09 da 3e b6 37 e8 3e
       0.5093345 0.55486655 0.42585647 0.45355004
0001b0 97 ad 17 3f b5 52 9d 3e ba 6e e3 3e fd 2f 92 3e
       0.5924925 0.30727163 0.44420415 0.28552237
0001c0 c7 54 68 3f e6 e6 cb 3e 45 ad aa 3e 1d a3 23 3f
       0.9075436 0.398246 0.3333532 0.63920766
0001d0 ae c5 b3 3e fd 1f 0d 3f 2f 10 e3 3e 4a ed 1f 3f
       0.35111755 0.55126935 0.44348285 0.6247145
0001e0 5c b2 e2 3e f9 26 f1 3e 55 64 0f 3f 26 87 5a 3f
       0.44276702 0.47100046 0.5601247 0.8536247
0001f0 19 88 90 3e e4 fb 52 3f 73 4c 08 3f 96 23 16 3f
       0.28228834 0.82415605 0.5324165 0.5864805
000200 00 4b fa 3e 16 4e 02 3f 3c 4f ae 3e 19 69 ab 3e
       0.48885345 0.509004 0.34044826 0.3347862
000210 58 9f c5 3e 52 40 11 3f b2 ee b3 3e 51 5e f5 3e
       0.38598132 0.5673877 0.35143048 0.4792352
000220 d9 70 2c 3f ea d2 c5 3e c2 ce 2f 3f 69 38 ae 3e
       0.6735969 0.38637477 0.6867486 0.34027413
000230 e0 78 4f 3f 6a 8d fc 3e 24 6e f4 3e f2 da 1a 3f
       0.81043816 0.4932664 0.4774028 0.60490334
000240 ae 50 f7 3e 5d db ef 3e 16 0b c9 3e db 1a 15 3e
       0.4830374 0.46847048 0.3926627 0.14561026

bn1.bias f4 [148]
000000 58 b6 9e be 9e 39 8a be a8 1e 22 bf 95 32 d0 be
       -0.30998492 -0.26997083 -0.6332803 -0.4066359
000010 48 69 99 bc 81 b2 8f be 95 a3 c0 be 95 64 fa 3c
       -0.01872696 -0.28065875 -0.37624803 0.03056554
000020 99 a6 48 be 33 60 d6 3e 41 b5 fb be 20 d3 a0 be
       -0.19594802 0.4187027 -0.49161723 -0.31411076
000030 ac 11 44 bd 0e 5f 64 be 09 b0 36 bf 5d ef 09 3a
       -0.047868416 -0.22301885 -0.7136236 0.0005261803
000040 d9 60 6c be 03 1a f1 be 0a 9d 61 bd 43 f4 4f be
       -0.2308382 -0.47090158 -0.055081405 -0.20308022
000050 cd 1f 16 bf c5 10 a9 bf a4 5c 78 be 68 84 ad 3c
       -0.58642274 -1.3208243 -0.2425409 0.0211813
000060 18 e0 e5 be ff 67 5d be 2a 96 bb bd 7d c2 28 bf
       -0.44897532 -0.21621703 -0.09159501 -0.65921766
000070 83 62 80 be 2f 38 17 bf f6 68 9b be c7 d5 1c bf
       -0.25075158 -0.59070104 -0.30353516 -0.612637
000080 ff 79 2b bf fe 96 82 bd 5e d5 84 be b4 a2 f1 be
       -0.66983026 -0.06376456 -0.25944036 -0.47194445
000090 b0 8a 29 bf c1 26 b4 be 88 1c a2 be d9 fb 2e be
       -0.66227245 -0.35185817 -0.31662393 -0.1708826
0000a0 cd 1f 27 bf 27 ff d4 be 6e 66 4a be ab 46 56 bb
       -0.652829 -0.41600916 -0.19765636 -0.003269593
0000b0 fc 96 c4 be 11 3e b7 bd 70 f7 f9 3c 14 e2 c3 be
       -0.38396442 -0.08947385 0.030513495 -0.3825842
0000c0 7a f7 a0 be 87 f5 db be f3 15 37 bf 1d 65 6e be
       -0.3143881 -0.4296076 -0.71517867 -0.23280759
0000d0 87 bb 84 be 23 ef 0f bf 06 f7 f5 bd 80 85 e6 be
       -0.25924322 -0.5622427 -0.120100066 -0.45023727
0000e0 de 27 e5 be 46 6d db bd 9f 7d c6 be 36 38 ee be
       -0.4475698 -0.10714202 -0.38767716 -0.4652726
0000f0 9d 20 0c be 22 73 28 3d 9f a2 4b be b2 b9 8b 3d
       -0.13684316 0.041125424 -0.19886254 0.06822528
000100 ae c6 b3 be 80 95 a2 be 1a e7 29 be 30 73 e6 be
       -0.35112518 -0.31754684 -0.16592064 -0.45009756
000110 5a d3 e6 3e 89 c9 0a bf 66 70 ff be 95 0f 23 3d
       0.45083123 -0.5421377 -0.4989044 0.039809782
000120 39 29 23 bf 64 88 16 be 41 1b 3a 3d 74 a0 1e bf
       -0.63734776 -0.14700466 0.045436148 -0.6196358
000130 1e 25 35 be 08 6e f3 be 67 cb 9f be 63 7e 09 bd
       -0.1768994 -0.47544885 -0.3120987 -0.033567797
000140 b4 c8 04 bf cc 01 e7 be b5 c3 7e bd 3c 82 b2 be
       -0.5186875 -0.45118558 -0.06219836 -0.34864986
000150 12 18 f1 be a2 3c 24 bf d7 38 15 be f7 bf 48 be
       -0.47088677 -0.6415502 -0.14572464 -0.19604479
000160 25 35 1d be a1 dc 99 be b8 ba 04 bd 24 16 81 be
       -0.15352304 -0.3005114 -0.03240463 -0.25212204
000170 ef e2 7e be 37 a5 0a be 9b e8 06 bf 24 6f 7e be
       -0.24891256 -0.13539587 -0.5269868 -0.24847084
000180 23 fd 23 bf 0c 7b ca 3c 4d fc e2 3e 51 b4 16 bf
       -0.6405813 0.024716876 0.44333115 -0.5886889
000190 6a 1c 9a be d9 8a cd be 6d 9f 68 be 42 10 21 bf
       -0.30099803 -0.40144995 -0.22717066 -0.6291543
0001a0 88 7f 65 be 4c 0a 06 bf 41 8e db 3d 20 28 ce be
       -0.2241193 -0.5235946 0.10720492 -0.40264988
0001b0 9d 5f 67 bd 07 69 86 bd 82 d4 73 be 8c a0 4d be
       -0.05648767 -0.06563001 -0.23811534 -0.20080775
0001c0 7a 8c 31 bf 69 e6 bd be 78 8c 2b bf 7c 52 11 be
       -0.69354975 -0.37089851 -0.67011213 -0.14191622
0001d0 47 67 7f 3d 68 51 c3 be 52 06 c0 be b0 bd 5c bf
       0.062354352 -0.38148046 -0.37504822 -0.8622694
0001e0 a6 0e 47 bf 37 f8 9c be 29 5f 3b bf 8f 99 bd be
       -0.77756727 -0.30658123 -0.7319208 -0.37031218
0001f0 90 ac b3 be cd 21 cd be 44 13 f2 be b3 c6 12 3c
       -0.35092592 -0.4006485 -0.47280324 0.008958506
000200 38 16 03 be f9 c6 e8 be ab df 39 be 9c 59 fc bd
       -0.12801445 -0.45464304 -0.18151729 -0.12321779
000210 3d 27 e0 be e5 ba 63 bf 4d 68 c2 bd 79 a0 9b be
       -0.43779936 -0.88957053 -0.0949255 -0.30395868
000220 1f 31 bf be c3 d6 bd be 9c f1 fb be a4 ac d3 be
       -0.37342164 -0.37077913 -0.4920777 -0.41342652
000230 49 2e 93 be 01 5b 83 be d2 11 af bd b3 2f 38 bf
       -0.2874625 -0.25655368 -0.08548321 -0.71947783
000240 ba d4 86 be 59 c6 98 3c 64 4f 27 bf e6 cb 92 3e
       -0.26334172 0.018649267 -0.65355515 0.28671187

bn1.running_mean f4 [148]
000000 4a 48 e9 bd 13 72 89 bf 3b 46 00 40 e9 8f f5 bb
       -0.11390741 -1.0737938 2.0042865 -0.007493962
000010 e4 15 47 3f 1c 0f 3b bf 5b 10 c3 be 6e 4b 14 40
       0.7776778 -0.7306993 -0.38098416 2.3171039
000020 e7 b2 16 3f 31 63 a5 3e 21 b8 56 be eb 23 37 bf
       0.58866733 0.3230224 -0.20968677 -0.7153918
000030 78 11 2a 3f d5 8a 58 be 24 4e 80 bf 29 0d 5c be
       0.66432905 -0.2114671 -1.0023847 -0.21489395
000040 4a 7e 58 3f de 0a 1e be 65 90 22 3f 87 c2 8f 3e
       0.845677 -0.15433833 0.6350158 0.280781
000050 04 20 c5 bf 69 ed 9e bf 99 b4 86 bf a1 5e cf 3d
       -1.5400395 -1.2416202 -1.0523864 0.10125471
000060 aa b5 58 3f a4 6c 80 bf 36 5c 29 3e 0a a2 c3 3f
       0.846522 -1.0033154 0.16539082 1.5283825
000070 fb 08 45 c0 e1 d9 9b 3f 0a 44 14 c0 f0 42 7c c0
       -3.0786731 1.2175866 -2.3166528 -3.9415855
000080 69 aa a5 bd f7 68 64 3f 54 d0 d0 be 4e cc 3e bf
       -0.08089144 0.89222664 -0.40783942 -0.74530494
000090 4e dd e7 bf 5c 48 8e bf fa 7e b5 bf 7e 77 eb bc
       -1.8114412 -1.1115832 -1.4179375 -0.028743502
0000a0 dc 80 13 c0 b5 34 a9 bf 7b 48 cf bf 66 49 dd bf
       -2.30474 -1.321921 -1.6193994 -1.7288024
0000b0 24 a4 76 bf 7e 96 6a 3f 7d fa 87 3f aa b4 83 bf
       -0.9634421 0.9163588 1.0623318 -1.0289509
0000c0 13 27 90 3f 4c a3 cd be e9 03 7d bf 58 6d bf 3f
       1.1261925 -0.40163648 -0.9883409 1.4955244
0000d0 f2 63 45 40 61 5c a7 bf 97 ed f0 3d 03 26 83 bf
       3.0842252 -1.3075067 0.11764067 -1.0245975
0000e0 5b 37 23 c0 15 0b e3 3f d2 0c 06 c0 0a e4 89 bf
       -2.5502536 1.7737757 -2.0945325 -1.0772717
0000f0 07 e0 4b c0 49 ca 14 be 22 39 d2 be 0f d7 07 be
       -3.1855485 -0.1453029 -0.41059214 -0.13265632
000100 5a 89 2c 3f 27 b5 b1 bf b8 f0 db 3f e4 a9 d3 3e
       0.6739708 -1.3883408 1.7182837 0.41340554
000110 f1 c1 c5 3f 26 d5 01 bf c6 be f1 bf 09 6d 57 3f
       1.5449811 -0.50715864 -1.8886344 0.8415075
000120 c5 d7 ba bf ac 76 47 40 b6 f6 a7 3f 16 ce a9 3f
       -1.4597098 3.1166182 1.3122165 1.3266017
000130 db 72 73 bf d9 4d 21 3f 36 69 d3 3d b1 f1 99 3f
       -0.9509713 0.6300941 0.10322802 1.2026883
000140 99 5b 87 3f 9d 8e 40 bf 52 e7 85 be 66 2f 14 c0
       1.0574828 -0.7521761 -0.26153046 -2.315393
000150 b7 70 48 c0 e5 2b e6 bf d0 6d 2f 40 d7 2c b3 3f
       -3.1318796 -1.7982146 2.7410774 1.3998059
000160 3c a1 47 be 0d 97 55 40 24 72 3e be 4a 62 18 3f
       -0.194951 3.3373444 -0.18598229 0.5952498
000170 08 a4 3b be 44 89 94 bf b2 6e f4 be 76 15 e7 3d
       -0.18324292 -1.160439 -0.47740704 0.1128339
000180 ca ae 31 bf 17 0a ed bd 9c e7 ec 3f d4 53 2a be
       -0.6940733 -0.1157419 1.8508182 -0.1663354
000190 4f 6b 87 be 31 a5 64 bf cc 0b e6 be a8 3b 22 3f
       -0.26449057 -0.8931456 -0.44930875 0.6337228
0001a0 37 f1 42 3f ec 7d db 3e 9b 99 76 3f a6 a5 97 bf
       0.76149315 0.42869508 0.96328133 -1.1847427
0001b0 e9 13 28 3f 7d a2 c9 3e ee 65 09 40 bb b2 32 3f
       0.6565538 0.3938178 2.1468463 0.6980397
0001c0 3c 32 34 bf 33 ba fb bc 4a a0 7e bd 5c f7 99 3f
       -0.7038915 -0.030728435 -0.062164582 1.2028613
0001d0 f6 58 6c 40 6f ca 11 3e 94 1e e8 3e 3b 74 d9 bf
       3.6929297 0.14237379 0.4533583 -1.6988596
0001e0 0e a8 47 bf 30 f6 2f bf fa 68 2d bf 0e 64 9f 3f
       -0.77990806 -0.6873503 -0.67738307 1.2452409
0001f0 4d 22 5a bd 72 0a 44 3f 20 72 08 bf dc 7b 5d 3e
       -0.053255368 0.7657844 -0.5329914 0.2162928
000200 16 dc 26 bf 8f c9 0b 3f 69 fd 5e bf 18 65 0c 3f
       -0.65179574 0.5460443 -0.87105423 0.54841757
000210 92 3f d1 be ef 72 ff bf 5e 96 c5 3f 0d 3e 1f 3f
       -0.40868813 -1.995695 1.5436513 0.62204057
000220 a1 be 96 bf 93 e4 e2 3f b5 a5 77 3e 48 fe 0b c0
       -1.1776925 1.7726005 0.24184306 -2.187395
000230 94 57 28 3f 33 98 8d 3f d2 d7 8e 3f a8 16 dd be
       0.65758634 1.1062073 1.1159613 -0.43181348
000240 d4 c5 a3 3f 25 60 5a 3f 0d dd eb bf c6 32 a3 3f
       1.2794747 0.85302955 -1.8426834 1.274987

bn1.running_var f4 [148]
000000 db f4 18 40 9e 6d 14 41 dd 3b 43 41 e1 46 53 40
       2.3899448 9.276762 12.202115 3.301201
000010 97 ef a0 40 03 fd 8a 40 67 cf f4 40 8e 05 1a 40
       5.029247 4.343385 7.6503177 2.406589
000020 80 cb 94 3f 24 22 b4 3f 11 3f 9b 40 10 0e 01 40
       1.1624603 1.4072919 4.8514485 2.0164833
000030 32 bb eb 40 b8 64 fa 40 8d d8 b3 3f ec c7 57 3f
       7.366601 7.824795 1.4050461 0.8428943
000040 48 4a c5 40 18 f9 8e 40 c1 53 57 40 53 94 28 40
       6.1653175 4.467907 3.364487 2.634053
000050 70 6b 08 41 33 0d e8 3f d3 d7 98 3f 86 3c 97 40
       8.52623 1.8129028 1.1940864 4.726138
000060 b2 18 96 41 a3 57 cd 40 28 25 07 40 78 8a f5 40
       18.762058 6.416948 2.1116428 7.673153
000070 94 c0 23 41 26 f6 44 41 67 7c 0d 41 a2 07 cf 40
       10.234516 12.310095 8.842872 6.4696817
000080 bc 6c c2 40 f6 6c 2f 40 41 83 35 41 44 6d 67 40
       6.0757732 2.7410254 11.344544 3.616044
000090 ec f2 0d 41 d8 dc b9 40 e2 7e b0 40 75 0f fb 40
       8.871807 5.8082085 5.5154886 7.845637
0000a0 e1 5d d4 40 2f 9b 68 40 e8 ad 80 40 62 eb 5f 40
       6.63646 3.6344717 4.021229 3.4987416
0000b0 b6 2c d1 40 6f 77 32 40 c9 37 f7 3f 39 9e b8 40
       6.536708 2.7885396 1.9313899 5.7693143
0000c0 0c 3e 93 40 96 11 ac 40 1e e2 ee 40 71 d7 f4 40
       4.601324 5.3771467 7.465102 7.651299
0000d0 37 11 4a 40 93 81 a4 40 19 b7 57 41 20 72 2c 40
       3.1573007 5.140817 13.482202 2.6944656
0000e0 b3 0c 9c 40 c9 b9 cc 40 da f2 a9 40 53 86 28 40
       4.87655 6.397679 5.310895 2.6331985
0000f0 22 71 10 41 83 f0 e2 40 02 bd f8 40 45 11 b9 3f
       9.02762 7.0918593 7.7730722 1.4458395
000100 7a 66 77 41 69 8d 13 41 c2 3a 04 41 1e 82 c8 40
       15.462519 9.222024 8.264345 6.2658834
000110 3a 96 04 40 04 1d 40 3f 9b eb 15 41 d9 22 8f 40
       2.071669 0.75044274 9.370021 4.473004
000120 ad 89 15 40 3a c1 cd 40 12 ec 6c 40 41 af 39 41
       2.336528 6.429837 3.7019086 11.605287
000130 e9 87 24 41 8f 29 ea 40 07 7b 05 41 e6 1c b1 40
       10.283181 7.317573 8.342536 5.5347776
000140 d7 b2 59 40 b4 1b f3 40 7e 41 1c 3f 59 f6 db 40
       3.4015405 7.5971317 0.61037433 6.8738217
000150 ee e0 ea 40 78 52 9c 40 41 43 a0 40 bb 46 f1 40
       7.339957 4.885067 5.0082097 7.539884
000160 68 e5 99 40 52 84 5b 41 2a 4f 54 40 b1 54 0c 41
       4.8092537 13.719805 3.3173318 8.770677
000170 11 bd bf 40 b6 87 09 41 8e a3 47 41 a3 3b af 3f
       5.9918294 8.595633 12.47743 1.3690075
000180 fb 1b d5 40 4b b6 84 3f 69 4b bb 3f 07 e2 d8 40
       6.6596656 1.0368131 1.4632388 6.777591
000190 25 a6 ff 40 ab 74 75 40 36 84 89 40 a6 46 ac 40
       7.9890313 3.8352458 4.297389 5.383624
0001a0 c5 c9 d4 40 ec cc db 40 de 21 bb 40 ca 20 2c 40
       6.64963 6.868765 5.847884 2.6895013
0001b0 7e 78 e4 40 3e 2d 59 40 88 7c 70 41 9f ac 16 40
       7.1397085 3.3933864 15.030403 2.354286
0001c0 e3 33 24 40 e5 52 d9 41 1f 67 f9 40 20 ce 30 40
       2.565667 27.165476 7.793838 2.7625809
0001d0 af fe a9 40 3e 72 e6 40 15 60 3d 40 5f 7c e9 40
       5.3123393 7.2014456 2.9589894 7.296432
0001e0 9d f6 8d 40 d5 c0 a5 40 4b ae 81 40 be bc e2 3f
       4.436354 5.179789 4.052526 1.771385
0001f0 3b ad 55 40 b0 ab 91 40 38 01 85 40 13 b2 85 41
       3.3386981 4.552208 4.156399 16.71195
000200 ac 99 61 3f ab b2 d8 40 05 45 c1 40 e0 36 e9 40
       0.8812511 6.77181 6.039675 7.2879486
000210 4a 4c 13 41 57 d9 0b 40 07 cb 82 40 13 2d 11 41
       9.206125 2.1851404 4.0872836 9.073504
000220 0d f9 e6 3f ef a9 5d 41 4b fc 75 40 15 1f c1 40
       1.8044754 13.853988 3.8435237 6.035044
000230 d5 0c 9f 40 5d 79 86 40 fd e7 c9 40 fc 29 21 41
       4.9703164 4.202315 6.309569 10.07275
000240 18 67 26 41 2a 3b 08 41 3e f0 c3 40 f3 b6 98 40
       10.400169 8.514444 6.1230764 4.7723327

fc2.weight f4 [148, 152]
000000 c9 3d 42 3d 95 1d f5 3d 0a 16 01 bf d3 76 90 3e
       0.047422204 0.11968533 -0.50424254 0.28215656
000010 95 0f 31 bf 6b 90 e5 3d 29 68 18 be e3 e6 f2 bd
       -0.691644 0.11209186 -0.14883484 -0.118604444
000020 be 75 49 3e ef 93 aa be 89 16 02 3d 0c 3c c9 bd
       0.19673821 -0.3331599 0.031759772 -0.09825906
000030 b9 ba 57 3e a1 73 9d 3e d2 85 c9 bd cc 1b 94 3d
       0.21067323 0.3075228 -0.09839977 0.07231864
000040 24 37 07 3f f0 5e 07 bf 31 ce 14 bd e6 20 39 be
       0.5281851 -0.5287924 -0.036329452 -0.18078956
000050 5b fa 66 3e 7e 50 09 be f6 45 1d bd 1d 5c b4 be
       0.2255644 -0.13409612 -0.038396798 -0.35226527
000060 aa ab 07 bc ae 3f b6 3e 41 35 09 bd 38 4d a0 be
       -0.008280674 0.3559546 -0.033498053 -0.31308913
000070 7f ba ed be d5 72 10 bf e5 26 88 be e9 59 db be
       -0.46431348 -0.5642522 -0.26592174 -0.42842034
000080 df 53 77 bf 29 c0 7a 3e fc c5 d9 be 57 3d c7 3e
       -0.9661235 0.24487366 -0.42533863 0.38913986
000090 c0 6c d6 be d4 fa 24 3e 16 cb c0 3e 26 96 33 be
       -0.41879845 0.16111308 0.37654942 -0.17537746
0000a0 3b f5 28 bf eb 32 83 be 96 f9 8b 3e e4 69 90 3e
       -0.6599919 -0.25624785 0.27338856 0.28205788
0000b0 5b 4d 22 bf 16 59 29 bf a3 7b a6 3e 40 1c 14 3e
       -0.63399285 -0.6615156 0.32516202 0.14463902
0000c0 08 63 4e 3e 4f 79 ad 3e 6a 70 b6 be 39 7c 7b bd
       0.20154965 0.33881614 -0.3563264 -0.061397765
0000d0 8f fb 9c be 7b bf f9 3b 29 c3 63 3e d5 f9 da 3d
       -0.30660674 0.007621703 0.22242416 0.10692183
0000e0 9e 29 ac 3d c8 38 be 3d 1b a0 71 3c b4 9b 4f 3d
       0.08406375 0.09288174 0.014747645 0.0506856
0000f0 ef 06 af bd 88 d6 83 3e a4 10 e9 bc 37 70 a9 be
       -0.08546244 0.25749612 -0.028450318 -0.33093426
000100 41 f5 89 be 40 f9 47 3e f1 0f 83 3d 81 61 a0 3d
       -0.26944926 0.19528675 0.06399525 0.078310974
000110 e6 8a 61 be 0e 9f 31 3d 4f ae 21 bc ba e7 7a bd
       -0.22025642 0.043364577 -0.009868219 -0.061256148
000120 a1 6f 9c bb 0b da 5b be ba 6b f3 be 24 25 d8 bd
       -0.0047740494 -0.21469896 -0.47543126 -0.10553959
000130 5a 3f c7 be 54 a2 15 3e c3 d6 ad 3b 21 e6 7d 3e
       -0.3891552 0.14612705 0.0053051426 0.24794818
000140 60 68 0d 3e b7 27 f0 3b 23 64 ab bd af d6 8d 3e
       0.13809347 0.007328953 -0.08368709 0.27702853
000150 3d 1b 50 be 79 f1 a3 bc 69 03 80 3e 10 c1 6a be
       -0.2032289 -0.020012604 0.25002602 -0.2292521
000160 dc 7f 14 bf e5 50 c4 be ab 82 10 bd d7 c6 01 bc
       -0.580076 -0.38342968 -0.035280865 -0.007920942
000170 59 87 21 3e 78 89 e1 be 17 e1 d2 3d 2f 6d fb 3d
       0.15774287 -0.44050193 0.10296839 0.122766845
000180 88 1a 53 3c b3 30 65 bb f2 48 99 be bd 80 aa 3e
       0.0128847435 -0.0034971654 -0.29938465 0.33301345
000190 43 c2 56 3b 55 31 87 be da e4 1f be a2 8a 44 3e
       0.0032769598 -0.26404825 -0.15614644 0.19193509
0001a0 8c 9b ad be 20 c2 2f bd d7 4e e1 bc c0 c2 aa be
       -0.33907735 -0.04290974 -0.027503414 -0.33351707
0001b0 75 2e 9b 3d 88 cc 94 bd f1 c8 eb bd 2e 7a a6 3c
       0.0757722 -0.07265574 -0.11512936 0.020321932
0001c0 52 bf af be 4c 13 cd be 54 6c ee be 43 1e 8b bd
       -0.34325653 -0.40053785 -0.46567023 -0.06792881
0001d0 04 d3 11 3e 45 2c 85 be 9d 45 fc 3b 06 0a 8e 3d
       0.14240652 -0.26010337 0.0076987282 0.069355056
0001e0 b9 95 58 be a9 21 b1 3e 2c 4e cc be f0 26 55 be
       -0.21150865 0.34595993 -0.3990339 -0.20815635
0001f0 fd e7 b5 bc c7 37 8a be d5 85 a4 3c f4 ec ff 3c
       -0.022205347 -0.2699568 0.020083347 0.031240918
000200 76 bf d6 bd 2e a4 ab bd d4 c5 11 be 12 55 87 3e
       -0.10485737 -0.08380924 -0.14235622 0.2643209
000210 66 9a 71 be c6 62 85 be 72 56 a9 bb 4a 8a 0d bf
       -0.23594055 -0.2605192 -0.005167776 -0.5528914
000220 08 97 2e bf 91 30 a7 bd 5d 49 1c be e1 27 a9 3d
       -0.68199205 -0.0816356 -0.15262361 0.082595594
000230 65 c1 d4 bd 3f fc 60 be 1d 6c f8 3e d3 08 c8 3d
       -0.103884496 -0.21971224 0.48519984 0.09767308
000240 88 10 e6 bd 73 8a 48 3e 73 b7 5d be 29 8d a1 be
       -0.11233622 0.19584064 -0.21652012 -0.3155301
000250 f2 62 64 be 70 78 6a bd f6 6a 3b bd 3a 50 f9 3d
       -0.2230337 -0.057243764 -0.045756303 0.12173505
000260 31 7d ad be d3 61 58 3d c6 7d 24 3e 3e f0 eb be
       -0.33884576 0.052827667 0.16063604 -0.46081728
000270 76 44 97 bd 5e 20 46 be 58 5f ec be 6b d1 19 be
       -0.07386105 -0.19348285 -0.46166492 -0.15021293
000280 9a c5 bc 3d 8b 98 f0 be ae 8c 44 bf 4d 84 26 be
       0.09217377 -0.4699138 -0.7677716 -0.16261406
000290 7d bf f1 be 4b 96 b8 3e 2f fb 6e be d3 d8 89 be
       -0.47216406 0.36052164 -0.23338006 -0.26923236
0002a0 f6 4f 36 bf a0 b9 bf 3d ea 41 6f bd 19 a4 0f bd
       -0.7121576 0.09361577 -0.05841247 -0.035068605
0002b0 ef a6 72 3e 18 b7 cc be d8 84 57 3e 3c 93 76 3e
       0.23696493 -0.3998344 0.2104677 0.24079603
0002c0 9c 8a 3a 3e 56 5d 30 be 75 d9 fd bb 03 ed c7 3e
       0.18216938 -0.17223105 -0.00774687 0.39048013
0002d0 a6 10 85 be 7e 4f 80 3e 5c 62 4e 3d 54 e7 84 bd
       -0.25989264 0.25060648 0.05038677 -0.06489435
0002e0 21 41 93 be 01 5a 4a bd 74 0e 67 be 75 cf 38 bd
       -0.28760627 -0.04940224 -0.22564107 -0.04511972
0002f0 ed 41 c8 be b8 71 47 3e aa 4c ef be bf fc 96 3d
       -0.39112797 0.19476974 -0.46738178 0.07372426
000300 27 72 4f be f9 c2 df be 63 be 5d bd e7 f0 cc bb
       -0.2025839 -0.4370344 -0.054136645 -0.0062543037
000310 ed 7c e2 bd be 58 64 3e f1 2d fe bd 5d 37 cc 3e
       -0.11058984 0.22299477 -0.124111064 0.3988599
000320 74 9f ef be b4 4a b8 3c 68 9a 17 bf d3 df 65 3e
       -0.4680134 0.022496559 -0.5921998 0.22448663
000330 b5 a9 01 3e 2b 82 ba 3e 1c 70 ca 39 0c f7 bb be
       0.12662394 0.36427435 0.0003861197 -0.3671192
000340 83 42 24 3e 22 26 e1 3d 33 8d 7d 3e a2 3c 6f 3e
       0.16040997 0.109936014 0.24760894 0.23362973
000350 14 92 65 3e 38 c1 1f bd a1 7b 7c 3e a8 31 e9 bd
       0.22419006 -0.039002627 0.24656536 -0.11386424
000360 80 53 08 3c a9 bc e8 3d 6b 57 8b bd 0f 46 b1 be
       0.008320689 0.11364109 -0.06803783 -0.34623763
000370 d0 de 36 3e 43 fd 58 bd 15 0f ac 3e 63 c7 41 bd
       0.17858434 -0.052975904 0.33605257 -0.04730929
000380 2a c5 ce 3d e4 fe e8 3d f8 49 08 3e 07 f8 22 be
       0.100962 0.113767415 0.13309467 -0.15914927
000390 a8 e4 ac bf e6 e0 bb 3e b3 0c a5 3c ce 15 97 be
       -1.350728 0.3669502 0.020147657 -0.29508823
0003a0 95 9d 5e 3e dc 3d 06 be f4 18 57 3e cd 79 2b bf
       0.217398 -0.13109535 0.21005613 -0.6698273
0003b0 db 89 a1 be bd 8e b2 3e 10 62 3e be a2 b7 a7 3e
       -0.31550488 0.34874526 -0.18592095 0.32757288
0003c0 a7 11 de bd a1 c7 f2 3d e5 a4 ff 3d 1b ea 7a be
       -0.10843211 0.118544824 0.12482623 -0.24503367
0003d0 ce 0d c6 bb 97 85 87 be 4b ed b4 3d 5e 0e 03 be
       -0.006044126 -0.26469108 0.088343225 -0.1279845
0003e0 20 ce 4a 3e 3d 78 86 be 85 67 2d be f9 ae f9 bd
       0.19805193 -0.2626361 -0.16934021 -0.121915765
0003f0 bd 0b 19 3e b8 ab f6 3d b9 7c 97 be 7f 27 6a 3e
       0.14945884 0.120444715 -0.29587343 0.22866629

fc2.bias f4 [148]
000000 c6 27 75 3d 92 0a 03 bc 39 86 eb bd bf 49 2c 3d
       0.059852384 -0.007998126 -0.1150021 0.042062517
000010 f8 19 b9 3b 72 53 81 3d 7a a6 18 3d 0b 23 99 bc
       0.0056488477 0.06314744 0.03726814 -0.018693468
000020 23 a1 c1 bd 6b 71 05 be b3 ba 12 3d 12 3c fb ba
       -0.094545625 -0.13031547 0.03582258 -0.0019167683
000030 31 fa b0 bd c1 99 85 bd d7 4f fd 3c bb ee 50 3d
       -0.0864147 -0.06523467 0.03092186 0.05100892
000040 da ca 88 bc a5 eb 30 3e 46 a4 65 3d 96 98 81 be
       -0.01669829 0.17277391 0.056064866 -0.25311726
000050 17 45 44 3c af 1c a1 bd 53 8c b0 3c b3 b7 f2 bd
       0.011979363 -0.07866799 0.021551287 -0.11851444
000060 eb 9a de bc 0c 08 d6 bd f9 48 aa 3d 16 d6 b4 bd
       -0.02717348 -0.104507536 0.083147 -0.08829896
000070 c7 6c 78 bd aa 8a a4 bd 12 27 96 3d 40 74 1a bd
       -0.060650613 -0.080342606 0.07331671 -0.03770852
000080 8b 82 b4 bd 96 36 4a bd 2c 11 1f 3c bc f1 b2 bd
       -0.088139616 -0.049368463 0.009708684 -0.087375134
000090 ec 3d 07 3b c0 42 8f 3c 7a ae dd bd c7 25 56 bd
       0.0020636274 0.017487884 -0.108242944 -0.05228212
0000a0 df f6 e5 bd 3c a4 a5 3c d8 ca 09 bc 4d 23 73 3e
       -0.112287275 0.020219915 -0.008410178 0.23743935
0000b0 12 02 01 3e e9 59 27 3d 59 1e df 3d 1f ba ba 3c
       0.12598446 0.04085723 0.1089446 0.022793828
0000c0 0f 8e 81 bd 16 e8 ea 3a 0e 39 77 3d b4 77 02 bd
       -0.06325924 0.001792195 0.060357146 -0.03185244
0000d0 a1 b4 1a bc 19 20 03 3d d3 d9 42 be f5 6d 08 3e
       -0.009442479 0.032013033 -0.19028406 0.13323195
0000e0 42 e1 ef 3d 5d d5 bd bd 22 1b 0a bd d1 ec 37 bd
       0.117128864 -0.092692114 -0.033717282 -0.04490358
0000f0 6b f8 da bc 11 53 0f 3e 31 38 a3 3c c5 69 0f bd
       -0.026729783 0.13996531 0.019924255 -0.03501298
000100 03 8b f3 3c 3b 3e 06 bd 9e d0 68 3d fb be bd bd
       0.029729372 -0.03277419 0.056839578 -0.09264942
000110 21 2e b4 3b 07 6e 61 bc 77 b5 fd bc 65 e6 48 3d
       0.005498663 -0.013759143 -0.030970318 0.049047846
000120 43 85 b8 bc d3 dd 4f bd 3e f9 27 3d 40 1c 84 3d
       -0.022524482 -0.050748657 0.04100918 0.06450701
000130 09 b4 35 3c 85 f7 68 bc c4 0b cd bd 3a 5f c7 3d
       0.011090287 -0.0142191695 -0.1001201 0.0973496
000140 d2 47 16 bc 87 0c 2c 3d a4 52 21 3c be a6 9e 3d
       -0.009172397 0.042004135 0.009846363 0.07746647
000150 82 5b 16 3d 58 f0 1c 3e d6 86 ce bd 15 16 1b 3d
       0.036708362 0.15326059 -0.10084312 0.037862856
000160 7a 69 35 3e db 27 3f bd 3b 9d 58 bd ce 7a 8a bb
       0.17716017 -0.04666887 -0.05288432 -0.0042260652
000170 b1 41 26 3e 4d ef 90 bd ba 86 46 3e 3c 28 3b 3d
       0.16235997 -0.07076893 0.19387332 0.045692667
000180 67 de 87 3c 2b af 07 3e 12 18 ac bd 84 28 80 bd
       0.016585542 0.13250415 -0.084030285 -0.06257728
000190 10 fa 04 bd f0 96 87 bd b6 ee 89 3d ad 69 f1 3c
       -0.03246504 -0.06620586 0.067349836 0.029469335
0001a0 42 16 9c 3d cc 47 68 bd f4 1d 4d 3c da 29 9c 3c
       0.07621433 -0.056709096 0.012519348 0.019062925
0001b0 f2 6b bb bd 90 d5 fe bc bd 34 32 3d 0f f1 84 bd
       -0.09151448 -0.031107694 0.043507326 -0.06491291
0001c0 65 fd 82 bd 6f 22 d2 bc cb 81 d8 3b 6e 94 03 bd
       -0.063959874 -0.025651185 0.0066072694 -0.032123975
0001d0 96 32 39 3c 21 75 07 3d 0d 72 4c bc 65 58 45 3d
       0.0113035645 0.033070687 -0.012478364 0.048180003
0001e0 1b 41 2f 3e 68 9f b3 bd 1c 31 89 3d 8e 39 9e bd
       0.1711468 -0.08770639 0.0669882 -0.077258214
0001f0 6c 96 b2 3d 25 73 f0 bd d4 05 41 3d 14 aa 15 3d
       0.08720097 -0.11740712 0.0471247 0.036539152
000200 b9 e0 aa 3d 32 4b 92 bb f4 f2 e8 3b 33 0d f4 bc
       0.08343644 -0.0044645304 0.0071090404 -0.02979145
000210 9a 85 e1 3d fe a2 ef bd a1 88 16 3e 2a c1 ad bc
       0.110118106 -0.1170101 0.14700557 -0.021210272
000220 94 e1 6a 3b 8e af 84 3c 06 9f b9 3b 02 78 d6 3d
       0.0035840021 0.016196992 0.005664709 0.104721084
000230 8a 33 cf 3a fc e4 15 3e 5d 1a 11 be 0c 5d 39 3c
       0.0015808207 0.14638132 -0.14170213 0.011313688
000240 98 00 7b 3b da 05 d5 bc 7a a0 ed bd 76 16 a1 bd
       0.0038299914 -0.026003767 -0.11602874 -0.07865612

bn2.weight f4 [148]
000000 89 28 d9 3e c7 fb 07 3f 58 51 a5 3e 36 2f 42 3e
       0.42413738 0.53118557 0.32288623 0.18963322
000010 cf ac 63 3e 94 a4 84 3e fd 67 5c 3e 76 17 86 3e
       0.2223389 0.25906813 0.21524043 0.26189774
000020 8a 1f c5 3e 74 de 75 3e c4 7f b0 3e 28 06 5b 3e
       0.38500625 0.2401064 0.34472477 0.21389067
000030 c0 db b9 3e 6d c1 c7 3e a9 b9 30 3e 80 6b 39 3e
       0.36300468 0.3901476 0.17258324 0.18107414
000040 26 c0 03 3f e1 10 bb 3e b1 8e ca 3e 1a d6 ba 3e
       0.5146507 0.36536315 0.3956199 0.36491472
000050 db 2e f2 3d 4b 53 be 3a 3f e1 cb 3e 8c 7b cd 3e
       0.11825343 0.0014520673 0.39820287 0.4013332
000060 55 ec 31 3e 2b b6 f3 3e f0 43 3e 3e 1c 0d 3f 3e
       0.1737531 0.4759992 0.18580604 0.18657345
000070 69 84 53 3e eb f6 af 3e 4c 82 18 3d 02 ae 98 3e
       0.20655979 0.3436807 0.037233636 0.29820257
000080 16 d2 95 3e 3f 9b 19 3f e4 ce fd 3e 0a f0 a7 3e
       0.29261845 0.6000251 0.49571908 0.32800323
000090 28 e8 22 3e 5f c2 02 3f fe e8 5f 3e fa e4 99 3e
       0.15908873 0.51077837 0.21866223 0.30057508
0000a0 14 62 87 3e 0b 0e 95 3e d7 cd e8 3b fd fd a2 3e
       0.26442015 0.29112276 0.007104616 0.31834403
0000b0 46 51 a9 3e 49 09 ba 3e 84 65 e4 3e a1 e9 98 3e
       0.3306982 0.3633521 0.446087 0.29865745
0000c0 fd 39 cc 3e 7b ec b6 3e c8 42 bb 3e 5d 77 65 3e
       0.39887992 0.35727295 0.36574388 0.22408815
0000d0 fc 59 0a 3e 6c a4 7a 3e ed f7 b9 3e be 35 2d 3f
       0.13510889 0.24476784 0.36321965 0.6766013
0000e0 70 ae fc 3e cf b0 e6 3e 21 83 c1 3e d4 8f 40 3e
       0.49351835 0.4505677 0.37795356 0.18804866
0000f0 d6 68 82 3e 69 77 d4 3e 47 1d 8a 3e aa c8 e1 3e
       0.25470608 0.41497353 0.26975462 0.44098407
000100 5e 07 56 bb 64 17 c6 3e a9 51 94 3e d7 6a 87 3e
       -0.00326582 0.3868972 0.28968552 0.264487
000110 ed 45 b1 3e e9 2d 28 3f 30 44 8d 3e 47 bf ab ba
       0.34623662 0.65695053 0.27591085 -0.001310327
000120 7d 24 3e 3f e2 ea 71 3e 26 1d 33 3e e8 90 75 3e
       0.74274427 0.23624757 0.17491588 0.23981059
000130 b7 19 09 3f 90 c9 43 3e 8c bc 7f 3e f2 51 86 3e
       0.5355486 0.19119859 0.24974269 0.26234394
000140 e2 b7 b3 3e 30 80 90 3e 73 71 28 3e a9 e4 0a bb
       0.3510123 0.282228 0.16449527 -0.002119342
000150 e0 a5 9c 3e cf 60 83 3e db 51 3d 3f 46 09 f4 3e
       0.30595303 0.25659797 0.73953027 0.47663325
000160 e0 9c f7 3e 27 5d 77 3e df 50 76 3e cf 26 ed 3e
       0.48361874 0.24156629 0.24054287 0.4631867
000170 e9 5d 9b 3e 45 56 9f 3e 1a 84 a4 3e 12 26 2b 3e
       0.30345085 0.31120506 0.32132035 0.16713741
000180 9d e7 c1 3e 61 42 fb 3e b2 ae fd 3e fc d8 65 3e
       0.3787202 0.4907408 0.49547344 0.22446054
000190 bf 8c 31 3e 95 fc ad 3e 2c c5 df 3e 29 52 a3 3e
       0.17338847 0.33981767 0.43705118 0.3189862
0001a0 78 a0 95 3e 87 91 ad 3e b2 38 c3 3e 9c 76 51 bb
       0.2922399 0.3390009 0.38129193 -0.0031961566
0001b0 31 c4 49 3e ab 72 9b 3e e0 60 78 3e dd 07 6e 3e
       0.19703747 0.30360922 0.24255705 0.23245187
0001c0 1f 53 74 3b 47 fd c3 3e 4d ce c4 3d 6f 59 bf 3e
       0.003728099 0.38279173 0.09609661 0.3737292
0001d0 08 5b 72 3e 25 e4 13 3f 3c 7c c9 3e 96 ce 02 3e
       0.23667538 0.57769996 0.39352596 0.12774119
0001e0 06 e3 83 3e b9 00 3b 3e ef 4c d4 3e 0f f3 6e 3e
       0.25759143 0.18261994 0.41464946 0.23334907
0001f0 44 c0 97 3e 8b 34 a5 3e 97 97 7c 3e 37 6f 6d 3e
       0.29638875 0.3226665 0.24667202 0.23186956
000200 b9 3a ae 3e 14 7c 8b 3e 5f fb 85 3e 90 61 b4 3d
       0.34029177 0.27243102 0.26168343 0.08807671
000210 b6 ea 2a 3f 18 38 d0 3e 2d 91 1f 3f ec c4 ff 3e
       0.6676439 0.40667796 0.62330896 0.49954927
000220 d0 21 ed 3e 2a e7 86 3e 17 f5 71 3e f8 8c c1 3e
       0.4631486 0.2634824 0.2362865 0.37802863
000230 37 48 2d 3f 33 90 57 3e 3e 42 0c 3e f2 ec c8 3e
       0.67688316 0.21051101 0.13697144 0.39243275
000240 3c 4c be 3e 3d 4e 71 3e 54 9c 4a 3e df ba 20 3e
       0.37167537 0.23565002 0.19786197 0.15696286

bn2.bias f4 [148]
000000 23 8a 84 3d 34 d5 bc bc f7 25 a0 be 7b 1d b1 be
       0.0647166 -0.023050882 -0.31278965 -0.34592804
000010 4c 2c 6d 3e 6b 64 08 3e 92 f9 8c be ab a4 32 be
       0.23161429 0.13319556 -0.27534157 -0.17445628
000020 5d d7 07 be a7 d1 76 bd c4 b3 a5 be c0 eb e9 bd
       -0.13265748 -0.060258534 -0.32363713 -0.11421919
000030 07 48 8b 3d 83 76 ec be fc 32 00 be 67 de bd 3e
       0.068008475 -0.46184167 -0.12519449 0.37083742
000040 14 48 2c bd cc 5a 30 be 62 33 18 bf 34 4e e9 bc
       -0.042060927 -0.17222136 -0.59453404 -0.028479673
000050 0f 63 cc be 85 4e 66 bd 9d af 8e bc 0c 06 64 bd
       -0.39919326 -0.056227226 -0.017417723 -0.05566983
000060 08 72 ad be a4 37 d1 be 25 52 67 be 40 f0 13 be
       -0.3387606 -0.40862763 -0.2258993 -0.14447117
000070 cb 0f 06 3e ad 37 ab be 10 aa 10 be 71 fb da be
       0.13091962 -0.33440915 -0.14127374 -0.4276996
000080 2a a1 c9 bc 18 36 af be 52 30 88 be 6b 3d 21 bf
       -0.024612982 -0.34220958 -0.26599365 -0.6298434
000090 88 29 8f be 38 79 e7 3c 9a 2c f9 bd ad b7 d9 be
       -0.27961373 0.028256044 -0.1216671 -0.42522946
0000a0 15 a1 02 be 21 dd f5 3d 7a 7a 09 be 1e 73 ce bd
       -0.1275676 0.120050676 -0.13425627 -0.100805506
0000b0 0a ea a8 be 44 d0 4f bd c5 57 a2 bc f9 6a be be
       -0.32991058 -0.050735727 -0.019817242 -0.3719099
0000c0 a0 35 1c bf b9 92 d1 be 9e 77 d5 be 89 d8 75 be
       -0.61019325 -0.40932253 -0.41692823 -0.24008383
0000d0 fa 9d aa be c1 b7 c1 be 24 83 a5 be df 9d 13 be
       -0.33323652 -0.37835506 -0.32326615 -0.14415692
0000e0 53 3d 98 be 67 32 1c be cd 65 ef be 0b e9 d2 be
       -0.29734287 -0.15253602 -0.46757355 -0.41193423
0000f0 b0 82 d1 be 6f 83 8c be 11 a4 9e be ef 10 57 be
       -0.4092002 -0.27444026 -0.30984548 -0.21002553
000100 f1 00 56 bd 65 19 07 bf c7 c8 9e be 22 16 f9 be
       -0.05224699 -0.52773124 -0.31012556 -0.48649698
000110 65 2d e2 bc 0a 9f 97 b9 02 89 ba bd fa eb 37 bd
       -0.027609536 -0.00028919458 -0.091081634 -0.04490278
000120 60 7f ef bd 7c 9d b4 be e6 08 a0 be e9 74 3a be
       -0.11694217 -0.352764 -0.3125679 -0.1820866
000130 99 49 a9 be 8f 17 3c 3e 8c 49 91 be 90 b5 f1 bc
       -0.33063963 0.18368362 -0.28376424 -0.029505521
000140 b6 e8 91 be 05 75 17 be bb e2 a6 bd 7a 04 10 bd
       -0.28497857 -0.14790733 -0.08148714 -0.03516052
000150 20 03 7c 3e b0 e4 d0 be 87 a0 8e 3d 4f fb bb be
       0.24610567 -0.40799475 0.06964212 -0.3671517
000160 41 61 31 3e 4e c6 00 be ea 5c e8 be 42 d3 85 3e
       0.17322256 -0.12575647 -0.45383388 0.2613774
000170 b7 55 75 3c d4 99 73 bd 83 80 0a bf f5 a2 97 be
       0.014974049 -0.059472874 -0.54102343 -0.29616514
000180 0f bd a7 be c6 5d 95 be d1 4d a1 be 63 84 af be
       -0.32761428 -0.29173106 -0.31504682 -0.3428069
000190 91 e9 b0 be 60 c1 bc be 03 4b 78 3e 72 26 6d be
       -0.34553197 -0.36866283 0.24247365 -0.23159197
0001a0 40 2d 6a 3d d5 8c dd 3d 4e 7d bc be 27 94 f7 bc
       0.05717206 0.10817877 -0.3681435 -0.030222012
0001b0 a7 81 46 be 3a 07 8d 3d 63 33 ca be ce 2b a5 be
       -0.19385396 0.06886144 -0.3949233 -0.32259983
0001c0 51 b6 62 bd 9e 6d b3 3e f0 ad 94 be 6d b8 16 bf
       -0.05534965 0.3504457 -0.29038954 -0.5887516
0001d0 94 67 87 be 6c 4d 91 be 9d 62 19 bf da 09 b5 be
       -0.2644621 -0.2837938 -0.59916097 -0.3535908
0001e0 3a 56 c4 be 5a 28 82 3e 43 a1 a9 be 80 63 ad be
       -0.38347036 0.2542141 -0.33130845 -0.33864975
0001f0 1a 2c fb be 96 1d 53 3e 94 96 9f be 79 f3 b2 be
       -0.49057084 0.20616755 -0.3116957 -0.3495138
000200 ac ae f8 be 7d 27 55 be 5f 93 b5 be ce d7 fa be
       -0.48570764 -0.20815845 -0.35463998 -0.4899277
000210 44 27 cb bd 60 7d 12 bf df 32 14 3d 67 91 8d be
       -0.09919599 -0.5722256 0.036181327 -0.27649996
000220 b8 d7 dc bd 92 14 59 be ff e0 0b be 86 72 0a 3e
       -0.107833326 -0.21199253 -0.13660048 0.1352025
000230 d8 9b 74 be 08 d7 f6 3e 0e 0e ed be 34 11 1f bf
       -0.23887575 0.4821093 -0.46299785 -0.62135625
000240 12 c5 1b bf b4 05 57 be 73 dc b9 be 45 75 4b be
       -0.6084758 -0.2099827 -0.36301002 -0.19868954

bn2.running_mean f4 [148]
000000 a8 41 80 bf d8 96 61 bf 58 94 ec bf 4d 8a f4 be
       -1.0020037 -0.88120794 -1.8482771 -0.47761765
000010 19 eb b8 bf d2 05 82 bf cd 45 a4 bf db e6 01 bf
       -1.4446746 -1.0158026 -1.2833802 -0.5074288
000020 bc f5 e5 bf 59 68 95 bf ba 26 0b bf 81 4f d9 be
       -1.7965617 -1.1672469 -0.5435597 -0.4244347
000030 3a f5 5e bf 23 be 6d bf 4d 03 a1 be a9 1e d4 bf
       -0.87092936 -0.9286825 -0.3144783 -1.6571857
000040 8b cb 72 bf 05 37 3e bf 54 d6 b3 bf fd c7 ab bf
       -0.9484183 -0.74302703 -1.4049783 -1.3420407
000050 91 db ab 3d 3a 12 7d 3e d7 8a 58 bf 75 37 a5 bf
       0.08391488 0.24713984 -0.8458685 -1.2907549
000060 54 bb f4 be c6 c7 a6 bf 68 3d d9 bd 6f 1e 8f bf
       -0.4779917 -1.3029716 -0.106074154 -1.1181163
000070 83 d8 4a bf 90 b1 75 bf 52 ce aa bc 56 97 2f bf
       -0.7923662 -0.95974064 -0.020850334 -0.68590295
000080 55 a1 a8 bf f6 dd c0 bf 41 67 5a bf 85 66 17 3f
       -1.3174235 -1.5067737 -0.853138 0.5914081
000090 d6 e1 77 bf de 11 92 bf ae aa f8 be 42 14 32 bf
       -0.96828973 -1.1411703 -0.48567718 -0.6956216
0000a0 56 e3 3c bf 47 97 13 bf 20 b6 f6 bb 35 14 80 bf
       -0.7378439 -0.57652706 -0.007529035 -1.0006167
0000b0 35 1a 84 bf 15 9b 73 bf c3 ab 80 bf 83 86 a8 bf
       -1.0320498 -0.9515851 -1.0052418 -1.316605
0000c0 4f c2 a5 bf 9a c0 a4 bf be 79 2f bf 4d be a4 be
       -1.2949923 -1.2871277 -0.6854514 -0.32176438
0000d0 ba a4 9f bf c4 48 bf bf 4d a8 b1 bf 82 9e 8b bf
       -1.2472146 -1.4944081 -1.3879486 -1.0907748
0000e0 e5 8c 91 bf 20 a3 92 bf 3b 55 21 bf 35 01 a7 bf
       -1.1371123 -1.1456032 -0.63020676 -1.3047243
0000f0 f0 15 7e bf af 15 fc be b5 11 aa 3e 73 8e 83 bf
       -0.99252224 -0.49235293 0.33216634 -1.0277847
000100 15 9c 74 be 9c d0 62 bf 8f 54 05 bf 99 5e da bf
       -0.23887666 -0.8859956 -0.5208215 -1.7060119
000110 db 8d 0f bf c3 e4 aa bf ca f9 a7 be 99 d2 1d be
       -0.5607583 -1.3351063 -0.3280776 -0.15412368
000120 e3 7d f8 bf d5 fa 48 bf 09 71 02 bf f3 d9 3f bf
       -1.9413418 -0.7850774 -0.5095373 -0.7494194
000130 90 5d 61 bf 8e 18 37 bf 78 da e1 bf 0d 28 ef be
       -0.8803339 -0.7152184 -1.7644796 -0.46710244
000140 db a3 81 bf 8f 0d 82 bf 8c 4d 2e 3d 49 95 33 3e
       -1.012813 -1.0160388 0.042554423 0.17537417
000150 d2 16 8e bf 5a a8 be be 87 b6 c1 bf ef 90 1e bf
       -1.1100714 -0.37237817 -1.5133828 -0.619399
000160 10 62 4f bf 23 fd 8c bf bd d1 a7 be 6f 94 85 bf
       -0.81009007 -1.1014751 -0.32777205 -1.0435923
000170 9e 0e af be 56 b6 9b bf 6c a7 3e bf 9d a0 18 be
       -0.3419084 -1.216502 -0.74474216 -0.14905019
000180 e6 1c fb be 32 69 1a bf 2c ed b7 bf 72 55 79 bf
       -0.49045485 -0.60316765 -1.4369254 -0.97396004
000190 b7 08 31 be 1d 30 5e bf 68 7b 86 bf 7c 9f eb bf
       -0.1728848 -0.86792165 -1.0506411 -1.8408046
0001a0 8b 61 25 bf f2 05 09 bf e5 e3 38 bf 64 6e 31 3d
       -0.64601964 -0.53524697 -0.7222274 0.043318167
0001b0 19 b9 16 bf b4 15 61 bf 6c 93 54 3e 74 e2 b9 be
       -0.58876187 -0.8792374 0.20759362 -0.36305583
0001c0 0b d4 73 3d cb 1a ba bf 25 b3 d9 be 26 74 54 bf
       0.05952839 -1.4539427 -0.4251949 -0.8298973
0001d0 87 0a 8e bf 8c 37 55 bf 08 f1 71 bf fa c7 97 3f
       -1.1096963 -0.8328788 -0.9450841 1.1857903
0001e0 ad b2 55 bf b2 e1 9b bf 6f 5e 88 bf 59 73 ce bf
       -0.8347576 -1.2178252 -1.0653819 -1.6128951
0001f0 0b 13 30 bf d0 ca 84 bf 93 19 05 bf bc 42 98 bf
       -0.6877906 -1.0374393 -0.5199215 -1.1895366
000200 cc 64 98 bf de 2f 14 3e 86 c3 9e bf 4c 28 f4 bc
       -1.1905761 0.14471385 -1.2403419 -0.029804371
000210 57 bc a0 bf 0f 80 82 bf 84 76 7e bf b3 69 8d bf
       -1.2557477 -1.019533 -0.9939959 -1.1047882
000220 77 94 68 bf e2 41 5c bf ca 25 4c bf 87 23 60 bf
       -0.9085154 -0.8603803 -0.7974516 -0.8755421
000230 3e ef d3 bf d3 09 dd bf fa 98 6c 3f d4 c8 9a bf
       -1.6557386 -1.7268623 0.92420924 -1.2092538
000240 38 6d 8a bf 52 9f 1e bf 23 ed ce bf 2a 78 e6 3e
       -1.0814581 -0.61961854 -1.6166118 0.45013553
