20AgentsBias-best_critic.pth (torch_old, 118307 bytes, 13 tensors)

fc1.weight f4 [148, 33]
0	0x3cabb6cd	0.02096119
1	0xbd889044	-0.066681415
2	0x3de7dac3	0.11321022
3	0x3d568321	0.052371148
4	0xbea0bac3	-0.31392488
5	0x3ea10a82	0.3145333
6	0x3cc87c40	0.02447331
7	0xbd25e273	-0.040499162
8	0x3f07a8d6	0.52992
9	0x3da97cc5	0.08275751
10	0x3ed3abf0	0.41342115
11	0xbda421f0	-0.080142856
12	0x3e7968c1	0.24356367
13	0x3d691798	0.056907266
14	0x3d9bef5b	0.07614013
15	0xbdad2685	-0.08454613
16	0xbe3e2cc6	-0.18571767
17	0x3e118fba	0.14214984
18	0xbe0d5d55	-0.13805135
19	0x3eb5273f	0.35381505
20	0xbd8246cc	-0.0636116
21	0xbe63ddf0	-0.22252631
22	0xbd50fccc	-0.051022336
23	0x3e627ddf	0.22118329
24	0x3de4be4c	0.11169109
25	0xbdf77804	-0.12083438
26	0x3e4cd67a	0.20003691
27	0xbd95e7d6	-0.0731961
28	0x3c965ff3	0.018356299
29	0xbd9e7d49	-0.0773874
30	0xbced99be	-0.029003974
31	0xbd9abd26	-0.075556085
32	0xc0029acf	-2.0406988
33	0x3ef0b830	0.47015524
34	0xbedf4472	-0.43606907
35	0xbdd4b00e	-0.10385142
36	0xbe7f894d	-0.2495472
37	0x3ed32732	0.4124084
38	0xbe0f2782	-0.13979915
39	0xbc2e1b72	-0.010626661
40	0xbdbc8e4a	-0.09206827
41	0xbf19e6cb	-0.6011779
42	0xbed0fe4c	-0.40819013
43	0x3dce84b9	0.100839086
44	0x3d20f5bf	0.03929686
45	0x3ae200b1	0.0017242638
46	0xbe96a308	-0.29421258
47	0x3eba79ff	0.364212
48	0x3e40c060	0.18823385
49	0x3d897b2f	0.067129485
50	0xbeb63318	-0.35585856
51	0xbd0b97b2	-0.034080215
52	0xbe7f6c71	-0.24943711
53	0x3d6bf604	0.057607666
54	0xbe3df8c3	-0.18551926
55	0xbd96a140	-0.07354975
56	0xbe5c55e3	-0.21517138
57	0xbe420011	-0.18945338
58	0xbe5382d7	-0.2065538
59	0xbe459894	-0.19296485
60	0x3d650a80	0.055918217
61	0xbe69afa8	-0.22820914
62	0xbb81ac90	-0.0039573386
63	0x3d4c576d	0.049888063
64	0x3d6527ba	0.05594609
65	0xbfa74b78	-1.3069906
66	0x3e2371b3	0.15961342
67	0xbf10c1b8	-0.5654559
68	0x3e4e19c5	0.20127018
69	0x3cc0203b	0.023452869
70	0x3e646f39	0.22308053
71	0x3eeb8628	0.4600079
72	0x3e1481bc	0.14502615
73	0x3d3b242d	0.045688797
74	0x3dbdb477	0.092629366
75	0x3dac909a	0.08426018
76	0xbdb11485	-0.08646492
77	0xbe28ee49	-0.16497149
78	0x3d837311	0.064184316
79	0xbe802c12	-0.25033623
80	0x3f17adf7	0.59249824
81	0xbdc28f12	-0.09499945
82	0xbd2d0327	-0.042239334
83	0x3e7facb6	0.24968228
84	0x3d9b2caa	0.07576878
85	0x3d57ecf1	0.0527162
86	0xb9ce01b5	-0.00039292654
87	0x3d0d181c	0.03444682
88	0x3cd7c8d1	0.026340874
89	0xbd988e9f	-0.07449078
90	0x3dec18c0	0.11528158
91	0x3e6bc1c2	0.23023131
92	0x3e71bcce	0.2360718
93	0xbd4a19a0	-0.049340844
94	0xbe836ab7	-0.25667354
95	0x3d8323f1	0.0640334
96	0x3c309270	0.010777101
97	0x3d7e8b26	0.06214442
98	0x3f99b383	1.2007908
99	0x3e009665	0.12557371
100	0x3ea6506a	0.32483226
101	0x3ec5f8d0	0.3866639
102	0xbd626899	-0.055275533
103	0xbe067d03	-0.13133626
104	0xbd812ee5	-0.063077725
105	0x3c1d48ad	0.009599847
106	0xbd6a5944	-0.057214037
107	0x3ef3ffce	0.476561
108	0x3e215b0f	0.15757392
109	0xbeb2e6bf	-0.3494167
110	0xba90b5eb	-0.0011040544
111	0x3e471949	0.1944324
112	0xbef0d004	-0.47033703
113	0xbce65a3d	-0.0281192
114	0xbe88e618	-0.26738048
115	0xbe4c2d09	-0.19939055
116	0xbd4d9c0d	-0.05019765
117	0xbd8ae559	-0.06782026
118	0x3df7e9a3	0.121051095
119	0x3bf8cc07	0.0075926813
120	0x3d039938	0.032128543
121	0x3dc4783c	0.095932454
122	0xbdaa1c57	-0.08306187
123	0xbde67b24	-0.11253956
124	0x3e0675fc	0.13130945
125	0x3e8e914f	0.27845237
126	0x3d8b180e	0.067916974
127	0x3e06a135	0.13147433
128	0xbd0f62e7	-0.03500643
129	0xbd5d7551	-0.05406696
130	0x3c9cd484	0.019144304
131	0xbf86c98f	-1.0530261
132	0x3c0bad59	0.008525216
133	0x3ec160fe	0.37769312
134	0x3e6b71cf	0.22992633
135	0x3c93c850	0.018039852
136	0x3eb9fc1e	0.36325163
137	0xbe42b567	-0.19014512
138	0x3e8be342	0.2732182
139	0xbd38c988	-0.04511407
140	0x3e9950ee	0.29944557
141	0x3f17e15a	0.59328234
142	0x3c4c08a0	0.012453228
143	0x3e826934	0.2547089
144	0xbce73c1c	-0.028226905
145	0xbe890c41	-0.2676716
146	0xbdc8b530	-0.09800184
147	0xbe2ac441	-0.16676427
148	0x3e16afdb	0.14715521
149	0xbd6aae35	-0.057295043
150	0x3d495cc3	0.04916073
151	0xbe293bcc	-0.16526717
152	0xbc46920e	-0.012119783
153	0xbcc0ceec	-0.023536168
154	0x3d349de4	0.04409589
155	0x3ccc44b2	0.0249351
156	0xbd52496a	-0.051339544
157	0xbe8500d3	-0.2597719
158	0xbdf903d2	-0.12158932
159	0x3cfbc5c9	0.03073396
160	0x3e72840a	0.23683181
161	0x3d815b09	0.06316192
162	0xbd28b11b	-0.041184526
163	0x3cecffac	0.028930508
164	0x3fc4abf3	1.5364975
165	0xbdd9c44b	-0.10633143
166	0xbe8d93d9	-0.2765186
167	0x3e34ea2b	0.17667453
168	0xbc83812d	-0.016052807
169	0xbe68095b	-0.22659819
170	0x3d1dc56a	0.038518347
171	0x3edbd9f3	0.4293972
172	0x3c7c9a88	0.0154177025
173	0x3d6d520b	0.05793957
174	0xbcada2d0	-0.0211958
175	0xbdddef7b	-0.10836693
176	0xbeab9ded	-0.33518925
177	0xbe2ccd1c	-0.16875118
178	0xbe04f997	-0.12985836
179	0xbe9d06a2	-0.30669123
180	0xbe07d822	-0.13266042
181	0xbe21ead2	-0.15812233
182	0x3db8daf2	0.090261355
183	0x3dc9ac06	0.09847264
184	0x3c99c39b	0.01877003
185	0xbb549d58	-0.0032442417
186	0xbcee4020	-0.029083312
187	0x3d1ebc17	0.038753595
188	0x3ef2540a	0.47329742
189	0xbdef1180	-0.1167326
190	0x3e28f828	0.16500914
191	0x3f0bbfbb	0.5458943
192	0xbcdfe205	-0.027329454
193	0xbe6613db	-0.22468512
194	0x3c85ca9c	0.016331963
195	0xbc60d535	-0.0137227075
196	0xbc6722c8	-0.014107414
197	0x3ec16ae6	0.3777687
198	0xbe7b211c	-0.24524349
199	0xbdffe6da	-0.12495203
200	0xba16698d	-0.0005737774
201	0xbe7baf7e	-0.24578664
202	0xbd83b954	-0.06431833
203	0xbdcd59c0	-0.10026884
204	0xbca2386c	-0.019802295
205	0x3e27a80a	0.16372696
206	0xbe592d94	-0.21208793
207	0xbd1e32c4	-0.038622633
208	0xbdd99869	-0.10624773
209	0x3a600958	0.0008546314
210	0x3c31b698	0.010846756
211	0xbe3bde91	-0.18346621
212	0x3f33ad8f	0.70186704
213	0x3cc1f8e4	0.02367825
214	0xbd20cccf	-0.03925782
215	0xbd329130	-0.043595493
216	0xbd8f4d3f	-0.069971554
217	0x3dc431ee	0.09579836
218	0x3c4107ed	0.011781675
219	0xbd0f7c31	-0.035030548
220	0xbd9a97c7	-0.075484805
221	0xbdeb2a6f	-0.11482703
222	0x3eb07eb3	0.34471664
223	0xbd602d49	-0.054730687
224	0x3eddd428	0.43325925
225	0x3e448ff4	0.19195539
226	0x3da06ef7	0.07833665
227	0x3d7a31c6	0.061082624
228	0xbdd95249	-0.10611398
229	0xbc500468	-0.012696363
230	0xbf50c406	-0.8154911
231	0x3e3a529c	0.18195575
232	0xbeb61da4	-0.3556949
233	0x3f13e2b3	0.5776779
234	0x3dd379e8	0.10325986
235	0x3cc9b62f	0.024623005
236	0x3e4bfaae	0.19919845
237	0xbe402a28	-0.18766081
238	0xbebe9991	-0.37226537
239	0x3e6bfc98	0.23045576
240	0xbe5926fc	-0.21206278
241	0xbd30f128	-0.043198735
242	0xbeacab1f	-0.33724305
243	0xbb162ad2	-0.0022913706
244	0xbe828567	-0.25492403
245	0xbe81ac3f	-0.25326726
246	0xbdd18d6c	-0.10232052
247	0x3e50bf7d	0.20385547
248	0x3ea4b821	0.3217173
249	0xbc95c2c6	-0.018281352
250	0xbe00eacd	-0.1258957
251	0x3d38ed8c	0.045148417
252	0xbd4c7845	-0.049919385
253	0xbdd0fc19	-0.10204334
254	0x3e929b92	0.28634316
255	0x3d518142	0.05114866

fc1.bias f4 [148]
0	0xbd56e374	-0.05246301
1	0x3dd2b627	0.10288649
2	0x3c83d1bd	0.016091222
3	0xbc067782	-0.008207204
4	0x3dc1c578	0.09461492
5	0xbe3f6b56	-0.18693289
6	0x3da6544d	0.08121548
7	0x3db45c23	0.08806636
8	0xbcb885fd	-0.022524828
9	0xbda2ce6b	-0.07949527
10	0xbd6bd116	-0.057572447
11	0x3c9ff3a5	0.019525358
12	0xbde21221	-0.11038614
13	0xbcdcf669	-0.026972966
14	0x3cadd5c3	0.021220094
15	0xbb18bad5	-0.002330472
16	0x3dc0c582	0.094126716
17	0xbcba9d52	-0.022780094
18	0x3e186a40	0.14884281
19	0x3def5ace	0.116872415
20	0xbd7f2a95	-0.06229647
21	0xbdb61aff	-0.08891868
22	0xbe008bbc	-0.12553304
23	0xb9997cde	-0.00029275467
24	0xbd2ebfb4	-0.04266329
25	0x3e2b977e	0.16757008
26	0x3d612515	0.054967005
27	0x3d812de3	0.0630758
28	0x3da43ee5	0.08019809
29	0x3b8bea9d	0.0042699114
30	0xbdddcf8c	-0.10830602
31	0xbe1f51ef	-0.15558599
32	0x3e03b923	0.12863593
33	0x3e2650c7	0.16241752
34	0x3dc391bb	0.0954928
35	0x3e197bcf	0.14988635
36	0xbe1866ec	-0.14883012
37	0xbe2dce7a	-0.16973296
38	0x3dd048cf	0.10170137
39	0x3e249108	0.1607095
40	0x3d4c5fb1	0.049895946
41	0x3d82df09	0.06390197
42	0x3d34de0e	0.04415708
43	0x3caefaa5	0.021359751
44	0xbbcf150a	-0.0063196467
45	0xbdbc5b1e	-0.09197067
46	0x3dc79d89	0.09746844
47	0x3e01f59f	0.12691353
48	0x3b878dec	0.0041367915
49	0xbd969682	-0.07352926
50	0x3ce93159	0.028465914
51	0x3daae76b	0.08344921
52	0x3d24f098	0.04026851
53	0xbe10ee1e	-0.14153334
54	0xbdbff1ff	-0.09372329
55	0x3d10416a	0.035218634
56	0x3dc1449d	0.09436915
57	0xbdb58901	-0.08864022
58	0xbdd3a72b	-0.10334619
59	0x3d30be9b	0.043150526
60	0xbe62756a	-0.22115102
61	0x3da9a21b	0.08282872
62	0xbc96ef32	-0.018424604
63	0xbb56e3eb	-0.0032789658
64	0xbce6869c	-0.028140359
65	0x3dfc6c9d	0.12325404
66	0x3d3546b9	0.0442569
67	0xbd9bedfb	-0.076137505
68	0x3e6cc1f8	0.23120868
69	0xbde9fdaa	-0.11425336
70	0xbccce2e6	-0.025010537
71	0x3de84776	0.11341755
72	0x3d820af2	0.06349744
73	0xbd86c0b8	-0.06579727
74	0xbbec447e	-0.0072103133
75	0x3def682a	0.116897896
76	0x3df3d76c	0.11906323
77	0x3d55e98e	0.05222469
78	0x3e2d2188	0.16907322
79	0x3dc73a37	0.097279005
80	0xbc43eb63	-0.011957976
81	0xbe257f65	-0.16161878
82	0xbd663f56	-0.056212746
83	0x3d5ec994	0.05439146
84	0xbe52acd3	-0.2057374
85	0x3e28dc80	0.16490364
86	0xbe3fc6ec	-0.18728226
87	0x3daced2d	0.08443675
88	0xbd573855	-0.052543957
89	0x3d1c9485	0.038227577
90	0xbe3e4db1	-0.18584324
91	0x3da55eab	0.08074697
92	0x3c97c19b	0.018524935
93	0x3d354f92	0.044265337
94	0x3e07b1b7	0.13251387
95	0x3d48dfbf	0.049041506
96	0x3e25989b	0.16171496
97	0x3d94e839	0.072708555
98	0x3dc234d7	0.09482735
99	0xbd974820	-0.073868036
100	0xbe2129a3	-0.1573854
101	0xbe1fff69	-0.15624775
102	0x3d160f43	0.03663565
103	0x3e0eb06f	0.13934492
104	0x3daad95f	0.083422415
105	0x3dba02e1	0.0908258
106	0x3e1d2bc0	0.1534872
107	0xbe0a308b	-0.1349508
108	0xbe1fe70e	-0.15615484
109	0x3e048c38	0.12944114
110	0x3cebdf66	0.028793048
111	0xbe09008a	-0.13379112
112	0x3bfc1cd6	0.007693867
113	0xbe09ee73	-0.13469867
114	0x3df85953	0.12126412
115	0xbca0c973	-0.019627308
116	0xbe22a43f	-0.15882967
117	0x3d8b8c2d	0.06813846
118	0xbc049a6b	-0.008093457
119	0x3e296fe1	0.16546585
120	0xbe16d5ff	-0.1473007
121	0x3dbf6902	0.093462005
122	0x3d07c892	0.033150263
123	0x3d6a035f	0.05713212
124	0x3d716bf8	0.058940858
125	0x3d72a6ad	0.059240986
126	0xbdd052c7	-0.101720385
127	0xbe1333bb	-0.14375202
128	0x3e1a2fb1	0.15057255
129	0x3e6a8926	0.2290388
130	0xbce40aed	-0.027837241
131	0x3cede1aa	0.02903827
132	0x3c476ce7	0.01217196
133	0xbe19ac67	-0.15007173
134	0x3dfa73ae	0.122290954
135	0xbda7f630	-0.082012534
136	0xbe06f7c0	-0.13180447
137	0x3d6b83d0	0.057498753
138	0x3e141d4f	0.14464305
139	0x3d3fcd22	0.04682649
140	0xbd17e785	-0.03708603
141	0x3e14eae1	0.14542724
142	0xbc5d03f0	-0.013489708
143	0x3d75e381	0.060031418
144	0xbc6ccaa3	-0.014452609
145	0xbdc1cef0	-0.09463298
146	0xbe651269	-0.22370304
147	0x3e0adbf9	0.13560475

bn1.weight f4 [148]
0	0x3eab9caf	0.33517978
1	0x3ed34e09	0.41270474
2	0x3f195fd6	0.5991186
3	0x3e881acd	0.26582947
4	0x3f0a62cf	0.5405702
5	0x3f0e2345	0.5552257
6	0x3f1c7165	0.61110526
7	0x3ecba393	0.39773235
8	0x3f3d6c6e	0.73993576
9	0x3ec67f8d	0.3876919
10	0x3ef52310	0.47878313
11	0x3f505db2	0.8139297
12	0x3ea4e996	0.32209462
13	0x3e805ec2	0.25072294
14	0x3ebf96ec	0.37419832
15	0x3f508db7	0.8146624
16	0x3edb3f5c	0.42821777
17	0x3f45b8a1	0.77234846
18	0x3f0b72e4	0.54472184
19	0x3f2d4eef	0.6769857
20	0x3f28559f	0.6575565
21	0x3f866002	1.0498049
22	0x3ec3b4c8	0.38223863
23	0x3f1f5b5d	0.62248784
24	0x3f88fd63	1.0702327
25	0x3f082e1f	0.53195375
26	0x3b899bad	0.004199466
27	0x3f26e27f	0.65189356
28	0x3f201b41	0.62541586
29	0x3f0c69d6	0.5484899
30	0x3f038d20	0.51387215
31	0x3f07d7e1	0.5306378
32	0x3eb61981	0.35566333
33	0x3f2b77fd	0.6697996
34	0x3e96af4f	0.29430625
35	0x3ea8dba0	0.3298006
36	0x3f1bd2ab	0.6086833
37	0x3eec2727	0.4612362
38	0x3ed0315e	0.40662664
39	0x3eaee4b9	0.34158877
40	0x3eb20286	0.3476755
41	0x3efffebc	0.49999034
42	0x3eddcaca	0.43318778
43	0x3f2b24be	0.6685294
44	0x3f32f347	0.6990246
45	0x3f0655c4	0.5247462
46	0x3ec07228	0.37587094
47	0x3efc2ed3	0.49254474
48	0x3eb9e9f8	0.36311316
49	0x3f4ce44b	0.8003585
50	0x3f134005	0.5751956
51	0x3f223043	0.6335489
52	0x3f389abb	0.721111
53	0x3f2cf696	0.6756376
54	0x3ed72758	0.42022204
55	0x3f2c3762	0.6727201
56	0x3ef771d5	0.48329034
57	0x3f0cf835	0.55066234
58	0x3efcf097	0.49402305
59	0x3ec1dd30	0.37864065
60	0x3f0254d1	0.5091067
61	0x3ef7169f	0.48259446
62	0x3ed5dfab	0.41772208
63	0x3f42ce3c	0.7609594
64	0x3ea59569	0.32340553
65	0x3eee8078	0.4658239
66	0x3e97e064	0.29663384
67	0x3e96b99b	0.2943848
68	0x3f5c78b1	0.8612166
69	0x3f2a193b	0.6644475
70	0x3f33f110	0.7028971
71	0x3f88b34a	1.0679715
72	0x3eea8deb	0.458114
73	0x3f15c53b	0.58504075
74	0x3e433442	0.19062904
75	0x3ecf5e07	0.40501425
76	0xbb7794c5	-0.0037777883
77	0x3f07ca35	0.5304292
78	0x3ec5b137	0.38611767
79	0x3eb8fdac	0.36131036
80	0x3ea31ed6	0.31859463
81	0x3ee9617a	0.4558218
82	0x3f4d310e	0.80152977
83	0x3e3b13af	0.18269227
84	0x3efca4b9	0.49344423
85	0x3f2fad50	0.6862383
86	0x3f07097a	0.52748835
87	0x3f515f85	0.81786376
88	0x3f558481	0.8340531
89	0x3f031ffc	0.5122068
90	0x3f03d6c1	0.51499563
91	0x3bcd7e0e	0.0062711304
92	0x3f31191d	0.69178945
93	0x3e73a5f3	0.23793773
94	0x3f296ee8	0.66184855
95	0x3f1a1ebc	0.60203147
96	0x3ea0310e	0.31287426
97	0x3eaa86db	0.33306012
98	0x3f31b426	0.6941551
99	0x3f2fa08d	0.68604356
100	0x3e931ccf	0.28732917
101	0x3f119c21	0.5687886
102	0x3f0be90f	0.54652494
103	0x3ea7a67b	0.32744202
104	0x3f03e3f7	0.5151972
105	0x3f4463fe	0.76715076
106	0x3f34b32d	0.705859
107	0x3eccda4a	0.4001029
108	0x3ea0ae47	0.31382963
109	0x3ebb646a	0.36600047
110	0x3ed609e0	0.4180441
111	0x3ee87d9c	0.45408332
112	0x3ede35f0	0.43400526
113	0x3ef7aafd	0.4837264
114	0x3eeb2ea1	0.45934013
115	0x3f03bc37	0.5145907
116	0x3eebf684	0.46086514
117	0x3f14c809	0.5811773
118	0x3f00d9cd	0.5033234
119	0x3f67a525	0.90486366
120	0x3eebe078	0.46069694
121	0x3ed7e503	0.4216691
122	0x3f3ddf0c	0.7416847
123	0x3f315d99	0.69283444
124	0x3f21bc76	0.63178194
125	0x3ecdc34d	0.40188065
126	0x3f05e7ab	0.5230662
127	0x3f23b45e	0.63947093
128	0x3e983259	0.29725912
129	0x3f12817c	0.5722883
130	0x3f2f2fba	0.684322
131	0x3f01241f	0.5044574
132	0x3ecfa187	0.40552923
133	0x3ef1ee19	0.47251967
134	0x3f4ad007	0.79223675
135	0x3f160881	0.58606726
136	0x3ef9001e	0.48632902
137	0x3ec9acb6	0.3938958
138	0x3f53be5d	0.82712346
139	0x3f3e4093	0.7431728
140	0x3f0fa329	0.5610834
141	0x3e9fe159	0.31226614
142	0x3eabea44	0.33577168
143	0x3f10d9db	0.5658242
144	0x3ee84d1d	0.45371333
145	0x3f05ba71	0.5223761
146	0x3f347a56	0.7049917
147	0x3ea7d4cc	0.3277954

bn1.bias f4 [148]
0	0xbd6a0d4c	-0.057141587
1	0xbeaba3d4	-0.33523428
2	0xbe90e388	-0.28298593
3	0xbd2452d6	-0.04011806
4	0xbf0640f0	-0.52442837
5	0xbe410bd0	-0.18852162
6	0xbe0b11a4	-0.13580948
7	0xbdd9ded0	-0.10638201
8	0xbee50546	-0.44730586
9	0xbec45ea9	-0.3835347
10	0x3d645b9e	0.055751435
11	0xbe7ca221	-0.24671222
12	0xbefa2531	-0.488565
13	0xbefda6eb	-0.4954141
14	0xbe403751	-0.18771102
15	0x3d64dba5	0.05587353
16	0xbf1f47d5	-0.6221898
17	0xbf001b07	-0.5004124
18	0xbe92e894	-0.28693068
19	0xbedb4a00	-0.42829895
20	0xbeab31c8	-0.33436418
21	0xbedad0c5	-0.42737404
22	0xbf0009a1	-0.5001469
23	0xbe977a23	-0.2958537
24	0xbedaa142	-0.42701155
25	0xbd60d689	-0.054892097
26	0xbd8a81b1	-0.06763018
27	0xbf094657	-0.53622955
28	0xbe4d7627	-0.20064603
29	0xbf08291f	-0.53187746
30	0xbf0a3ba3	-0.5399725
31	0xbebd9e0c	-0.37034643
32	0xbe53297e	-0.20621297
33	0xbe9e4f93	-0.30920085
34	0xbe9a1815	-0.30096498
35	0xbe541904	-0.20712668
36	0xbeaa1d1f	-0.33225343
37	0xbdc68245	-0.09692816
38	0xbf0e965d	-0.55698186
39	0xbe905d4a	-0.28196174
40	0xbd5f7ef0	-0.054564416
41	0xbec6c19e	-0.38819593
42	0xbe2c22c9	-0.16810144
43	0xbea51624	-0.32243454
44	0xbece63af	-0.40310428
45	0xbe82733a	-0.25478536
46	0x3d207bb0	0.039180458
47	0xbe8fb5b5	-0.2806832
48	0xbe04da49	-0.12973894
49	0xbecfd869	-0.40594795
50	0xbec3c48d	-0.38235894
51	0xbebf866e	-0.3740725
52	0xbdd78be5	-0.1052473
53	0xbf01bd15	-0.5067914
54	0xbdeb3b40	-0.114859104
55	0xbee98123	-0.45606336
56	0xbeadee56	-0.33970898
57	0xbe917bb8	-0.28414702
58	0xbf08ac50	-0.5338793
59	0xbe229127	-0.15875684
60	0xbf08c500	-0.534256
61	0xbdbcc821	-0.09217859
62	0xbe4a6d55	-0.1976827
63	0xbe44329a	-0.19159928
64	0xbe7576e8	-0.2397114
65	0xbeb0e45d	-0.34549227
66	0x3dc5d9f5	0.09660713
67	0xbe9acd0b	-0.3023456
68	0xbee60cc9	-0.4493163
69	0xbe700fef	-0.23443578
70	0xbe82269a	-0.25420076
71	0xbdebe3bb	-0.115180455
72	0xbefeea4f	-0.49788138
73	0xbe84617e	-0.2585563
74	0xbe217527	-0.15767346
75	0xbb7156ae	-0.0036825347
76	0xbcf33859	-0.029689955
77	0xbea576d0	-0.3231721
78	0xbf17eca6	-0.5934547
79	0xbee9f272	-0.45692784
80	0xbdf63a20	-0.12022805
81	0xbe6cfe07	-0.23143779
82	0xbe04f57a	-0.12984267
83	0x3ea96a81	0.3308907
84	0xbf283175	-0.65700465
85	0x3d00e1dd	0.0314654
86	0xbe8b1d2c	-0.27170694
87	0xbebc8cde	-0.36826223
88	0xbeed1111	-0.46302083
89	0xbf390f26	-0.7228874
90	0xbeeab11c	-0.4583825
91	0xbdcb258d	-0.099192716
92	0xbee84648	-0.4536612
93	0xbd95dfb6	-0.0731806
94	0xbefd8969	-0.49518898
95	0xbdc00053	-0.09375062
96	0xbdeed163	-0.11661031
97	0xbeb94e08	-0.36192346
98	0xbe885f91	-0.2663541
99	0xbec6ae98	-0.3880508
100	0xbea0b347	-0.31386778
101	0xbe196ecd	-0.14983673
102	0xbf13adc2	-0.5768701
103	0xbe3d6bd0	-0.18498158
104	0xbed3f476	-0.41397446
105	0xbeaebc49	-0.34128025
106	0xbedf4097	-0.43603966
107	0xbf0b7c80	-0.54486847
108	0xbe7a42ee	-0.24439594
109	0xbe07bda5	-0.13255937
110	0xbe93e73c	-0.28887355
111	0xbe962799	-0.29327086
112	0xbe8237d7	-0.25433227
113	0xbebf4fa9	-0.37365463
114	0xbe85a61c	-0.26103294
115	0xbea36d6a	-0.31919414
116	0xbece23dd	-0.40261737
117	0xbefe0a04	-0.49617016
118	0xbf007816	-0.50183237
119	0xbf3773c1	-0.71661
120	0xbebe7dde	-0.37205404
121	0xbf0adb2b	-0.54240674
122	0xbe9063e7	-0.2820122
123	0xbdf9c015	-0.1219484
124	0xbedb79c1	-0.42866328
125	0x3cca4474	0.024690844
126	0xbeeb9774	-0.46013987
127	0xbd3d4411	-0.04620749
128	0xbe845a6a	-0.2585023
129	0xbf207556	-0.6267904
130	0xbef0e6ef	-0.47051188
131	0xbee07b9b	-0.43844303
132	0xbe891c2d	-0.2677931
133	0xbdc531d2	-0.09628643
134	0xbecae57c	-0.39628208
135	0xbee8cc53	-0.45468387
136	0xbead9cfb	-0.3390883
137	0xbe9816be	-0.2970485
138	0xbed9d894	-0.42548048
139	0xbd410cd5	-0.04713138
140	0xbe3f7421	-0.18696643
141	0xbe236374	-0.15955907
142	0xbe447ee2	-0.19189027
143	0xbec9d6eb	-0.39421782
144	0xbe76a2ae	-0.24085495
145	0xbe37d3bc	-0.17951864
146	0xbeb4b028	-0.35290647
147	0xbe81968c	-0.2531017

bn1.running_mean f4 [148]
0	0x3cb652ad	0.02225622
1	0xbe373a50	-0.17893338
2	0xbe964578	-0.29349875
3	0xbf314ce5	-0.69257957
4	0xbf007790	-0.5018244
5	0x3fd4476d	1.6584297
6	0xc01022c6	-2.2521224
7	0x40104d52	2.2547193
8	0x3de22b7c	0.1104345
9	0x3f912b0c	1.1341262
10	0xbe837484	-0.25674832
11	0x3d2150a1	0.039383534
12	0xbf3fd31b	-0.74931496
13	0xbe692a3c	-0.22770017
14	0xc0222e71	-2.5340846
15	0x3e2bed13	0.16789655
16	0xc05e6e3a	-3.4754777
17	0x3f35e59f	0.710535
18	0x40091aa7	2.1422517
19	0x3f0705b2	0.52743065
20	0xbf2e63c0	-0.68120956
21	0x3e049c19	0.12950172
22	0xbf8e1418	-1.1099882
23	0x3febbc08	1.8416758
24	0x3e221703	0.15829091
25	0xbf81ad85	-1.0131079
26	0xbcef87e2	-0.029239599
27	0xbf1ce8ff	-0.61293024
28	0xbec4473a	-0.38335592
29	0xbf5d4560	-0.8643398
30	0xbfb2c1c2	-1.396538
31	0x400968c2	2.147019
32	0x3f005cc7	0.50141567
33	0x3d43c1af	0.047792133
34	0xbe8dd9c4	-0.27705204
35	0x3fe33a81	1.7752229
36	0xc00a0348	-2.1564503
37	0xc0098f40	-2.1493683
38	0xc0492e27	-3.143442
39	0xc00d7759	-2.2104094
40	0x3ef9d0dc	0.4879216
41	0xbf3c9a5e	-0.73673046
42	0x3d83e750	0.06440604
43	0x3e9204b6	0.2851922
44	0xbf0312b9	-0.51200444
45	0x40104707	2.2543352
46	0x3ef7a9aa	0.4837163
47	0x3f3d5138	0.73952055
48	0xbf9cced3	-1.2250618
49	0x3fad30d5	1.3530527
50	0x3fa71a83	1.3054966
51	0x3c9a0798	0.01880245
52	0x40393a05	2.8941662
53	0xbec3e2bb	-0.3825892
54	0x3d481174	0.04884477
55	0xbe865181	-0.26234058
56	0x3e229bf5	0.15879805
57	0xbfc59752	-1.5436804
58	0xbffc50b9	-1.9712135
59	0x3f09bb40	0.53801346
60	0xbf84e622	-1.0382731
61	0xbede3199	-0.43397215
62	0xbff9309a	-1.9467957
63	0xbf490589	-0.7852407
64	0x3fc63e0d	1.5487686
65	0xbf5a87bb	-0.8536336
66	0xbecbea1c	-0.3982705
67	0xbf36ef66	-0.71459043
68	0x3f584be7	0.8449082
69	0xbe3812a4	-0.17975861
70	0x3ed88c82	0.422947
71	0xbd885b9c	-0.06658098
72	0xbf91c224	-1.1387372
73	0x4011d591	2.27866
74	0xbe01f136	-0.12689671
75	0x3f307254	0.6892445
76	0x3d047cb4	0.03234549
77	0x3e8f83b0	0.28030157
78	0x4042f4f2	3.0462003
79	0xc0394a0d	-2.8951447
80	0xbf4cad92	-0.7995235
81	0xbf389bf4	-0.72112966
82	0x3d5d35e5	0.054006476
83	0x4026091e	2.5943065
84	0xc02d3d09	-2.7068503
85	0xbd9b9c65	-0.07598189
86	0x4010d59a	2.2630372
87	0xbf76bab0	-0.9637861
88	0x3e395b81	0.18101312
89	0xbe18deac	-0.14928693
90	0x3f9614dd	1.1725117
91	0x3e7a6496	0.24452433
92	0xbbeffdcf	-0.0073239575
93	0x3f670102	0.9023591
94	0x3f25caa7	0.6476235
95	0xbd8b5d97	-0.0680496
96	0x3c930d20	0.017950594
97	0xbfed3f4d	-1.8534943
98	0x3d6f332a	0.058398403
99	0xbf40e7db	-0.75353783
100	0xbf787b04	-0.97062707
101	0x3f083993	0.5321285
102	0xbea86a95	-0.32893816
103	0x40159104	2.336976
104	0xbe3d02a5	-0.1845804
105	0xbfa3ccbd	-1.2796856
106	0x400dd750	2.2162666
107	0xc082d1f4	-4.088129
108	0xc01164a9	-2.2717688
109	0x3f64a532	0.8931457
110	0xc00ed9a7	-2.2320344
111	0x40369544	2.8528605
112	0xbf66f921	-0.9022389
113	0x3fece3b7	1.8506993
114	0x3e56d7b6	0.20980725
115	0x3f2be777	0.6715006
116	0xbe910bc9	-0.28329304
117	0xbf01ec3d	-0.50751096
118	0xbfaa5fab	-1.3310446
119	0x3de73903	0.11290171
120	0x3c367ef0	0.011138663
121	0xbf81aba2	-1.0130503
122	0xbdf87b33	-0.121328734
123	0x3e96094f	0.29303977
124	0x3eb9d21f	0.36293122
125	0x3f2e0b38	0.6798587
126	0x3fde831f	1.7383765
127	0xbe251a9d	-0.16123433
128	0x3f09a216	0.5376295
129	0x3eae66bd	0.34062758
130	0x3e074e80	0.13213539
131	0x3ebc042d	0.36721936
132	0xbf9ec977	-1.2405232
133	0x3db9a6e6	0.090650365
134	0x3fba77cc	1.4567809
135	0xc01f5d68	-2.490076
136	0xbe9008e7	-0.28131792
137	0x3e3ee92f	0.1864364
138	0x3eea474b	0.45757517
139	0xbd3da764	-0.046302214
140	0x3fb088d5	1.3791758
141	0x400eeb49	2.2331107
142	0xbcaff8f0	-0.021481007
143	0x3de182c4	0.1101127
144	0xbf20eeec	-0.62864566
145	0x3f89de00	1.0770874
146	0x3ea52d90	0.32261324
147	0xbe85bd56	-0.26121014

bn1.running_var f4 [148]
0	0x409eb77f	4.9598994
1	0x409c7b25	4.8900323
2	0x406997ab	3.649882
3	0x3ffce392	1.9756949
4	0x40c9d5fc	6.307371
5	0x414d901d	12.847684
6	0x4082a9c9	4.0832257
7	0x40753073	3.831082
8	0x3f93de02	1.1552126
9	0x4040d544	3.0130167
10	0x3f4d4b86	0.80193365
11	0x4071bc4f	3.7771184
12	0x406526d6	3.5804954
13	0x3fe133cf	1.7593936
14	0x409c87ac	4.8915615
15	0x3ff83a55	1.9392802
16	0x4116f359	9.434411
17	0x40d296ef	6.5809245
18	0x41aac173	21.344458
19	0x41214946	10.080389
20	0x40aae3b0	5.340294
21	0x409411cd	4.627173
22	0x4086482c	4.19631
23	0x4137ef20	11.49588
24	0x410e8c84	8.909306
25	0x40203502	2.5032353
26	0x3e9227a7	0.28545877
27	0x40015f9f	2.0214612
28	0x40888ecf	4.2674327
29	0x40f0169d	7.5027604
30	0x4132a683	11.165652
31	0x4110d7d2	9.0526905
32	0x402deaf4	2.7174654
33	0x405afe74	3.4217806
34	0x40c441b9	6.133023
35	0x411d5dc5	9.835393
36	0x4135c7c8	11.361275
37	0x410944af	8.579268
38	0x40bf8e48	5.9861183
39	0x409b0bc3	4.8451858
40	0x40af9387	5.4867587
41	0x4063380a	3.5502954
42	0x40c20e06	6.064212
43	0x405c81b2	3.445416
44	0x40c84be5	6.2592645
45	0x410e027d	8.8756075
46	0x3fb08948	1.3791895
47	0x40ef5801	7.4794927
48	0x409cf3a2	4.9047403
49	0x40d3f802	6.6240244
50	0x40e6e886	7.215884
51	0x411c4b4a	9.768381
52	0x40a64e45	5.1970544
53	0x40bd7d17	5.9215198
54	0x40f0f317	7.529674
55	0x411e27aa	9.884684
56	0x4089eac8	4.30991
57	0x417be632	15.7437
58	0x41114dbc	9.081478
59	0x4161a82f	14.10356
60	0x40b930b6	5.787196
61	0x40d33e20	6.6013336
62	0x40b8f909	5.7804
63	0x3fb6479a	1.4240601
64	0x40842d17	4.130504
65	0x417be97b	15.744502
66	0x4071ffc3	3.7812355
67	0x4029563b	2.645888
68	0x40576225	3.3653653
69	0x4027bed3	2.621022
70	0x40da651d	6.824843
71	0x3f846c8e	1.0345628
72	0x410cf5c9	8.810006
73	0x40d01307	6.5023227
74	0x401ad857	2.4194543
75	0x410bcd4f	8.737624
76	0x3f214c38	0.63006926
77	0x40e3fca2	7.124589
78	0x40db7eee	6.8592443
79	0x40ab81a4	5.3595753
80	0x4040b95c	3.0113134
81	0x40e5bbb0	7.179161
82	0x3fc79d3d	1.559486
83	0x4094c3f4	4.64892
84	0x40b261bd	5.574431
85	0x40a94820	5.2900543
86	0x41156fc5	9.3397875
87	0x40e2883e	7.079131
88	0x4081f5a0	4.0612335
89	0x410208c2	8.127138
90	0x40d191c9	6.549046
91	0x3ff656a2	1.9245188
92	0x40402533	3.0022705
93	0x405e5d49	3.4744437
94	0x4129a64f	10.603103
95	0x3f7a4cfd	0.97773725
96	0x4060220b	3.5020778
97	0x40a77571	5.233086
98	0x40505e8f	3.2557714
99	0x40a6c7c9	5.211888
100	0x4065348c	3.5813322
101	0x3fc4a513	1.5362877
102	0x40bdd959	5.9327817
103	0x406a51ab	3.6612346
104	0x40c89b4c	6.268957
105	0x4102e093	8.179828
106	0x4118c924	9.549107
107	0x40827f10	4.0780106
108	0x40b4d1bb	5.650602
109	0x40468bd7	3.1022851
110	0x40d6b96a	6.7101336
111	0x40bb97a8	5.8622627
112	0x41350d06	11.31568
113	0x40e55cb0	7.1675644
114	0x411905e9	9.563943
115	0x404bc85f	3.1841047
116	0x40405ec8	3.005785
117	0x40a422d7	5.129253
118	0x4003ec1a	2.0612855
119	0x408cc2f6	4.398799
120	0x405b2333	3.4240234
121	0x4087bce7	4.2418094
122	0x3fdceb4c	1.7259307
123	0x40f95129	7.7911572
124	0x405393e2	3.305901
125	0x408d6324	4.418352
126	0x40e71a6d	7.221976
127	0x40ad9a67	5.425098
128	0x40a496b4	5.1433964
129	0x40a46135	5.136866
130	0x406b08b9	3.6724074
131	0x406e0127	3.7188203
132	0x3fdd6459	1.7296249
133	0x3fd5b8e6	1.6697052
134	0x40a8ea1f	5.278579
135	0x409765d0	4.7311783
136	0x4024193c	2.5640402
137	0x40982977	4.7550616
138	0x40a8dde2	5.2770853
139	0x402584a2	2.5862203
140	0x40b45495	5.635325
141	0x413a18de	11.631071
142	0x40bd7db4	5.9215946
143	0x40e994f1	7.2994313
144	0x409c8f51	4.8924947
145	0x410b00db	8.687709
146	0x40627f15	3.5390065
147	0x408e6328	4.449604

fc2.weight f4 [148, 152]
0	0x3d39867c	0.04529427
1	0x3e11f5b7	0.14253889
2	0x3dfd200a	0.123596266
3	0xbe7471e6	-0.23871574
4	0xbf264052	-0.64941895
5	0x3e16ffff	0.14746092
6	0xbda9124d	-0.08255444
7	0x3e3693d6	0.17829832
8	0xbd7d3215	-0.06181534
9	0xbe006d30	-0.12541652
10	0xbcbe9a54	-0.023266949
11	0xbf7d1338	-0.9885745
12	0x3de6bcbd	0.11266468
13	0x3e872ba1	0.26400474
14	0xbeea2102	-0.45728308
15	0xbf09743b	-0.5369298
16	0xbf72f83c	-0.94910026
17	0xbe16f38d	-0.14741345
18	0xbe9ddadf	-0.30831048
19	0xbe7ea517	-0.24867664
20	0x3cc5bfa2	0.02413923
21	0x3e7ccbdb	0.2468714
22	0xbef77ac3	-0.48335847
23	0xbe4d4027	-0.20044003
24	0x3d7c0a08	0.061533004
25	0xbd477995	-0.048699934
26	0xbc7abe64	-0.015304182
27	0xbeb4663f	-0.35234258
28	0xbf4ca62e	-0.7994107
29	0xbd86f055	-0.065888084
30	0xbdb0a41e	-0.08625053
31	0xbe6d1547	-0.23152648
32	0x3d82f56a	0.06394465
33	0xbc186b43	-0.009302917
34	0x3e52a6db	0.20571463
35	0xbe5c02af	-0.21485399
36	0xbf467ce2	-0.77534306
37	0x3e02b138	0.12762916
38	0xbdca34eb	-0.098733746
39	0xbf0234e1	-0.50861937
40	0x3e4f6838	0.202546
41	0x3dc0f8c1	0.09422446
42	0x3e2d37c8	0.1691581
43	0xbdfd8b11	-0.123800404
44	0xbea0c27a	-0.31398374
45	0xbea0854c	-0.31351697
46	0xbec7b366	-0.39004058
47	0x3e0c956d	0.13728876
48	0x3e2ed9ca	0.17075267
49	0xbd4a3447	-0.04936626
50	0xbf0c1a16	-0.54727304
51	0x3da97ac7	0.08275371
52	0x3d8deed0	0.069303155
53	0x3e11ed5c	0.14250702
54	0x3cb1d0c0	0.021705985
55	0xbe63b2a8	-0.2223612
56	0x3e54d878	0.20785701
57	0xbc309605	-0.010777955
58	0x3e452461	0.19252159
59	0xbe32d4c0	-0.1746397
60	0xbdc376b5	-0.09544126
61	0xbee8f97b	-0.45502838
62	0x3e579bbf	0.21055506
63	0xbdaa08c4	-0.08302453
64	0xbef3fa96	-0.4765212
65	0xbe5a3d96	-0.21312556
66	0xbe5cad65	-0.2155052
67	0x3e232680	0.15932655
68	0xbf3cb7b5	-0.73717815
69	0xbe96ff3a	-0.29491597
70	0x3d74225c	0.05960308
71	0x3dcb8ca0	0.099389315
72	0x3d6e4f60	0.058181167
73	0xbdedbb98	-0.11608046
74	0xbf0e303c	-0.5554235
75	0xbe00a423	-0.12562613
76	0xbc0868b4	-0.008325744
77	0x3e6b8056	0.22998175
78	0xbec40114	-0.38282073
79	0x3e2dc17e	0.16968343
80	0xbd8faee5	-0.0701578
81	0x3dce6b37	0.10079043
82	0xbeeea433	-0.4660965
83	0xbda58793	-0.08082499
84	0xbe614e5c	-0.22002548
85	0xbee464d3	-0.44608173
86	0x3deff438	0.11716503
87	0x3dc05daa	0.09392865
88	0xbd9e2004	-0.0772095
89	0xbdfe12e0	-0.12405944
90	0xbe7359b7	-0.23764692
91	0xbdc7c814	-0.09754959
92	0xbd74dd05	-0.059781093
93	0x3e0b6133	0.13611297
94	0xbdec5756	-0.115400955
95	0x3c93a5b5	0.018023351
96	0x3d4af75a	0.0495523
97	0x3e68b014	0.22723418
98	0xbc4e5336	-0.012593081
99	0x3a859868	0.0010192515
100	0xbe229b39	-0.15879525
101	0x3e9b5537	0.3033845
102	0xbf040b19	-0.51579434
103	0xbdf438a1	-0.119248636
104	0xbe728905	-0.23685081
105	0xbe546610	-0.20742059
106	0x3dd396d7	0.10331505
107	0xbed5545e	-0.4166593
108	0x3e2e73e7	0.170364
109	0x3def831c	0.11694929
110	0xbe8c0bae	-0.2735266
111	0xbdf1c67e	-0.118054375
112	0xbe8b009f	-0.2714891
113	0x3cd2560f	0.025675802
114	0x3d057243	0.03257967
115	0x3ddc2937	0.107500486
116	0xbe161fbd	-0.14660545
117	0xbd370d2a	-0.04469029
118	0xbebfbb2c	-0.37447488
119	0x3e9c253a	0.30497152
120	0xbe302285	-0.17200668
121	0x3ecb80a0	0.3974657
122	0xbe357705	-0.17721184
123	0xbd614335	-0.054995734
124	0xbef05a7d	-0.46944037
125	0x3e140895	0.14456399
126	0xbf03d618	-0.51498556
127	0x3e892302	0.2678452
128	0x3e66983e	0.22519013
129	0xbe21e866	-0.15811309
130	0xbeeeeb9a	-0.46664125
131	0x3ce22780	0.027606726
132	0x3da4416c	0.08020291
133	0x3d451703	0.04811765
134	0xbb356a19	-0.0027681647
135	0xbdfade47	-0.12249427
136	0xbea29a17	-0.31758186
137	0x3e73dd7a	0.23814955
138	0x3d102d05	0.035199184
139	0x3e0ea50b	0.13930146
140	0xbe1e58db	-0.15463583
141	0xbdb5e079	-0.088807054
142	0x3e00d757	0.12582146
143	0xbe89e178	-0.26929832
144	0xbf090967	-0.5352997
145	0x3e1cf70d	0.15328617
146	0xbd91ab84	-0.07112792
147	0x3e88d611	0.2672582
148	0x3ca45324	0.020059176
149	0x3d0c86ea	0.03430835
150	0x3cf07a83	0.029355293
151	0xbc919872	-0.017772887
152	0x3e2a9d89	0.16661657
153	0x3e278687	0.16359912
154	0xbeed3fb8	-0.46337676
155	0x3e1aa4fb	0.15101998
156	0x3ecd319b	0.40076908
157	0x3dd53d71	0.1041211
158	0xbe56678d	-0.20937939
159	0xbe9c3261	-0.30507186
160	0xbcc7f43d	-0.024408454
161	0xbcad5385	-0.02115799
162	0xbdc68e69	-0.09695131
163	0x3eb1af95	0.3470427
164	0x3dd5521f	0.10416054
165	0xbeca9b77	-0.39571735
166	0xbe27d905	-0.1639138
167	0x3de643d3	0.11243405
168	0xbd83292f	-0.064043395
169	0x3d6d728b	0.057970565
170	0xbe10dd89	-0.14147009
171	0x3d89cf72	0.0672902
172	0x3e5aaa86	0.21354112
173	0xbef0d35c	-0.47036254
174	0x3e0a89e6	0.13529167
175	0xbe89acb5	-0.26889578
176	0x3ef628bc	0.48077953
177	0x3e51601b	0.20446818
178	0x3d55f7c1	0.05223823
179	0x3e1c94e7	0.15291177
180	0xbd3d78ed	-0.046257902
181	0xbeec3284	-0.4613229
182	0x3e87a315	0.2649161
183	0x3c7aba04	0.015303139
184	0xbd05a8cf	-0.03263169
185	0xbe3399ae	-0.17539093
186	0xbe86c34b	-0.26320872
187	0xbebc20d6	-0.36743802
188	0xbeb6a845	-0.35675254
189	0xbe089219	-0.13336982
190	0xbef7fa3b	-0.48433098
191	0x3ec65a0d	0.38740578
192	0xbeeca1e5	-0.46217266
193	0xbda59d16	-0.080866024
194	0xbddbac72	-0.10726251
195	0xbd62c1df	-0.05536067
196	0xbf32f81f	-0.6990985
197	0xbf7e30f8	-0.9929347
198	0x3e7a9934	0.24472505
199	0x3de50887	0.11183267
200	0xbee212f3	-0.44155082
201	0xbe1c2746	-0.15249357
202	0xbf2ba552	-0.67049134
203	0x3db5d0aa	0.0887769
204	0xbe8b43c6	-0.27200145
205	0x3d8f2279	0.06988997
206	0xbf39649d	-0.7241915
207	0x3e29864a	0.16555133
208	0xbd765abe	-0.060145132
209	0xbd01bd48	-0.031674653
210	0x3e014a49	0.12625994
211	0xbe73a2ee	-0.23792621
212	0xbf4e2d8f	-0.80538267
213	0x3d25a1ae	0.040437393
214	0xbf503773	-0.8133461
215	0xbe01c747	-0.12673675
216	0xbdc79c35	-0.09746591
217	0xbe41a84f	-0.18911861
218	0xbef341d6	-0.47511166
219	0x3e8ceed8	0.27525973
220	0x3e3c3340	0.18378925
221	0x3e7a9a4e	0.24472925
222	0x3ead49b9	0.33845308
223	0x3e37457d	0.17897601
224	0xbdcd4c35	-0.10024301
225	0x3e1f9372	0.1558359
226	0xbf3d4d48	-0.73946047
227	0xbe90f0cf	-0.28308722
228	0xbd487f6f	-0.048949655
229	0xbe3647a5	-0.17800768
230	0x3dae2459	0.085030265
231	0xbe44bf62	-0.19213632
232	0x3d3d5651	0.046224896
233	0xbd2d2e58	-0.042280525
234	0xbca2109a	-0.019783307
235	0x3e2b74ed	0.16743822
236	0xbdfc2620	-0.12311959
237	0xbe0127b1	-0.12612797
238	0xbeb44e2f	-0.352159
239	0xbeeb676e	-0.45977348
240	0xbcdaf88f	-0.02672985
241	0xbed807c3	-0.42193422
242	0xbf2ae04e	-0.6674851
243	0x3d02f374	0.031970456
244	0xbef0da5b	-0.47041592
245	0xbe390bad	-0.1807086
246	0xbe84c77f	-0.25933453
247	0x3d77c1b8	0.06048748
248	0x3e021d6c	0.12706536
249	0xbc6303a5	-0.013855849
250	0x3e756ba8	0.23966849
251	0xbea05874	-0.31317484
252	0x3ea21990	0.31660128
253	0x3e5a0d45	0.21294124
254	0xbe3a06b7	-0.18166624
255	0xbe8b3693	-0.27190074

fc2.bias f4 [148]
0	0x3c83d051	0.016090544
1	0x3d204c8b	0.039135497
2	0x3dfde207	0.12396627
3	0x3d8bccb8	0.068261564
4	0xbd265b58	-0.040614456
5	0x3de3a4fc	0.11115453
6	0x3d2b385c	0.041801795
7	0xbe61c6ac	-0.22048444
8	0x3e1adc7f	0.15123175
9	0xbd5f3906	-0.05449774
10	0xbc46e000	-0.012138367
11	0x3c1726f1	0.009225593
12	0x3d762db6	0.060102187
13	0xbd338e61	-0.043836955
14	0x3e3cc960	0.18436193
15	0x3da0acb3	0.0784544
16	0xbe3e5d7b	-0.18590347
17	0x3d56476b	0.052314203
18	0x3c95081e	0.018192347
19	0x3bd7201e	0.006565108
20	0xbd0d4d37	-0.034497466
21	0x3cde615d	0.027146036
22	0xbc06cd05	-0.008227591
23	0xbe1a1251	-0.1504605
24	0xbd62086c	-0.055183813
25	0xbd907a58	-0.07054585
26	0xbd603bee	-0.054744653
27	0x3d24e36c	0.04025595
28	0xbda3185c	-0.079636306
29	0xbe4ba689	-0.19887747
30	0x3d21373c	0.039359316
31	0xbdae4b51	-0.08510459
32	0x3da11c2a	0.078667
33	0xbd9631b9	-0.073337026
34	0xbe0f71a8	-0.140082
35	0xbe7fbb47	-0.24973784
36	0xbd8e6305	-0.0695248
37	0xbc446e63	-0.011989209
38	0xbd66b710	-0.056326926
39	0xbe0de8ed	-0.13858385
40	0x3af9d35a	0.001906018
41	0xbdbd8903	-0.092546485
42	0xbc0a9817	-0.008459113
43	0xbd83d9e5	-0.064380445
44	0x3d6ea35d	0.058261264
45	0x3da19d29	0.07891304
46	0xbc7b72e6	-0.015347218
47	0xbde45913	-0.11149802
48	0xbd95e573	-0.073191546
49	0xbcac98fb	-0.02106904
50	0x3dffc2a0	0.12488294
51	0xbc6bf7fc	-0.014402386
52	0x3d0c4242	0.034242876
53	0x3dd130c4	0.102143794
54	0xbd0ca2c5	-0.034334917
55	0x3d9283c5	0.07154039
56	0xbe401680	-0.18758583
57	0x3d69ad2f	0.057049926
58	0xbdc97f6f	-0.09838759
59	0x3d43b974	0.047784284
60	0xbc9fbcfb	-0.019499293
61	0x3d4857d7	0.048911896
62	0x3e1a9a8a	0.15098014
63	0xbd803632	-0.06260337
64	0x3cf3ff29	0.029784756
65	0x3e716969	0.23575367
66	0x3df26aa5	0.11836747
67	0xbe242211	-0.1602862
68	0xbdb3d415	-0.08780686
69	0xbe03e104	-0.12878805
70	0x3d1daa29	0.038492355
71	0x3dfeffeb	0.12451156
72	0x3d393cdc	0.045224056
73	0xbdc33ee4	-0.0953348
74	0x3cd61261	0.02613181
75	0x3e4a8f39	0.19781198
76	0x3ddc0e85	0.10744957
77	0xbd935b1c	-0.07195112
78	0x380362cd	3.132485e-05
79	0xbd5c6003	-0.0538025
80	0x3d6c057e	0.057622425
81	0x3e65bde6	0.22435722
82	0x3dc15303	0.09439661
83	0x3d1352ce	0.03596764
84	0xbdc60077	-0.096680574
85	0x3edf788f	0.43646666
86	0xbe641546	-0.2227374
87	0xbdb89ccb	-0.09014281
88	0x3e30493d	0.17215438
89	0xbd9b1e92	-0.0757419
90	0xbe99050c	-0.29886663
91	0x3d5b6081	0.05355883
92	0xbe307139	-0.17230691
93	0x3be924bc	0.007114975
94	0x3e267411	0.16255213
95	0xbd8e9930	-0.06962812
96	0xbe0d216a	-0.13782278
97	0x3e996ec5	0.29967323
98	0x3c883e4a	0.016631264
99	0xbd15263e	-0.036413424
100	0xbed35c3a	-0.412813
101	0x3e3a2a9f	0.18180321
102	0xbd2a2bfa	-0.041545846
103	0xbcd4b4a7	-0.025965048
104	0x3dd2ae51	0.102871545
105	0xbda31af6	-0.07964127
106	0x3cb34277	0.021882279
107	0x3c9c5287	0.01908232
108	0xbc3fa9c8	-0.011698194
109	0xbe1d1337	-0.15339361
110	0x3e30116b	0.17194144
111	0x3e180af4	0.14847928
112	0x3df6df92	0.120543614
113	0xbe075f57	-0.13219963
114	0x3d1b95d8	0.0379847
115	0x3e458e1f	0.19292496
116	0xbd1b54b0	-0.03792256
117	0x3d4c6778	0.049903363
118	0x3dda8272	0.10669412
119	0x3dcfeab0	0.10152185
120	0x3e372bb7	0.1788777
121	0xbec4a551	-0.38407376
122	0xbe675568	-0.22591174
123	0xbdd1f39c	-0.10251543
124	0xbe3fb8e9	-0.18722881
125	0xbddafdd3	-0.106929444
126	0x3d97c1be	0.0741
127	0xbdcd02ad	-0.10010276
128	0x3e033949	0.12814821
129	0xbd2e5d20	-0.04256928
130	0x3e50a914	0.20376998
131	0xbd9118ca	-0.07084806
132	0x3d5ba57a	0.053624608
133	0x3d42ebc8	0.04758814
134	0xbc0bb4b9	-0.008526974
135	0xbdc3bc7f	-0.09557437
136	0xbcaf9381	-0.02143264
137	0x3ea1120b	0.31459078
138	0x3c8b9807	0.017040266
139	0xbb95d627	-0.004572648
140	0xbd63c351	-0.05560619
141	0x3d0ea545	0.034825582
142	0xbd303f6c	-0.043029234
143	0x3dcffb99	0.1015541
144	0xbdbd9083	-0.09256079
145	0x3e2d3746	0.16915616
146	0xbe22f57a	-0.15913954
147	0x3e1a43df	0.15064953

bn2.weight f4 [148]
0	0x3f0d9b10	0.5531473
1	0x3ec90ee4	0.39269173
2	0x3ec9cfd8	0.39416385
3	0x3e86372d	0.2621397
4	0x3e507063	0.20355372
5	0x3e4440b3	0.19165306
6	0x3e4c0ffd	0.19927974
7	0x3e8718e2	0.26386172
8	0x3ecf1d3a	0.40451986
9	0x3e2d3673	0.16915302
10	0x3edc52ef	0.43032023
11	0x3e56d283	0.20978741
12	0x3f039691	0.5140162
13	0x3f16cc5d	0.58905584
14	0x3e9d6013	0.3073736
15	0x3f176128	0.59132624
16	0x3f2379f2	0.6385795
17	0x3f10999c	0.5648439
18	0x3f2a56d5	0.66538745
19	0x3e87c94b	0.26520762
20	0x3e85b9cc	0.26118314
21	0x3e6340d0	0.22192693
22	0x3e4a5ce5	0.19761999
23	0x3ed5b1e6	0.41737288
24	0x3e3ff710	0.1874659
25	0x3ecb8e88	0.3975718
26	0x3e76341a	0.24043313
27	0x3e3f36ad	0.18673201
28	0x3e3f1205	0.18659218
29	0x3f01c24c	0.506871
30	0x3e66b279	0.2252902
31	0x3ed1ef7e	0.4100303
32	0x3e9bd402	0.30435187
33	0x3f2eed4e	0.6833085
34	0x3ec44d4a	0.38340217
35	0x3edd45e2	0.4321738
36	0x3e6a613d	0.22888656
37	0x3f1040f8	0.56349134
38	0x3e509258	0.20368326
39	0x3f49cc06	0.7882694
40	0x3ebb7cc7	0.36618635
41	0x3e90032c	0.2812742
42	0x3ba5e25d	0.005062385
43	0x3ed3afb5	0.4134499
44	0x3f2149b0	0.63003063
45	0x3ed58e56	0.41710156
46	0x3e7cf44a	0.24702564
47	0x3e75fc6f	0.24022077
48	0x3ef7fb0d	0.48433724
49	0x3e9c11b7	0.30482265
50	0x3eb3222b	0.34987006
51	0x3e80674a	0.25078803
52	0x3e56c182	0.20972255
53	0x3e8e0d95	0.27744737
54	0x3eed9b87	0.4640772
55	0x3f0a9325	0.54130775
56	0x3ee49c14	0.44650328
57	0x3ea3dcfa	0.3200453
58	0x3f192f48	0.5983777
59	0x3e8122df	0.25221917
60	0x3eaba696	0.33525532
61	0x3f095abe	0.53654087
62	0x3ec3447e	0.38138193
63	0x3f041d70	0.5160742
64	0x3bb9518c	0.005655473
65	0x3ef533d3	0.478911
66	0x3ed3006e	0.41211265
67	0x3f0d88ed	0.5528706
68	0x3e997c84	0.2997781
69	0x3ec86cb2	0.39145428
70	0x3e754c09	0.23954786
71	0x3e6d8b01	0.23197557
72	0x3ee35a64	0.444049
73	0x3eb0448f	0.34427306
74	0x3e63a2e7	0.22230111
75	0x3e69e2b0	0.2284038
76	0x3ee4f2db	0.44716534
77	0x3e8738ef	0.26410624
78	0x3ea39658	0.3195064
79	0x3e85cfdc	0.26135147
80	0x3f011a69	0.50430924
81	0x3eb180a6	0.34668463
82	0x3e6c45c4	0.23073488
83	0x3e0a5702	0.13509753
84	0x3e8bd1f0	0.27308607
85	0x3ee42928	0.4456265
86	0x3f225ce8	0.63423014
87	0x3f173aa9	0.59073883
88	0x3f035ad1	0.5131045
89	0x3e941f84	0.28930295
90	0x3ebf39aa	0.37348682
91	0x3f25df0a	0.64793456
92	0x3ec0624a	0.3757499
93	0x3e91c1a7	0.28468058
94	0x3ef0d9e6	0.47041243
95	0x3e94ab65	0.29037014
96	0x3f106138	0.56398344
97	0x3f4e45ae	0.8057507
98	0x3ee3570c	0.4440235
99	0x3ec1bad9	0.37837866
100	0x3e828048	0.25488496
101	0x3e87e4a9	0.2654164
102	0x3eb813d7	0.35952637
103	0x3ee50154	0.44727576
104	0x3e6453e0	0.22297621
105	0x3ee123ae	0.43972534
106	0x3e729440	0.23689365
107	0x3b6a99ae	0.0035797167
108	0x3ea397e8	0.31951833
109	0x3e8d5f7e	0.27611917
110	0x3ef010d6	0.46887845
111	0x3e7b08b1	0.24515034
112	0x3e7f91b1	0.2495792
113	0x3f0736e4	0.5281813
114	0x3e706441	0.23475744
115	0x3edb6513	0.4285055
116	0x3e8ff393	0.2811552
117	0x3ef5db3f	0.48018834
118	0x3f363688	0.7117696
119	0x3e379ec0	0.17931652
120	0x3eadfc32	0.33981472
121	0x3e967dd5	0.29392877
122	0x3f04c516	0.5186323
123	0x3e92318b	0.28553423
124	0x3f041037	0.5158724
125	0x3e84c8a2	0.2593432
126	0x3e848fac	0.25890863
127	0x3e92d186	0.2867548
128	0x3ec54494	0.38528883
129	0x3ea0ad8b	0.31382403
130	0x3e92812e	0.2861418
131	0x3e5cf5af	0.21578096
132	0x3ec724a6	0.38895148
133	0x3f1f0323	0.6211416
134	0x3f0928d3	0.5357792
135	0x3ece2def	0.4026942
136	0x3efeec1a	0.49789506
137	0x3eb3a81a	0.3508919
138	0x3e6ccb03	0.23124318
139	0x3f24f0a5	0.64429694
140	0x3f198361	0.59966093
141	0x3eece3b5	0.46267477
142	0x3e661cca	0.2247192
143	0x3ef915f1	0.48649552
144	0x3edba68d	0.42900506
145	0x3e970a4a	0.29500037
146	0x3e9587e9	0.29205254
147	0x3e6547b0	0.22390628

bn2.bias f4 [148]
0	0x3dcde5b6	0.100535795
1	0xbedc8afe	-0.43074793
2	0xbef057ce	-0.4694199
3	0xbe8e5ed3	-0.2780672
4	0xbdfdb09a	-0.123872
5	0x3c793ceb	0.015212278
6	0xbeb7306d	-0.35779133
7	0xbdfa0d62	-0.12209584
8	0xbda2e225	-0.0795329
9	0xbe97b010	-0.29626513
10	0xbe567786	-0.20944032
11	0xbe84d083	-0.25940332
12	0x3e18da9c	0.14927143
13	0xbea33967	-0.31879732
14	0xbcc684ed	-0.024233306
15	0x3e0ab0ba	0.13543978
16	0x3caee3f1	0.021348925
17	0x3d57e6b6	0.052710257
18	0xbe0d53a8	-0.13801444
19	0xbe29fc04	-0.16600043
20	0xbdff9420	-0.124794245
21	0xbde9d1c8	-0.11416966
22	0xbe926fa0	-0.28600788
23	0xbe8b8efc	-0.27257526
24	0x3e0e7a43	0.13913827
25	0xbeaf00b2	-0.34180218
26	0xbe0af75f	-0.13570927
27	0xbe1c54e8	-0.15266764
28	0xbf0a0380	-0.5391159
29	0xbe49b430	-0.19697642
30	0xbe392256	-0.18079504
31	0xbe8b293b	-0.27179894
32	0x3d5f2b49	0.05448464
33	0xbaf4ffe8	-0.0018691989
34	0xbef7d511	-0.48404744
35	0xbe9ed734	-0.31023562
36	0xbecd6c22	-0.4012156
37	0xbd08c448	-0.033390313
38	0xbe0654c5	-0.13118275
39	0x3dde1237	0.10843318
40	0x3e3584f6	0.17726502
41	0x3ee6c5ee	0.45072883
42	0xbcf5427c	-0.029938929
43	0x3e1c5187	0.15265475
44	0xbde325ec	-0.110912174
45	0xbd84d186	-0.06485276
46	0xbecc30dc	-0.39881027
47	0xbebbb3a5	-0.36660495
48	0xbee1805e	-0.4404325
49	0xbef375fb	-0.4755095
50	0xbf08752d	-0.53303796
51	0xbe000754	-0.12502795
52	0xbc923dc4	-0.017851718
53	0xbecb64f4	-0.3972546
54	0xbe900f49	-0.28136662
55	0xbe8f4bdf	-0.27987573
56	0xbf197b6f	-0.5995397
57	0xbf020f8b	-0.50804967
58	0xbe546fdb	-0.20745794
59	0xbeac5c1c	-0.33664024
60	0xbed18be7	-0.4092705
61	0x3d2d7c40	0.042354822
62	0xbe7adb00	-0.24497604
63	0x39dd5595	0.00042216168
64	0xbd5720bb	-0.05252145
65	0xbf088a08	-0.5333562
66	0xbd6095a4	-0.05483021
67	0x3df1aec0	0.11800909
68	0x3d504b05	0.050852794
69	0xbf257605	-0.6463321
70	0xbe8053d1	-0.25063947
71	0xbe043980	-0.1291256
72	0xbea30fcf	-0.31847998
73	0xbe91460a	-0.28373748
74	0xbe12afe9	-0.14324917
75	0xbe68bfb8	-0.22729385
76	0xbea5fba3	-0.32418546
77	0xbd1cf103	-0.038315784
78	0xbe00b4bf	-0.12568949
79	0xbd4cef8f	-0.05003315
80	0xbd2765e5	-0.04086866
81	0xbd6502dd	-0.055910934
82	0xbe2bded9	-0.16784228
83	0xbec21b8d	-0.37911645
84	0xbeb369c3	-0.35041627
85	0x3e29072d	0.16506644
86	0xbe8bad7b	-0.27280793
87	0xbe8110c9	-0.2520812
88	0xbe8c20c0	-0.27368736
89	0xbd15b1cb	-0.03654651
90	0xbea34ecc	-0.31896055
91	0x3d935885	0.07194618
92	0x3d2c81af	0.042115863
93	0x3eda3d1f	0.42624757
94	0xbce2f734	-0.027705766
95	0xbe1879d9	-0.14890231
96	0xbe84a17c	-0.25904453
97	0x3e027bfb	0.12742607
98	0xbf02e799	-0.5113464
99	0xbe09e3b2	-0.13465765
100	0xbd12d6f7	-0.035849538
101	0x3f231e83	0.6371843
102	0xbe84f001	-0.25964358
103	0xbd077a0d	-0.03307538
104	0xbe64690f	-0.22305702
105	0x3d87f672	0.066388026
106	0xbf154e74	-0.58322835
107	0xbd8863ee	-0.06659685
108	0xbd90a8dd	-0.07063458
109	0xbd09d459	-0.033649776
110	0xbe4c8700	-0.19973373
111	0xbea3f885	-0.32025543
112	0xbdec9430	-0.11551702
113	0xbe9b77c8	-0.30364823
114	0xbedd783b	-0.4325579
115	0xbf19eb15	-0.6012433
116	0xbe0287a4	-0.12747055
117	0xbee6284c	-0.4495262
118	0xbe420b75	-0.18949683
119	0xbe7e9ddf	-0.2486491
120	0xbd4013c0	-0.046893835
121	0xbe1c9bfd	-0.1529388
122	0x3d768b06	0.060191177
123	0xbdbb3557	-0.09141033
124	0x3cd8449d	0.026399905
125	0x3dac6656	0.084179565
126	0xbed3edf1	-0.41392472
127	0xbe1b911b	-0.15192072
128	0xbeae400c	-0.3403324
129	0xbe11b5cd	-0.14229508
130	0x3eb40672	0.35161167
131	0xbe4b1255	-0.19831212
132	0xbf1cc3be	-0.6123618
133	0xbec14688	-0.37749124
134	0xbe222fc4	-0.15838534
135	0xbeff3949	-0.49848393
136	0xbea43ab2	-0.3207603
137	0xbd8ba58b	-0.06818684
138	0xbdc2d626	-0.09513502
139	0x3d8909d1	0.066913255
140	0xbebd0b94	-0.36922896
141	0x3e0693fe	0.13142392
142	0xbdff3412	-0.124611035
143	0xbef9d6ce	-0.48796695
144	0xbf042435	-0.5161775
145	0xbe5c0012	-0.21484402
146	0xbe57116d	-0.21002741
147	0xbe74b631	-0.23897626

bn2.running_mean f4 [148]
0	0xbfbda344	-1.481545
1	0xbf9f4f07	-1.2445992
2	0x3f9b1621	1.2116128
3	0xbf66bb59	-0.9012962
4	0xbf05660e	-0.5210885
5	0xbf468c57	-0.7755789
6	0xbf8de2f6	-1.1084888
7	0xbf93fa58	-1.1560774
8	0xbfb6197d	-1.4226528
9	0xbebc0fd2	-0.3673082
10	0xbeedd6e6	-0.46453017
11	0xbfa22ba3	-1.2669567
12	0xbf9b82a2	-1.2149241
13	0xbfc27b8f	-1.5193957
14	0xbf979827	-1.1843308
15	0xbfc566f0	-1.5422039
16	0xbfcd167c	-1.6022487
17	0xbf55c9c1	-0.8351098
18	0xbfa7efe5	-1.3120085
19	0xbf2e3c32	-0.680606
20	0xbf773a1d	-0.9657305
21	0xbf155936	-0.5833925
22	0x3f600a5b	0.875158
23	0xbfb31091	-1.3989431
24	0xbfc13c52	-1.5096533
25	0x3d85ff1f	0.06542801
26	0xbec8d154	-0.39222205
27	0xbe8d1fd9	-0.2756336
28	0x3fdda919	1.731723
29	0xbf62b0e9	-0.88551193
30	0xbf388374	-0.7207558
31	0xbf62a968	-0.88539743
32	0xbf4c61d2	-0.7983676
33	0xbfbcf1bb	-1.476127
34	0xbf65e924	-0.8980887
35	0xbeab2f1c	-0.3343438
36	0xbf948dbc	-1.1605754
37	0xbf97df5c	-1.1865039
38	0xbf9afdda	-1.2108719
39	0xbfb9438e	-1.4473741
40	0xbf6ff909	-0.9373937
41	0xbfed6806	-1.854737
42	0xbe7d73b4	-0.24751168
43	0xbfcad371	-1.5845777
44	0xbf4ff0a7	-0.8122658
45	0xbfe6d9bd	-1.8035198
46	0xbf6ddfd2	-0.9291965
47	0x3f36b9d6	0.71377313
48	0xbf2353d7	-0.63799804
49	0xbe10ca7e	-0.14139745
50	0xbe366247	-0.17810927
51	0xbfa94485	-1.3224036
52	0xbf0e2144	-0.5551951
53	0xbf67c4a7	-0.9053444
54	0xbf51a7c2	-0.81896603
55	0xbf72832a	-0.9473139
56	0xbf20adf1	-0.62765414
57	0x3f207140	0.62672806
58	0xbfaf0333	-1.3672851
59	0xbeb25ecf	-0.34837958
60	0xbf6290d0	-0.88502216
61	0xbea6640a	-0.324982
62	0xbf201b64	-0.62541795
63	0xbf592e9b	-0.8483674
64	0xbd52cd55	-0.05146535
65	0xbfbca9fa	-1.4739373
66	0xbf91b09a	-1.138202
67	0xbfce06d3	-1.6095833
68	0xbf80d932	-1.0066283
69	0xbe7c6dd6	-0.24651274
70	0xbe628afa	-0.22123328
71	0xbf12a43d	-0.5728186
72	0xbdb14dee	-0.08657442
73	0xbfc18821	-1.5119668
74	0xbf3bb1e4	-0.73318315
75	0xbf87b678	-1.060256
76	0xbf55def1	-0.83543307
77	0xbf922609	-1.1417857
78	0xbf9942d2	-1.1973517
79	0xbf6be453	-0.9214527
80	0xbf99db4a	-1.2020047
81	0xbf4a3cce	-0.7899903
82	0xbf48e861	-0.7847958
83	0x3f1419cb	0.57851857
84	0xbf26bb64	-0.65129685
85	0xbf4737b6	-0.77819383
86	0xc00d23ac	-2.2053022
87	0xbfb90a9b	-1.4456362
88	0xbf9978cc	-1.1989989
89	0xbfbf650e	-1.4952714
90	0xbf82e75a	-1.0226853
91	0xbf72e4c1	-0.948803
92	0xbfe0a29c	-1.7549624
93	0xbfdf922b	-1.7466482
94	0xbf6b45a2	-0.91903126
95	0xbf6fabfe	-0.93621814
96	0xbf9e6618	-1.2374907
97	0xbf7577a5	-0.9588569
98	0xbf52b53b	-0.82307786
99	0xbfa78efe	-1.3090513
100	0xbfb4971d	-1.4108616
101	0xbfeddbfe	-1.8582761
102	0xbebbbc3c	-0.3666705
103	0xbf9e8384	-1.2383885
104	0xbf5074eb	-0.814284
105	0xbe99ecf5	-0.30063596
106	0x3f368ca3	0.71308345
107	0xbdd99fd8	-0.10626191
108	0xbf9ec438	-1.2403631
109	0xbf3b4226	-0.7314781
110	0xbf0892bf	-0.53348917
111	0xbfd49b37	-1.6609868
112	0xbfa8f185	-1.3198706
113	0xbf8feea3	-1.1244701
114	0xbf3ca7bb	-0.73693436
115	0xbf70d6b3	-0.94077605
116	0xbf64d859	-0.8939262
117	0xbf818d3f	-1.012123
118	0xbfb08cfc	-1.3793025
119	0x3f3f6bf0	0.74774075
120	0xbf5fb126	-0.8737968
121	0xc00768a6	-2.1157622
122	0xbf939208	-1.152894
123	0xbf1eeb9a	-0.6207825
124	0xbf8d624c	-1.1045623
125	0xbf7479ae	-0.9549817
126	0x3de9c4df	0.11414503
127	0xbf991156	-1.1958416
128	0xbf44baee	-0.7684773
129	0xbf1ac4a5	-0.60456306
130	0xbfc1c5b8	-1.5138464
131	0xbebeb61a	-0.37248307
132	0xbf2d6624	-0.6773398
133	0xbfa56858	-1.2922468
134	0xbf40f1e9	-0.75369126
135	0xbfb904a1	-1.4454538
136	0xbfbb091b	-1.4612154
137	0xbfa369be	-1.2766645
138	0xbfbe0bdc	-1.4847369
139	0xbff2db64	-1.8973203
140	0xbfefcb50	-1.8733921
141	0xbf8934dc	-1.0719256
142	0xbe1129a7	-0.14176045
143	0xbee082a9	-0.43849686
144	0xbff9f8b2	-1.9529021
145	0xbf61b975	-0.8817361
146	0xbfc16db1	-1.51116
147	0xbf4875ab	-0.7830455
