20Agents-best_actor.pth (torch_old, 96800 bytes, 14 tensors)

fc1.weight f4 [132, 33]
0.33733904 0.28177628 0.34614617 -0.24299483 0.20591754 0.101182476 0.06024073 -0.046893343
-0.0037567362 -0.0149333095 -0.04733789 0.08244884 0.054071214 -0.5369994 0.25560996 -0.44885957
-0.105821945 0.10085976 -0.10098505 0.063821636 -0.0389454 -0.028093487 0.0642847 -0.13849998
0.16263059 -0.078669 0.31945744 -0.0015273705 0.23422812 -0.07808538 0.071897276 0.08283712
0.039643943 0.18593898 0.53500926 -0.08062453 -0.24988987 0.12310153 0.42454976 0.25196695
-0.12425364 0.48395848 0.4163 0.10448591 -0.34629083 0.18044083 -0.1529017 -0.47826284
-0.10041098 0.14874725 0.0133385705 0.31626573 -0.06530997 -0.17969579 0.10746529 0.027023898
0.55015266 -0.018290447 -0.21821038 -0.32116497 0.0286549 0.2106002 -0.06924783 0.08135554
0.013818294 -0.784861 0.23484321 0.8209643 0.42044523 -0.18736519 -0.11258721 -0.017659854
0.2512964 -0.0015841109 -0.16293673 0.12690976 -0.0091219 0.19044128 -0.12416844 -0.10741268
-0.1610303 -0.696243 0.15584639 -0.061805498 0.016292049 -0.0583258 0.03463515 0.04070265
0.06339673 0.030757869 -0.022923414 -0.0894967 0.035504624 -0.01932868 0.4359161 -0.05469695
0.05506945 -0.05101356 0.27513862 0.89443046 -0.420685 0.33778605 -0.035770882 0.066652514
-0.25947982 0.15713103 -0.53187317 -0.1122101 -0.041466508 0.18497157 -0.23993619 0.3011878
0.10060992 0.07272997 -0.039225966 -0.11734954 0.086907305 -0.12602796 -0.17706487 -0.3685047
0.049983688 0.5503302 -0.40888655 0.16905923 0.04375897 -0.27193046 -0.00734302 0.014777214
-0.072495215 -0.03232244 0.023473538 0.60265726 0.456784 0.89396757 0.17273389 0.25850058
0.11261005 -0.26680347 -0.32677802 0.32666564 -0.14209294 0.5830349 0.47735983 0.582909
-0.30892912 -0.17908372 -0.016191235 -0.24002367 -0.074574254 0.14585498 -0.18968774 0.015807811
0.0207719 -0.05837397 0.7680246 -0.3021227 -0.35021448 -0.057357498 0.022997994 0.038353715
0.13075472 -0.06703461 0.07371767 -0.03776169 0.5530932 -0.35047948 0.8943114 -0.42479104
0.04856363 0.04307242 0.15522589 0.13726844 0.12455619 -0.08457276 -0.06575454 0.020945037
0.09129594 -0.08735614 -0.023059037 -0.9384852 0.2671552 0.0037951926 -0.10752583 0.090938486
0.016267497 -0.035976898 0.0026595627 0.05908536 0.1252214 -0.18979405 0.109866984 0.16403675
0.008834695 0.19267716 -0.060204767 -0.03527351 -0.012859367 -0.10370202 0.145404 0.6112284
-0.39377207 -0.057990875 0.18868704 0.22191985 0.1489448 0.34358448 -0.061187692 -0.3980923
-0.18981314 0.1865779 -0.20799504 -0.3759192 -0.5143416 0.14782812 -0.026011473 -0.047429778
0.0120168645 0.08270178 0.088881545 -0.13513447 0.02037358 -0.2379855 -0.22244662 0.30163828
0.0755683 -0.012517115 0.37598217 -0.08478028 -0.06957574 -0.07474205 0.7498909 -0.45177355
-0.4279975 0.059743218 -0.070926145 0.05224807 -0.07679684 0.31118926 0.18772106 0.30756062
-0.40704447 -0.02358529 -0.14844419 -0.07024968 0.3828927 -0.15597992 0.25104818 -0.013468423
-0.037571702 0.21249577 0.05402887 -0.03778295 0.0968975 -0.030541573 -0.050482642 0.10853038
00000000: b4b7 ac3e fb44 903e 123a b13e a3d3 78be
00000010: 0cdc 523e c238 cf3d fcbe 763d 3c13 40bd
00000020: 9333 76bb d7aa 74bc 60e5 41bd f0da a83d
00000030: c779 5d3d cb78 09bf 4fdf 823e ecd0 e5be
00000040: 2db9 d8bd 908f ce3d 40d1 cebd ebb4 823d
00000050: 3685 1fbd 5024 e6bc b2a7 833d f0d2 0dbe
00000060: a288 263e 361d a1bd ed8f a33e 0d32 c8ba
00000070: 7fd9 6f3e 3aeb 9fbd e13e 933d 82a6 a93d
00000080: b061 223d ca66 3e3e 5ef6 083f 791e a5bd
00000090: 21e3 7fbe a81c fc3d 965e d93e d001 813e
000000a0: b178 febd 68c9 f73e 4625 d53e b5fc d53d
000000b0: 084d b1be 7bc5 383e 4392 1cbe dede f4be
000000c0: 46a4 cdbd 3351 183e 058a 5a3c 95ed a13e
000000d0: 3cc1 85bd 2c02 38be c316 dc3d 3961 dd3c
000000e0: ced6 0c3f d9d5 95bc 8b72 5fbe bc6f a4be
000000f0: aebd ea3c 94a7 573e ced1 8dbd bc9d a63d
00000100: 2066 623c a7ec 48bf bd7a 703e b72a 523f
00000110: 9944 d73e a9dc 3fbe 2094 e6bd 66ab 90bc
00000120: eca9 803e f1a1 cfba e3d8 26be a2f4 013e
00000130: 0674 15bc 0a03 433e 064c febd 2efb dbbd
00000140: 21e5 24be fb3c 32bf 3296 1f3e c327 7dbd
00000150: e776 853c 09e7 6ebd 96dd 0d3d d2b7 263d
00000160: 25d6 813d edf7 fb3c e2c9 bbbc 0c4a b7bd
00000170: 4c6d 113d 2e57 9ebc 6530 df3e e909 60bd
00000180: 8190 613d 98f3 50bd f8de 8c3e 65f9 643f
00000190: 0664 d7be 4bf2 ac3e 7d84 12bd 1d81 883d
000001a0: 8ada 84be f5e6 203e d728 08bf 69ce e5bd
000001b0: c9d8 29bd 3069 3d3e d5b1 75be 4a35 9a3e
000001c0: 930c ce3d 73f3 943d 68ab 20bd f554 f0bd
000001d0: 75fc b13d 790d 01be 7e50 35be a6ac bcbe
000001e0: b2bb 4c3d 71e2 0c3f 9459 d1be dd1d 2d3e
000001f0: 9b3c 333d 783a 8bbe b79d f0bb 211c 723c
00000200: 5f78 94bd 8964 04bd 944b c03c bf47 1a3f
00000210: 98df e93e 0fdb 643f 27e1 303e 305a 843e
00000220: 19a0 e63d 779a 88be 734f a7be b840 a73e
00000230: d080 11be c641 153f 8268 f43e 8639 153f
00000240: f52b 9ebe b961 37be 7ba3 84bc c4c8 75be
00000250: 63ba 98bd 025b 153e 813d 42be 627f 813c
00000260: d529 aa3c 8b19 6fbd 439d 443f d4af 9abe
00000270: 504f b3be b2ef 6abd 4a66 bc3c c918 1d3d
00000280: 91e4 053e 7149 89bd 4af9 963d 00ac 1abd
00000290: 8497 0d3f 0c72 b3be 98f1 643f 367e d9be
000002a0: a8ea 463d b56c 303d 89f3 1e3e 1990 0c3e
000002b0: 5117 ff3d 7c34 adbd 51aa 86bd ed94 ab3c
000002c0: 5ef9 ba3d c7e7 b2bd 4ee6 bcbc 9140 70bf
000002d0: 91c8 883e c4b8 783b 8136 dcbd f53d ba3d
000002e0: 6a43 853c 835c 13bd 0f4c 2e3b 7e03 723d
000002f0: 0a3a 003e 5f59 42be f101 e13d 40f9 273e
00000300: 66bf 103c 294d 453e 4699 76bd f57a 10bd
00000310: 18b0 52bc ba61 d4bd c9e4 143e 7779 1c3f
00000320: 7e9c c9be d787 6dbd 2d37 413e f53e 633e
00000330: fc84 183e 4eea af3e f29f 7abd c1d2 cbbe
00000340: 605e 42be 470e 3f3e a7fc 54be 7b78 c0be
00000350: e4ab 03bf 4160 173e 0316 d5bc ba45 42bd
00000360: 62e2 443c 8d5f a93d 8707 b63d b160 0abe
00000370: 7ee6 a63c 79b2 73be 0cc9 63be 5570 9a3e
00000380: 8ec3 9a3d 9614 4dbc bc80 c03e 49a1 adbd
00000390: ba7d 8ebd 5c12 99bd daf8 3f3f dd4e e7be
000003a0: 7d22 dbbe 4eb5 743d ba41 91bd 1202 563d
000003b0: a947 9dbd 3354 9f3e f339 403e 9678 9d3e
000003c0: 2268 d0be f035 c1bc c101 18be 10df 8fbd
000003d0: 830a c43e 33b9 1fbe 6389 803e a9aa 5cbc
000003e0: c9e4 19bd 7e98 593e 604d 5d3d 4bc2 1abd
000003f0: 3272 c63d 5232 fabc e3c6 4ebd 2d45 de3d

fc1.bias f4 [132]
-0.06281638 -0.08551079 0.041947555 -0.16091977 0.037164964 0.043490514 -0.13360547 0.11235898
-0.15452261 -0.09930361 -0.17244138 0.15546592 0.07868332 0.02016402 -0.16124076 0.09690219
-0.09124897 -0.14743309 -0.095774695 0.02566647 -0.16051374 0.16431597 0.047629777 0.17139052
-0.006155373 0.075069085 0.08204451 0.115642756 0.07415193 -0.13944495 0.14178963 -0.12521802
-0.07296641 -0.030487232 0.049575973 0.109808356 -0.073884025 -0.008572186 -0.043213032 0.082480796
0.025643557 -0.1360432 -0.16173215 0.092089675 -0.004317607 0.15833807 0.026076188 0.15598767
0.11921996 -0.16115828 0.15551649 -0.169916 -0.13277403 0.12703364 0.14077607 0.016509263
0.14638263 0.1643827 0.17044629 -0.022071341 0.15791377 0.109555714 0.13761255 -0.019139294
0.073901616 0.011511227 0.07558534 0.04358612 0.12295395 0.15887275 0.14120667 0.037807215
-0.039169066 -0.09422461 0.09619086 -0.109764755 0.012501766 -0.0094972 0.06342446 0.017123656
0.097037636 -0.13130566 0.035566274 0.05563922 -0.11922524 0.057016492 0.15069023 -0.04457868
-0.13200332 -0.06662479 0.1601007 0.08299505 -0.043477573 -0.096102655 0.01533006 -0.15251899
0.046886444 -0.14276445 -0.04676576 0.028278323 -0.102826715 0.14847068 0.049243566 0.059760522
0.09358813 0.17188048 0.012693041 -0.038794726 0.0108265495 0.13021407 -0.13679889 -0.032329425
0.07830373 0.14442341 0.06934582 -0.019575711 0.022033958 -0.053884484 0.17013694 0.0070380066
0.08120522 -0.091556706 0.16369131 0.14741158 -0.166761 -0.08612125 0.15696968 0.016182289
-0.14857115 0.0009913535 0.13896413 -0.028368263
00000000: e0a5 80bd 4820 afbd 33d1 2b3d 27c8 24be
00000010: 4a3a 183d 1c23 323d dfcf 08be 771c e63d
00000020: 2d3b 1ebe b15f cbbd 7994 30be 7532 1f3e
00000030: b824 a13d 042f a53c 4c1c 25be a874 c63d
00000040: bde0 babd b3f8 16be 8625 c4bd 7d42 d23c
00000050: b75d 24be 7242 283e 7117 433d ff80 2f3e
00000060: 03b3 c9bb d2bd 993d f406 a83d 1cd6 ec3d
00000070: f8dc 973d a8ca 0ebe 4d31 113e 2739 00be
00000080: 6a6f 95bd 5cc0 f9bc 2d10 4b3d 34e3 e03d
00000090: 8250 97bd 5b72 0cbc 2600 31bd b1eb a83d
000000a0: 7012 d23c e94e 0bbe 1d9d 25be 8399 bc3d
000000b0: b67a 8dbb 6023 223e bb9d d53c 3bbb 1f3e
000000c0: 9829 f43d ad06 25be b73f 1f3e 76fe 2dbe
000000d0: eaf5 07be 1b15 023e 9a27 103e 6f3e 873c
000000e0: 54e5 153e f053 283e 7989 2e3e f5ce b4bc
000000f0: 26b4 213e bf5e e03d 4eea 0c3e 02ca 9cbc
00000100: bb59 973d 9699 3c3c 7dcc 9a3d 5c87 323d
00000110: 48cf fb3d 8aaf 223e 7b98 103e bddb 1a3d
00000120: be6f 20bd d5f8 c0bd b7ff c43d 58cc e0bd
00000130: 35d4 4c3c 259a 1bbc afe4 813d e946 8c3c
00000140: abbb c63d fe74 06be f1ad 113d f3e5 633d
00000150: 5d2c f4bd 208a 693d 8a4e 1a3e 2298 36bd
00000160: e12b 07be 9472 88bd 70f1 233e 4ff9 a93d
00000170: 8a15 32bd 78d1 c4bd ef2a 7b3c f02d 1cbe
00000180: 000c 403d d830 12be 748d 3fbd f1a7 e73c
00000190: d096 d2bd b308 183e 9fb3 493d 73c7 743d
000001a0: 22ab bf3d 7001 303e 79f6 4f3c 38e7 1ebd
000001b0: d761 313c d656 053e 0215 0cbe dc6b 04bd
000001c0: b55d a03d bbe3 133e 2e05 8e3d 3e5d a0bc
000001d0: 8f80 b43c fab5 5cbd 6138 2e3e 149f e63b
000001e0: ec4e a63d 1582 bbbd b29e 273e 10f3 163e
000001f0: 65c3 2abe 5760 b0bd a9bc 203e b890 843c
00000200: 0923 18be 4ef0 813a 9d4c 0e3e 8f64 e8bc

bn1.weight f4 [132]
0.58846295 0.26459447 0.45328096 0.24375068 -0.08920838 0.6046455 0.5264493 0.3607039
0.5271442 0.4763088 0.44656128 0.3646206 0.42384127 0.5674606 0.56829846 0.4161823
0.36575767 0.31180006 0.38476458 0.4679106 0.39811042 0.42915818 0.64988357 0.42902932
0.6276513 0.25596592 0.50795364 0.6959022 0.3261 0.2309961 0.43456632 0.5028628
0.60693425 0.5576781 0.46829152 0.50800097 0.67348194 0.8908157 0.5699859 0.55854017
0.37780082 0.44938752 0.49987024 0.51453584 0.5047716 0.48386547 0.42857215 0.41190946
0.6352683 0.43338832 0.32665706 0.39472547 0.5391016 0.40102354 0.5446124 0.5390599
0.25156203 0.5437504 0.5152226 0.30983093 0.49580607 0.55913997 0.43110457 0.49130836
0.34004468 0.6589499 0.36414096 0.7635011 0.5534795 0.58168006 0.30480102 0.25433436
0.31181747 0.5376629 0.33602273 0.44199666 0.5598793 0.42240524 0.35042825 0.32281777
0.49893898 0.39568755 0.43555874 0.57734495 0.4541628 0.52013 0.3588177 0.54712754
0.22169463 0.39423034 0.6167309 0.42570817 0.5311191 0.39183185 0.5515474 0.43813628
0.62669677 0.3325723 0.74511784 0.4756529 0.7156897 0.5141496 0.3844104 0.5550639
0.33320546 0.5475717 0.577526 0.51379967 0.49409878 0.3769918 0.64524585 0.33169886
0.63387555 0.63459337 0.55558074 0.4357552 0.5636912 0.53571904 0.3803667 0.94207996
0.27458927 0.49085784 0.5352548 0.4412522 0.4351198 0.6479582 0.37524334 0.71079886
0.6925886 0.51604867 0.4943007 0.31786057
00000000: 82a5 163f ed78 873e 7114 e83e c799 793e
00000010: e2b2 b6bd 0cca 1a3f 62c5 063f 2eae b83e
00000020: ecf2 063f bfde f33e aea3 e43e 8daf ba3e
00000030: b901 d93e 1945 113f 027c 113f d915 d53e
00000040: 9744 bb3e 42a4 9f3e ddff c43e fa91 ef3e
00000050: 21d5 cb3e 9fba db3e c55e 263f bba9 db3e
00000060: c1ad 203f f70d 833e 4009 023f a626 323f
00000070: 94f6 a63e 3e8a 6c3e 7a7f de3e 9ebb 003f
00000080: 0b60 1b3f fec3 0e3f e8c3 ef3e 5a0c 023f
00000090: 5069 2c3f 7f0c 643f 99ea 113f 7dfc 0e3f
000000a0: 1c6f c13e 1f16 e63e feee ff3e 9fb8 033f
000000b0: b638 013f 37bd f73e cf6d db3e cce5 d23e
000000c0: f1a0 223f 13e5 dd3e 983f a73e 7519 ca3e
000000d0: 9002 0a3f f552 cd3e b86b 0b3f d4ff 093f
000000e0: bdcc 803e 3a33 0b3f a1e5 033f 29a2 9e3e
000000f0: 4bda fd3e cc23 0f3f bdb9 dc3e c58c fb3e
00000100: 561a ae3e f1b0 283f af70 ba3e cf74 433f
00000110: d5b0 0d3f fce8 143f e10e 9c3e 1d38 823e
00000120: 8aa6 9f3e 47a4 093f 2c0b ac3e 634d e23e
00000130: 4054 0f3f 8045 d83e 556b b33e 5f48 a53e
00000140: ee74 ff3e 8f97 ca3e 8e01 df3e e1cc 133f
00000150: 0788 e83e 3d27 053f f4b6 b73e 8d10 0c3f
00000160: eb03 633e 8fd8 c93e 14e2 1d3f 6cf6 d93e
00000170: 6cf7 073f 2f9e c83e 3632 0d3f 6653 e03e
00000180: 336f 203f eb46 aa3e 0bc0 3e3f c788 f33e
00000190: 7137 373f 4f9f 033f 71d1 c43e ab18 0e3f
000001a0: e899 aa3e a92d 0c3f bed8 133f 6088 033f
000001b0: 84fa fc3e 1205 c13e d52e 253f 6fd4 a93e
000001c0: ab45 223f b674 223f 8a3a 0e3f 4e1b df3e
000001d0: 114e 103f e224 093f 6dbf c23e 272c 713f
000001e0: f796 8c3e b851 fb3e 7506 093f cfeb e13e
000001f0: 06c8 de3e 97e0 253f e51f c03e eaf6 353f
00000200: 7d4d 313f c41b 043f fb14 fd3e 9fbe a23e

bn1.bias f4 [132]
-1.2235782 -0.070001096 -1.3032429 -0.03810286 0.5778264 -0.45831198 -0.3779409 -0.5389928
-0.1616208 -0.78796273 -0.116078354 -0.2818241 -0.17834798 -0.5951703 -0.43936098 -0.9716379
0.0790977 -0.18309282 -0.41520247 -0.84286755 -0.35597655 -0.20360091 -0.63062686 -0.25709045
-0.45989877 -0.14244024 -0.3384096 -0.3111157 0.15356891 0.09375681 -0.42701614 -0.44515863
-0.1633089 -0.4215987 -0.43795317 -0.098089464 -0.40526667 -0.6213287 -0.6673956 -0.13227685
-0.24246623 -0.32367253 -0.97874075 -0.5218438 -0.5629765 -0.5838982 -0.09503332 -0.025157003
-1.0772793 -0.27843466 -0.21192798 -0.27061835 -0.42186823 -0.403514 -0.32642034 -0.27878818
-0.004192996 -0.31699058 -0.5276579 -0.24190219 -0.40163633 -0.27699462 -0.29598603 -0.20074515
-0.25867417 -0.63231707 -0.74087614 -0.8967037 -0.29588208 -0.8340586 -0.24663666 -0.7394125
0.25369456 -0.42846626 0.51524115 -0.41328907 -0.51443684 -0.25968823 -0.14810129 -0.2493233
-0.111681074 -0.34437647 -0.45089072 -0.28792268 -0.15166967 -0.17335033 -0.49976534 -0.46237218
-0.1305391 -0.35647848 -0.39420873 -0.20521909 -0.39479357 -0.8396329 -0.39904076 -0.032259088
-0.3889275 -0.27638686 -1.5765021 -0.2614114 -0.6113969 -0.28684258 -0.06512313 -0.45376506
-0.06523024 -0.40502283 -0.1707305 -0.38002804 0.023264471 -0.19809121 -0.5724106 -0.17232898
-1.3218176 -0.4676479 -0.69069666 -0.55389524 -0.065923415 -0.26634473 -0.1365021 -1.9894564
-0.2794365 -0.2194903 -0.6018272 -0.20414838 -0.5628823 -0.3473799 -0.1562907 -0.6665191
-0.30960667 -0.3507956 -0.9694342 -0.40325123
00000000: 369e 9cbf bc5c 8fbd aad0 a6bf bf11 1cbd
00000010: 6eec 133f dea7 eabe 7881 c1be 6ffb 09bf
00000020: ec7f 25be edb7 49bf 7dba edbd 404b 90be
00000030: daa0 36be 155d 18bf ecf3 e0be 43bd 78bf
00000040: fafd a13d af7c 3bbe 6b95 d4be 2bc6 57bf
00000050: 8f42 b6be c27c 50be c370 21bf 5ca1 83be
00000060: da77 ebbe dbdb 11be 0644 adbe 8f4a 9fbe
00000070: 2b41 1d3e 9203 c03d dca1 dabe d5eb e3be
00000080: 733a 27be c9db d7be 663b e0be 21e3 c8bd
00000090: 1d7f cfbe 660f 1fbf 70da 2abf 9573 07be
000000a0: 1149 78be 68b8 a5be c18e 7abf 8e97 05bf
000000b0: 3a1f 10bf 5a7a 15bf d4a0 c2bd 0f16 cebc
000000c0: 4ae4 89bf fd8e 8ebe a603 59be 7d8e 8abe
000000d0: 1dff d7be 6399 cebe 9120 a7be 53bd 8ebe
000000e0: 6665 89bb 974c a2be 9714 07bf 35b5 77be
000000f0: 47a3 cdbe 3dd2 8dbe 7b8b 97be 2390 4dbe
00000100: f170 84be 88df 21bf 0faa 3dbf 608e 65bf
00000110: db7d 97be dd84 55bf 528e 7cbe 234a 3dbf
00000120: 41e4 813e ee5f dbbe d8e6 033f a09a d3be
00000130: 22b2 03bf dbf5 84be dda7 17be 9b4e 7fbe
00000140: 0cb9 e4bd 1d52 b0be 26db e6be 9a6a 93be
00000150: 4b4f 1bbe c082 31be 3ee1 ffbe 0cbc ecbe
00000160: 0bac 05be 5984 b6be bad5 c9be f424 52be
00000170: 6222 cabe 2ff2 56bf 124f ccbe 1b22 04bd
00000180: 8121 c7be 9482 8dbe d2ca c9bf b7d7 85be
00000190: 8284 1cbf 08dd 92be 475f 85bd e553 e8be
000001a0: 6f97 85bd 275f cfbe fad3 2ebe 0993 c2be
000001b0: 2295 be3c 6cd8 4abe 8089 12bf 0277 30be
000001c0: 5231 a9bf 8c6f efbe 7fd1 30bf 14cc 0dbf
000001d0: db02 87bd 565e 88be 35c7 0bbe 82a6 febf
000001e0: 4d12 8fbe 11c2 60be 5911 1abf 460c 51be
000001f0: 0e19 10bf c7db b1be ab0a 20be ffa0 2abf
00000200: c484 9ebe 7b9b b3be d72c 78bf f276 cebe

bn1.running_mean f4 [132]
-2.008043 0.03966642 -1.8187318 0.4272448 -2.3440824 1.0130374 -0.030971002 1.8872942
-1.8747313 -2.15079 0.40401566 -0.8743161 1.8728389 0.63796663 -2.2996182 -2.0564327
1.0023977 0.8891102 -0.7856567 -1.8423138 -1.9311854 0.98064226 -0.66666067 0.84794587
0.1467784 3.3872569 1.248262 1.4653152 0.5127301 -1.4237005 -0.5441484 0.17269157
0.14743792 0.6631758 0.3483493 0.17801993 2.2365606 -0.32457924 0.082689814 0.036790997
-1.265029 0.45928833 -4.095244 -0.16856138 -0.7781437 -0.9932342 -0.84865046 0.88487655
1.4751219 0.9390332 0.6522213 0.792201 3.1416976 2.3054433 -0.533435 1.653292
1.412589 -0.5913399 1.2421638 -0.44856513 -1.0918211 -0.74203396 -0.33922195 0.39340046
1.5466884 -0.44833946 1.2554402 -0.3946474 -0.76044726 -0.69146496 -0.17276368 -1.7058146
0.30719158 -1.6327764 0.18792611 -0.04872337 -0.7148033 3.1733472 1.8465723 0.45822126
-0.11822535 -0.73665583 -0.5361484 0.054154776 -0.30063745 2.0649788 -1.3856266 -0.12890807
-1.2019844 -0.41016236 -0.08719022 -0.7894216 2.0557652 1.7271346 0.58046275 1.1101485
-0.2879044 -1.2814147 -1.5445498 1.7193362 -0.38962263 1.827812 2.908555 0.78367805
1.6022332 1.7917687 0.21797277 2.6634386 0.38867086 4.44607 -0.13626476 -3.9284775
-1.2415655 -0.3181966 -0.07222286 -2.6555731 1.9606574 -0.67988193 -0.091879085 -0.85791606
0.35604194 0.4910186 -2.0036335 -2.5189483 -0.6383071 -0.4191368 2.047955 0.89881384
0.38611165 -1.3723807 -1.0283078 -0.5620731
00000000: c783 00c0 4279 223d 34cc e8bf d5bf da3e
00000010: 7205 16c0 36ab 813f e6b6 fdbc db92 f13f
00000020: 32f7 efbf 8ba6 09c0 24db ce3e 2ed3 5fbf
00000030: 2fb9 ef3f c851 233f f22c 13c0 989c 03c0
00000040: 914e 803f ba9c 633f cc20 49bf f0d0 ebbf
00000050: 1531 f7bf 5f0b 7b3f 46aa 2abf fb12 593f
00000060: 144d 163e d1c8 5840 0dc7 9f3f 738f bb3f
00000070: 4842 033f d13b b6bf 4f4d 0bbf 0fd6 303e
00000080: f7f9 163e e4c5 293f d75a b23e db4a 363e
00000090: cf23 0f40 402f a6be 4759 a93d 28b2 163d
000000a0: 78ec a1bf d727 eb3e 3d0c 83c0 5b9b 2cbe
000000b0: 6d34 47bf 9944 7ebf 2841 59bf 4587 623f
000000c0: cbd0 bc3f 7b64 703f faf7 263f afcd 4a3f
000000d0: 9311 4940 628c 1340 328f 08bf 129f d33f
000000e0: b7cf b43f 0d62 17bf 39ff 9e3f 54aa e5be
000000f0: cbc0 8bbf f0f5 3dbf 80ae adbe c96b c93e
00000100: e3f9 c53f c08c e5be 44b2 a03f 390f cabe
00000110: acac 42bf d903 31bf f6e8 30be 2258 dabf
00000120: 3748 9d3e d1fe d0bf b46f 403e 2892 47bd
00000130: 59fd 36bf 1f18 4b40 7b5c ec3f fa9b ea3e
00000140: 2220 f2bd 7a95 3cbf 0641 09bf 66d1 5d3d
00000150: 27ed 99be 9d28 0440 365c b1bf 7a00 04be
00000160: a0da 99bf cd00 d2be c990 b2bd 8917 4abf
00000170: a891 0340 bf12 dd3f 3599 143f 5919 8e3f
00000180: 3568 93be 6605 a4bf cfb3 c5bf 3513 dc3f
00000190: 9e7c c7be bef5 e93f c425 3a40 209f 483f
000001a0: fa15 cd3f ad58 e53f 4134 5f3e c775 2a40
000001b0: deff c63e 3546 8e40 fd88 0bbe 2d6c 7bc0
000001c0: 9eeb 9ebf aaea a2be 94e9 93bd e9f4 29c0
000001d0: d2f6 fa3f be0c 2ebf 1a2b bcbd 63a0 5bbf
000001e0: 214b b63e ca66 fb3e 883b 00c0 7336 21c0
000001f0: 1868 23bf 1999 d6be b211 0340 aa18 663f
00000200: 6db0 c53e 2caa afbf 979f 83bf 06e4 0fbf

bn1.running_var f4 [132]
1.273505 9.394931 1.4681572 5.9328513 3.5469124 3.6998866 8.076044 9.01925
6.9051623 5.0035133 9.227091 14.367912 23.667068 4.907678 9.093549 1.5369107
2.3397574 6.40024 6.930739 3.871726 15.395185 5.948197 7.17901 10.930349
4.6738977 4.147684 3.6059456 15.319661 1.2678963 7.8307576 3.2887619 7.2670956
6.845631 12.341299 5.888911 0.9265097 14.381791 4.535908 5.7857466 8.29655
9.061818 4.231306 3.6698112 15.026795 6.2852716 8.40552 5.39741 6.1678567
3.1584358 5.700221 3.4588447 9.399996 9.751624 1.7190886 3.5979247 8.735645
8.505719 15.333051 16.653313 4.1862454 8.49651 4.652418 4.3790603 8.10161
5.455984 2.5964549 2.2991066 1.9080306 6.5489864 1.0763565 3.8070538 4.0030847
2.0834758 9.310439 0.979058 22.793797 4.000017 4.2504377 3.9718835 3.0137787
0.9764148 11.126972 8.174003 3.9372084 1.9633391 10.118654 15.354039 4.9852333
5.400531 6.042425 3.6118305 4.266112 9.338351 8.661111 3.2022567 4.069405
3.8321314 7.232655 2.0814931 6.486697 8.490327 6.156381 3.2934704 5.4172454
8.882505 17.51119 3.498732 11.480291 1.0127593 4.611281 3.645305 9.765887
1.6891501 19.900055 4.502791 7.580173 5.262362 17.734943 6.262971 1.0461258
8.395728 6.3756967 8.271398 8.956029 6.627423 0.8138091 9.377109 12.899844
4.553294 8.3227415 5.58367 5.9941816
00000000: 3602 a33f a351 1641 93ec bb3f ebd9 bd40
00000010: 9d00 6340 f1ca 6c40 7a37 0141 d94e 1041
00000020: 17f7 dc40 c81c a040 2aa2 1341 f8e2 6541
00000030: 2856 bd41 b30b 9d40 2d7f 1141 7db9 c43f
00000040: 96be 1540 c4ce cc40 9dc8 dd40 5cca 7740
00000050: ae52 7641 a157 be40 73ba e540 b6e2 2e41
00000060: 9290 9540 d4b9 8440 d0c7 6640 551d 7541
00000070: 6d4a a23f 9195 fa40 137b 5240 0c8c e840
00000080: 690f db40 f675 4541 f571 bc40 bd2f 6d3f
00000090: d11b 6641 2926 9140 d624 b940 abbe 0441
000000a0: 35fd 1041 dc66 8740 30de 6a40 c16d 7041
000000b0: f220 c940 037d 0641 95b7 ac40 155f c540
000000c0: d023 4a40 3668 b640 b65d 5d40 6266 1641
000000d0: a706 1c41 180b dc3f 6644 6640 34c5 0b41
000000e0: 6d17 0841 2d54 7541 fc39 8541 b9f5 8540
000000f0: b4f1 0741 9ce0 9440 4321 8c40 32a0 0141
00000100: 6c97 ae40 512c 2640 9024 1340 593a f43f
00000110: 4c91 d140 0dc6 893f c5a6 7340 4519 8040
00000120: ab57 0540 8ff7 1441 8ca3 7a3f b259 b641
00000130: 2400 8040 9603 8840 5733 7e40 c0e1 4040
00000140: 52f6 793f 1408 3241 b7c8 0241 39fb 7b40
00000150: b24e fb3f 02e6 2141 25aa 7541 0887 9f40
00000160: 26d1 ac40 8c5b c140 3b28 6740 fd83 8840
00000170: e369 1541 e993 0a41 c6f1 4c40 9138 8240
00000180: a441 7540 e971 e740 2f37 0540 0693 cf40
00000190: 61d8 0741 1301 c540 38c8 5240 135a ad40
000001a0: be1e 0e41 eb16 8c41 3aeb 5f40 46af 3741
000001b0: 19a2 813f 9d8f 9340 ad4c 6940 1341 1c41
000001c0: 1236 d83f 5033 9f41 dd16 9040 c790 f240
000001d0: 4565 a840 2ae1 8d41 426a c840 73e7 853f
000001e0: e754 0641 b505 cc40 a557 0441 e54b 0f41
000001f0: d913 d440 cb55 503f a308 1641 c365 4e41
00000200: 96b4 9140 f329 0541 6dad b240 56d0 bf40

fc2.weight f4 [132, 132]
0.2828798 -0.19622944 0.19631809 0.15424116 -0.1715526 0.035323232 0.3651065 -0.26415995
0.48186633 -0.32208115 0.345408 -0.038679764 0.13840073 -0.15955764 -0.20875256 -0.42049697
0.36589044 0.19781075 0.30544207 -0.4607134 0.23324586 -0.8883219 0.3637938 -0.12663497
-0.10705818 -0.77232426 0.038529005 0.07345216 -0.5048249 -0.40550536 0.25329548 0.11127289
0.14452086 -0.4858683 -0.4308831 -0.09991708 0.0061403112 0.11203806 -0.5464616 -0.012207131
-0.5707964 -0.39524522 -0.40856013 -0.22810157 0.15605453 0.32417917 -1.8781374 -0.13186936
0.23422675 0.124652475 0.3849712 -0.47437337 -0.21242143 -0.32054383 -0.38827646 0.23790868
0.13372238 0.17230476 -0.038843513 0.22726664 -0.025793897 -0.34811762 0.37970027 0.110260084
0.03392225 -0.0070094736 -0.06192259 -0.60209537 -0.7444028 0.12418549 -0.2808193 -0.07915777
0.58788794 -0.6592974 0.09256939 -0.47882456 0.24376573 -0.2938457 0.086663485 -0.08395449
-0.42154634 0.06385083 -0.123153344 -0.6121232 -0.10154268 -0.20303246 -0.050648943 -0.20890336
-0.21858627 0.112662934 -0.06280316 -0.13278171 -0.35756123 -0.05404082 0.21338585 -0.34612703
0.13829784 -0.39951345 0.022003131 0.07869085 0.36395657 -0.11148997 -0.00045732345 -0.22780769
-0.382997 -0.31146568 0.067751676 -0.11179674 0.05686933 -0.22662996 0.05751993 0.58461004
0.06276685 -0.4549132 -1.2203418 0.8109512 0.1872289 -0.21982956 -0.07074434 -0.124592766
-0.23878223 -0.023171628 0.4551305 -0.13043115 -0.16430221 0.06276797 -0.086231336 0.019853486
0.13240436 -0.7976027 0.17065485 -0.057644878 0.034018088 -0.1744469 -0.0024034616 -0.26291516
-0.32792315 0.09808289 -0.045849483 -0.15309422 -0.08466383 -0.33189636 0.2727427 0.17398869
0.11187121 0.032064077 -0.027241426 0.5769168 0.72025937 0.2236058 0.041753694 0.017405204
-0.21674451 0.07293892 -0.21748303 0.74722654 0.20569742 0.022199119 0.1299681 0.028855858
0.14503019 0.03530143 -0.11973511 -0.24335538 0.2433869 0.072951116 -0.32774156 -0.0454261
-0.603626 -0.13354929 0.29278725 -0.4293657 0.14079487 -0.5861727 -0.19743297 0.010192669
-0.049135644 0.063775554 -0.3781726 -0.4155442 -0.3282404 0.12191378 -0.0055706888 -0.62477326
0.20289634 0.2091339 0.12683482 -0.109776415 -0.12163251 0.2615331 0.22622791 -0.27651945
-0.75670266 0.2085584 -0.4401258 0.14187945 -0.38079804 0.46470276 -0.5218111 0.09674045
-0.22741641 -0.24514239 -0.27362937 0.64242256 -0.006424899 -0.3071196 -0.3633104 0.14113714
-0.16877282 -0.39770943 -0.16584948 -0.17636825 -0.3545677 0.05133041 0.05724121 0.22053872
-0.32981583 0.24093945 0.9061729 -0.5493763 -0.25122777 -0.27143607 0.020418812 0.030581351
0.1730665 0.15761182 -0.17059927 -0.09244965 0.09098802 0.38514158 0.03495638 0.46968734
0.12908585 -0.72844803 -0.018883456 0.41419947 0.13298634 0.332614 0.24638708 -0.05792847
0.19299047 0.3953933 -0.62073386 0.41109353 0.002980666 0.38335016 -0.56776714 0.08362902
0.03390491 -0.74943596 0.26136407 0.15176263 0.16917212 -0.3924701 0.41308215 0.025223378
00000000: 9fd5 903e 5ff0 48be 9c07 493e 65f1 1d3e
00000010: 7cab 2fbe 18af 103d 3def ba3e f93f 87be
00000020: 2fb7 f63e d2e7 a4be 51d9 b03e ac6e 1ebd
00000030: ecb8 0d3e 1463 23be 3bc3 55be 614b d7be
00000040: fe55 bb3e e78e 4a3e e762 9c3e a0e2 ebbe
00000050: 01d8 6e3e 1069 63bf 2e43 ba3e 99ac 01be
00000060: 5241 dbbd 0bb7 45bf 97d0 1d3d 166e 963d
00000070: 343c 01bf 669e cfbe f2af 813e 0ae3 e33d
00000080: 47fd 133e bbc3 f8be b69c dcbe 53a1 ccbd
00000090: aa34 c93b 3674 e53d e8e4 0bbf 6b00 48bc
000000a0: b61f 12bf 955d cabe cb2e d1be 7593 69be
000000b0: c2cc 1f3e d0fa a53e ce66 f0bf c308 07be
000000c0: 23d9 6f3e cc49 ff3d f21a c53e 11e1 f2be
000000d0: 0185 59be 521e a4be 2ccc c6be 559e 733e
000000e0: 85ee 083e a970 303e 601a 1fbd 96b8 683e
000000f0: b94d d3bc 793c b2be 1368 c23e 0ad0 e13d
00000100: 0ff2 0a3d baaf e5bb 8ba2 7dbd ec22 1abf
00000110: 2f91 3ebf f654 fe3d 8cc7 8fbe 781d a2bd
00000120: d37f 163f b7c7 28bf 0595 bd3d 7e28 f5be
00000130: b99d 793e f272 96be a07c b13d 55f0 abbd
00000140: ecd4 d7be 39c4 823d d237 fcbd 1bb4 1cbf
00000150: 9cf5 cfbd bee7 4fbe 4475 4fbd c3ea 55be
00000160: 14d5 5fbe d3bb e63d f19e 80bd eef7 07be
00000170: 4412 b7be e859 5dbd d281 5a3e 9037 b1be
00000180: f39d 0d3e 078d ccbe e93f b43c ab28 a13d
00000190: 8458 ba3e da54 e4bd eac4 efb9 6b46 69be
000001a0: 2f18 c4be 6e78 9fbe 64c1 8a3d b0f5 e4bd
000001b0: d1ef 683d af11 68be 059a 6b3d 01a9 153f
000001c0: e88b 803d 62ea e8be 2934 9cbf 7f9a 4f3f
000001d0: efb8 3f3e 001b 61be 69e2 90bd 7e2a ffbd
000001e0: 5483 74be 6dd2 bdbc dd06 e93e be8f 05be
000001f0: d73e 28be 7e8c 803d 0e9a b0bd c7a3 a23c
00000200: 0295 073e b12f 4cbf 25c0 2e3e 091d 6cbd
00000210: 8d56 0b3d 35a2 32be 6583 1dbb d19c 86be
00000220: 8be5 a7be afdf c83d abcc 3bbd bbc4 1cbe
00000230: 3b64 adbd 52ee a9be eea4 8b3e 172a 323e
00000240: bc1c e53d 9f55 033d 6929 dfbc d2b0 133f
00000250: eb62 383f ebf8 643e ec05 2b3d 5c95 8e3c
00000260: 46f2 5dbe 0061 953d dfb3 5ebe 3d4a 3f3f
00000270: 58a2 523e edda b53c 5c16 053e 1f63 ec3c
00000280: cb82 143e 3b98 103d ae37 f5bd 2732 79be
00000290: 6a3a 793e 6567 953d becd a7be b810 3abd
000002a0: 3c87 1abf 25c1 08be 36e8 953e d2d5 dbbe
000002b0: 882c 103e 6a0f 16bf de2b 4abe 27ff 263c
000002c0: 7542 49bd c29c 823d d79f c1be 36c2 d4be
000002d0: 200f a8be efad f93d 538a b6bb 24f1 1fbf
000002e0: 0fc4 4f3e 3227 563e fde0 013e 75d2 e0bd
000002f0: 771a f9bd abe7 853e 4aa8 673e f593 8dbe
00000300: 44b7 41bf 5590 553e 2b58 e1be d948 113e
00000310: f6f7 c2be 85ed ed3e 6a95 05bf db1f c63d
00000320: d9df 68be 9b06 7bbe 2619 8cbe ce75 243f
00000330: f687 d2bb c83e 9dbe d203 babe 4186 103e
00000340: c8d2 2cbe 92a0 cbbe 72d4 29be e199 34be
00000350: e689 b5be d63f 523d c275 6a3d e7d4 613e
00000360: 9fdd a8be d5b8 763e f2fa 673f eda3 0cbf
00000370: eda0 80be abf9 8abe 5a45 a73c be85 fa3c
00000380: 5838 313e fe64 213e 93b1 2ebe 3e56 bdbd
00000390: ed57 ba3d 4731 c53e 6c2e 0f3d dc7a f03e
000003a0: 152f 043e 927b 3abf 7ab1 9abc f411 d43e
000003b0: 922d 083e 624c aa3e e54c 7c3e 6746 6dbd
000003c0: 4b9f 453e fe70 ca3e 6ae8 1ebf da7a d23e
000003d0: 4757 433b 7946 c43e 3059 11bf b145 ab3d
000003e0: e0df 0a3d 09db 3fbf 83d1 853e aa67 1b3e
000003f0: 753b 2d3e d7f1 c8be 817f d33e 42a1 ce3c

fc2.bias f4 [132]
-0.038184825 -0.011649872 0.0691128 0.033672016 0.025158178 0.010029945 -0.07152339 -0.019170644
-0.04674511 -0.010914471 -0.01816916 -0.018084008 -0.059960738 -0.07868871 0.08520587 0.006077157
0.075370885 0.011349301 0.034770537 0.0667283 -0.06416836 -0.045391448 0.061647773 0.08005895
0.015575847 0.011299813 -0.008868625 -0.04621533 0.029757952 -0.08334542 -0.01756155 -0.007007218
-0.028466938 0.048866816 -0.0740065 0.07109139 0.032355618 -0.002238804 -0.029627468 -0.02105107
-0.014884174 0.07595922 -0.058008287 -0.04285816 -0.010826666 -0.026579328 0.023762787 0.076595485
0.058660395 -0.036917 0.060872834 -0.07960802 0.018294824 0.03685138 0.018307136 0.06876618
-0.011643982 0.0423874 -0.05121902 0.075561 0.060537826 0.01839688 0.025708346 0.080288455
0.039136734 0.07980407 0.031833895 0.05370954 -0.020281019 -0.0155249955 -0.041210048 -0.069278896
-0.06717212 0.068794616 0.03481607 0.04176865 -0.02903129 0.06393127 -0.0645761 -0.059091397
0.07925632 0.08415906 -0.06043131 -0.0037839347 -0.046714514 0.053323578 -0.024632864 -0.0752858
-0.023030428 -0.07298176 -0.038498405 -0.08682072 -0.039273918 -0.006792761 -0.024299463 0.047792763
0.05824389 -0.07768559 0.005418215 0.061693147 -0.056107666 -0.007970302 -0.06617957 0.08535738
-0.036431115 0.037778698 0.019109355 -0.007824017 0.024229852 -0.0123265125 0.013846647 0.08511251
0.038401447 0.00039343478 -0.079725854 0.0508804 0.054340236 0.012615355 -0.06961568 0.010817129
-0.08193962 -0.018392157 0.057841297 -0.01684025 0.062329367 0.03704124 0.06361728 -0.081379354
0.028252447 -0.029709196 -0.07131135 -0.06874859
00000000: b167 1cbd 1bdf 3ebc 038b 8d3d abeb 093d
00000010: 8618 ce3c a354 243c db7a 92bd c10b 9dbc
00000020: cd77 3fbd 9cd2 32bc 7dd7 94bc ea24 94bc
00000030: 6499 75bd 8c27 a1bd 6a80 ae3d e322 c73b
00000040: 0d5c 9a3d 6bf2 393c 8d6b 0e3d d9a8 883d
00000050: b36a 83bd 62ec 39bd 6082 7c3d f2f5 a33d
00000060: d631 7f3c da22 393c b64d 11bc 494c 3dbd
00000070: f3c6 f33c 01b1 aabd 3ddd 8fbc ce9c e5bb
00000080: 7f33 e9bc 9228 483d b890 97bd 5d98 913d
00000090: 5387 043d e6b8 12bb 4eb5 f2bc 4b73 acbc
000000a0: c0dc 73bc 8290 9b3d 199a 6dbd 0a8c 2fbd
000000b0: 5462 31bc e4bc d9bc 2daa c23c 18de 9c3d
000000c0: e245 703d 4836 17bd cb55 793d 8809 a3bd
000000d0: 07df 953c 79f1 163d d9f8 953c 48d5 8c3d
000000e0: 66c6 3ebc 699e 2d3d 09cb 51bd babf 9a3d
000000f0: 83f6 773d 0eb5 963c 4f9a d23c 466e a43d
00000100: d74d 203d 5170 a33d 4264 023d 89fe 5b3d
00000110: 6124 a6bc 8d5c 7ebc decb 28bd 18e2 8dbd
00000120: 8991 89bd 31e4 8c3d 4c9b 0e3d 9b15 2b3d
00000130: 07d3 edbc 66ee 823d 7940 84bd d209 72bd
00000140: 2351 a23d 965b ac3d d286 77bd e4fb 77bb
00000150: b857 3fbd d369 5a3d dcca c9bc 712f 9abd
00000160: 4faa bcbc 7677 95bd 81b0 1dbd 10cf b1bd
00000170: b0dd 20bd cf95 debb ab0f c7bc 58c2 433d
00000180: 2591 6e3d 9f19 9fbd 488b b13b f4b1 7c3d
00000190: 27d1 65bd df95 02bc 2889 87bd dacf ae3d
000001a0: cb38 15bd d6bd 1a3d 398b 9c3c 4e30 00bc
000001b0: af7d c63c 24f5 49bc 0cdd 623c 784f ae3d
000001c0: d64a 1d3d ec45 ce39 4f47 a3bd f767 503d
000001d0: de93 5e3d a2b0 4e3c aa92 8ebd 543a 313c
000001e0: f6cf a7bd 26ab 96bc ffea 6c3d 90f4 89bc
000001f0: 144d 7f3d 8eb8 173d c749 823d 38aa a6bd
00000200: ad71 e73c b360 f3bc af0b 92bd 10cc 8cbd

bn2.weight f4 [132]
1.0185683 0.7298278 1.5702146 0.9546899 1.5958847 1.2656252 1.1512842 1.2691444
1.2462326 1.4004176 1.2647631 1.0619123 1.1432254 1.359138 1.2014242 1.4086726
0.91091156 0.96241903 1.4692273 1.1325006 1.2314953 1.5220488 1.3259753 1.6587627
1.5984275 1.0780826 1.2650676 1.3659595 1.0841581 1.2769995 1.044266 1.6313375
0.88884145 1.5568926 0.7714676 0.9954772 1.6913956 1.1376272 1.1568199 1.2390367
1.1399059 1.3059518 1.5080048 1.6126007 1.4234693 1.2404512 1.1519594 0.9335705
0.8723254 1.564978 1.5134876 0.9958645 1.1751617 1.5376376 1.5428598 1.1516534
0.9869173 0.8949892 0.80212355 1.1717426 1.6163778 1.4161162 1.043571 1.1394867
1.0065402 1.3810554 1.8864764 0.7648708 1.325124 1.4535985 1.0989747 1.4949986
1.038321 0.6868595 1.5034629 1.2205522 1.485744 1.1356162 1.1082482 0.95907265
0.9503761 1.4419343 1.6116852 1.4329127 1.4999841 1.1588775 1.1644609 0.8144618
0.95028883 1.2331649 1.3468128 1.1920456 1.3147811 1.547266 1.0115557 1.6665691
1.3042303 1.2159222 1.2161654 0.7986208 1.434873 0.90649974 1.4754144 1.2609438
1.1466908 1.7138516 1.2987616 1.0042628 1.2398195 0.85381705 1.0500182 0.8410334
1.6004711 0.9132342 1.7519618 1.2098206 1.3526597 1.3946469 1.2106483 0.7471684
1.2745416 1.2209688 0.78462315 1.8524548 0.7615785 0.9590684 1.2648003 1.6174791
1.1817855 1.1925914 0.9622045 0.9840613
00000000: 7260 823f ffd5 3a3f cbfc c83f 8f66 743f
00000010: f345 cc3f 0200 a23f 485d 933f 5373 a23f
00000020: 8d84 9f3f e240 b33f c2e3 a13f beec 873f
00000030: 3655 923f 3cf8 ad3f 45c8 993f 624f b43f
00000040: 8031 693f 1861 763f a40f bc3f c8f5 903f
00000050: a3a1 9d3f 7fd2 c23f 8fb9 a93f 5652 d43f
00000060: 4699 cc3f 9cfe 893f bced a13f c3d7 ae3f
00000070: b1c5 8a3f b874 a33f 82aa 853f abcf d03f
00000080: 1d8b 633f 4248 c73f e77e 453f 98d7 7e3f
00000090: a77f d83f c59d 913f ad12 943f c198 9e3f
000000a0: 70e8 913f 6e29 a73f 4d06 c13f b369 ce3f
000000b0: 3e34 b63f 1bc7 9e3f 6873 933f 7afe 6e3f
000000c0: b850 5f3f 3351 c83f f6b9 c13f faf0 7e3f
000000d0: b36b 963f 4fd1 c43f 6e7c c53f 6169 933f
000000e0: 9da6 7c3f 031e 653f f857 4d3f a9fb 953f
000000f0: 78e5 ce3f 4c43 b53f bc93 853f b3da 913f
00000100: 4fd6 803f 6cc6 b03f 0f78 f13f 93ce 433f
00000110: aa9d a93f 840f ba3f 34ab 8c3f 1d5c bf3f
00000120: b4e7 843f 06d6 2f3f 7971 c03f 0e3b 9c3f
00000130: dc2c be3f df5b 913f 14db 8d3f c985 753f
00000140: d94b 733f 4e91 b83f b34b ce3f af69 b73f
00000150: 7bff bf3f 1956 943f 0e0d 953f 9280 503f
00000160: 2146 733f 59d8 9d3f 5d64 ac3f f394 983f
00000170: bf4a a83f d00c c63f a87a 813f 2352 d53f
00000180: 05f1 a63f 57a3 9b3f 4fab 9b3f 6a72 4c3f
00000190: eba9 b73f 5e10 683f 61da bc3f 9b66 a13f
000001a0: c4c6 923f 7d5f db3f d23d a63f af8b 803f
000001b0: 68b2 9e3f c193 5a3f ff66 863f f74d 573f
000001c0: 3ddc cc3f b7c9 693f 4940 e03f 67db 9a3f
000001d0: f423 ad3f ca83 b23f 86f6 9a3f 6e46 3f3f
000001e0: 2e24 a33f b548 9c3f 10dd 483f 3d1d ed3f
000001f0: cff6 423f 8285 753f fae4 a13f 8e09 cf3f
00000200: bf44 973f d6a6 983f 0953 763f 71eb 7b3f

bn2.bias f4 [132]
-0.08830088 0.124605626 -0.5050419 -0.96272427 -2.2438936 -1.2345989 0.10977756 -0.7902814
-2.070968 -1.0970181 -0.120793335 -1.6097076 -0.6669456 -2.0087173 -0.7051333 -0.51205915
-0.10021966 0.1086554 -1.9049238 -1.1050602 -1.1613878 -1.4939344 -1.1892773 -1.1038424
-1.2113439 -0.032764602 -0.45112008 -1.4128689 -0.39776573 0.022672385 -2.0731704 -0.41685495
-0.9255719 -0.66782707 -0.24490258 0.12689242 -2.0490217 -0.8199612 -2.0721924 -1.2277951
-0.8484714 -2.2984612 -0.6330125 -0.38257352 -1.1416091 -0.98042 -1.7226843 0.04098803
-0.15655297 -1.0212933 -1.960001 -0.34638533 -0.48408243 -0.5300731 -0.14676552 -0.65217113
-0.405903 -0.34008417 0.13876262 -1.4585761 -2.1437333 -2.3419755 -0.01667765 -0.038348515
-0.10577725 -1.5861524 -3.080635 -0.28435048 -0.66252893 -0.753646 -0.7621408 -1.9990182
-0.20771496 -0.35415137 -0.4282743 -1.6287464 -0.17480573 -2.6766186 -1.1710896 -1.9565322
-0.44740945 -0.25108704 -0.7838841 -1.6856738 -1.8713558 0.14737844 -2.3309991 -0.12778516
0.11708946 0.0035824182 0.38532814 -1.6869794 -1.318039 -0.4502792 0.04498774 -0.81471807
-0.04849912 -0.22175318 -0.30073908 -0.5997149 -0.3640055 -0.47440436 -0.5011964 -0.8801158
0.37725934 -1.1274844 -1.0545062 -0.7879827 -0.126686 -1.0304868 -2.2737284 -0.25147623
-2.8803964 -0.57245445 -1.034035 -1.2275325 -0.21123081 -2.1933537 -0.72091126 -0.25019395
-0.50111216 -0.5819705 -0.4086238 -1.1340487 0.097833835 -0.8678905 -0.51054776 -0.77075964
-0.78348356 -0.8768619 -0.15905619 -0.10623825
00000000: 17d7 b4bd 3c31 ff3d 6d4a 01bf 1975 76bf
00000010: f49b 0fc0 5607 9ebf 0fd3 e03d e24f 4abf
00000020: bd8a 04c0 176b 8cbf 7f62 f7bd e60a cebf
00000030: f2bc 2abf d38e 00c0 9e83 34bf 4f16 03bf
00000040: f73f cdbd b986 de3d 8bd4 f3bf 9d72 8dbf
00000050: 5ba8 94bf 3e39 bfbf 3d3a 98bf b54a 8dbf
00000060: 510d 9bbf 2d34 06bd 36f9 e6be e3d8 b4bf
00000070: f3a7 cbbe 70bb b93c d3ae 04c0 036e d5be
00000080: 48f2 6cbf b7f6 2abf bec7 7abe 16f0 013e
00000090: 2c23 03c0 fae8 51bf cd9e 04c0 6428 9dbf
000000a0: 6c35 59bf fd19 13c0 1b0d 22bf ade0 c3be
000000b0: 3f20 92bf cefc 7abf eb80 dcbf 11e3 273d
000000c0: 6c4f 20be bdb9 82bf 50e1 fabf 6b59 b1be
000000d0: a7d9 f7be dfb2 07bf b349 16be b0f4 26bf
000000e0: 85d2 cfbe 831f aebe ca17 0e3e 9fb2 babf
000000f0: ed32 09c0 ede2 15c0 919f 88bc 5513 1dbd
00000100: bea1 d8bd 0b07 cbbf 2029 45c0 6396 91be
00000110: 7f9b 29bf f2ee 40bf a91b 43bf d4df ffbf
00000120: 3bb3 54be 5453 b5be c546 dbbe c37a d0bf
00000130: 4600 33be b84d 2bc0 44e6 95bf a66f fabf
00000140: da12 e5be 7b8e 80be a1ac 48bf 29c4 d7bf
00000150: 9688 efbf 60ea 163e 172f 15c0 1dda 02be
00000160: 99cc ef3d 01c7 6a3b bb49 c53e f1ee d7bf
00000170: 80b5 a8bf ff8a e6be 1145 383d 5d91 50bf
00000180: 03a7 46bd 4413 63be 79fa 99be ea86 19bf
00000190: ee5e babe 21e5 f2be 684e 00bf 454f 61bf
000001a0: 2328 c13e 6951 90bf 0ffa 86bf 3cb9 49bf
000001b0: fab9 01be fee6 83bf c484 11c0 7ec1 80be
000001c0: 6a58 38c0 608c 12bf 425b 84bf c91f 9dbf
000001d0: e44c 58be e85f 0cc0 a48d 38bf 6c19 80be
000001e0: e348 00bf 05fc 14bf 2437 d1be 8228 91bf
000001f0: 1b5d c83d 122e 5ebf 42b3 02bf 8150 45bf
00000200: 6192 48bf 057a 60bf a0df 22be 7193 d9bd

bn2.running_mean f4 [132]
-0.8673325 -0.5677998 -0.22782107 -0.24430157 0.8764962 0.39287177 0.34625858 -0.54347205
0.48324633 0.33950043 -0.7988438 0.2036912 0.627022 1.2437577 -0.15505925 -1.0222472
-0.14831376 -0.93076694 0.5051024 0.43498558 -0.11469271 0.58640826 -0.6388223 0.49193808
1.0403444 -1.3844815 -0.819256 0.3260713 -1.0908493 -0.51120377 0.22479178 0.53241897
0.100435205 -0.7109491 -0.67453307 -0.08258594 0.988595 -0.43522573 0.6802147 0.42393795
-0.22621669 0.66094285 -1.1686987 -0.06746705 0.70138425 0.008111123 0.54989797 -1.3584523
-0.700987 -0.16970557 0.69553655 -0.11818964 -0.3437882 -0.6476297 -0.6007013 -0.26820874
-0.56053334 -0.64008766 0.10834384 0.43427214 0.6269054 1.0838464 -0.89578253 -0.55544746
0.44268647 0.2777838 0.7793252 -0.23683897 0.13681336 0.91696507 -1.0281012 0.38653067
-0.819352 -0.2929065 -0.608259 0.7211842 -0.00051945745 0.91740733 -0.7763349 0.6672601
-0.47051322 -0.2966365 0.61071044 0.2626162 -0.557708 -0.18945944 0.51407254 0.7539273
-1.3188843 0.4025744 -1.1793916 0.16221322 0.5480434 0.42641747 -1.1594864 -0.62305975
-0.9244143 -1.054704 -0.10593534 -0.63514113 0.0048365407 -0.57546663 -0.7186842 0.69927394
-0.8421223 -0.28073397 0.53398055 -0.015022872 0.07574195 -0.0273053 0.396195 -1.3544483
0.5702024 -0.26534685 0.58309513 0.5942839 -0.575306 0.5558133 -0.8882117 -0.25001368
0.5357396 -0.27188283 -0.00051825383 0.46089742 -1.1352412 -0.36117387 -0.21431099 0.57174915
-0.04857084 0.13818239 -1.3214307 -1.3731631
00000000: 8109 5ebf 545b 11bf ed49 69be 312a 7abe
00000010: 0e62 603f 7d26 c93e ce48 b13e fc20 0bbf
00000020: 106c f73e 00d3 ad3e 0781 4cbf 6d94 503e
00000030: 8484 203f 7433 9f3f dac7 1ebe ffd8 82bf
00000040: 90df 17be be46 6ebf 644e 013f 6eb6 de3e
00000050: 03e4 eabd da1e 163f dc89 23bf 4fdf fb3e
00000060: 012a 853f b136 b1bf c3ba 51bf d1f2 a63e
00000070: f3a0 8bbf 40de 02bf d12f 663e 9c4c 083f
00000080: f9b0 cd3d c300 36bf 33ae 2cbf d122 a9bd
00000090: 9014 7d3f e8d5 debe 8d22 2e3f 650e d93e
000000a0: 59a5 67be 8d33 293f eb97 95bf 2a2c 8abd
000000b0: eb8d 333f 84e4 043c 1dc6 0c3f c4e1 adbf
000000c0: e273 33bf 4cc7 2dbe af0e 323f 690d f2bd
000000d0: 0205 b0be 0fcb 25bf 8fc7 19bf a852 89be
000000e0: 1d7f 0fbf c9dc 23bf 60e3 dd3d eb58 de3e
000000f0: df7c 203f 7bbb 8a3f 0152 65bf ce31 0ebf
00000100: cda7 e23e ae39 8e3e db81 473f ea85 72be
00000110: cd18 0c3e 39be 6a3f d298 83bf 59e7 c53e
00000120: 0dc1 51bf d7f7 95be ddb6 1bbf 879f 383f
00000130: 332c 08ba 35db 6a3f e2bd 46bf 8fd1 2a3f
00000140: 1ce7 f0be bde0 97be 8557 1c3f a175 863e
00000150: f4c5 0ebf a801 42be 429a 033f 6101 413f
00000160: 33d1 a8bf 3b1e ce3e 4ef6 96bf 391b 263e
00000170: 924c 0c3f 6453 da3e 0d6a 94bf d880 1fbf
00000180: 6aa6 6cbf 8a00 87bf a1f4 d8bd 9c98 22bf
00000190: d87b 9e3b c851 13bf b0fb 37bf 9e03 333f
000001a0: 5495 57bf 5dbc 8fbe f3b2 083f 7e22 76bc
000001b0: 981e 9b3d 5daf dfbc 12da ca3e 905e adbf
000001c0: c9f8 113f 8bdb 87be b945 153f fd22 183f
000001d0: 4147 13bf c849 0e3f d861 63bf cb01 80be
000001e0: 3b26 093f 3a34 8bbe 6ddb 07ba bffa eb3e
000001f0: 954f 91bf c8eb b8be 5774 5bbe 275e 123f
00000200: 38f2 46bd af7f 0d3e a424 a9bf cfc3 afbf

bn2.running_var f4 [132]
1.476935 0.9165115 0.82389593 0.3676724 0.9882838 0.59651047 0.6384983 0.48141897
0.82101095 1.3261329 2.1625185 1.0337075 0.8772521 0.7023403 0.30678955 1.2331761
0.28580874 3.8144317 1.0269716 0.9088643 0.33362782 1.2211726 0.51727337 1.3990489
1.0412028 1.5861614 1.4872596 1.1561489 0.79868245 0.9202341 1.1647406 0.8040658
0.63890064 0.35387447 1.1015745 0.86513764 1.0998843 0.22118321 0.87322426 1.261652
0.7576159 0.78055054 2.1385078 1.0971998 0.8896484 0.3382684 0.80253816 2.426355
1.4190758 0.6070457 0.70917106 0.5598187 0.48243675 0.31158864 1.1997875 0.48219383
0.49219757 0.43164036 0.5265937 0.8688771 0.9764694 0.89181703 1.319572 1.5870214
1.0149397 1.0583907 0.7039336 0.3413199 0.4454452 1.1862603 0.9754012 0.88985276
0.73199713 0.36969998 0.9876273 0.84071314 0.40770736 0.4225992 0.62455934 0.80061936
0.4848153 0.5006781 1.37988 0.7776158 1.0065042 1.2280596 0.84569794 1.2912589
2.742472 0.7011845 2.860841 0.6125424 0.998507 1.3549854 1.9991341 0.6115754
0.77617425 1.6903667 0.9931731 0.5906175 0.73309946 0.4127989 0.32519397 1.5045984
5.13233 0.7566456 0.69030213 0.48171836 0.80562186 0.63342595 0.48008722 1.4721522
0.76950055 0.571367 1.5442275 0.8043225 1.0229025 1.0907362 0.46136355 0.52533233
0.4912286 0.8121143 0.56200504 0.8067266 2.6179311 0.29436904 0.34922743 1.1935583
0.7103523 1.1256354 2.3421767 2.7398963
00000000: 350c bd3f 7fa0 6a3f d8ea 523f 8f3f bc3e
00000010: 2b00 7d3f e9b4 183f a074 233f 8c7c f63e
00000020: c62d 523f b9be a93f b466 0a40 8750 843f
00000030: 9893 603f 93cc 333f 8513 9d3e b7d8 9d3f
00000040: 8655 923e a61f 7440 ce73 833f 55ab 683f
00000050: 44d1 aa3e 624f 9c3f 076c 043f 0914 b33f
00000060: 2246 853f 5607 cb3f 865e be3f b0fc 933f
00000070: 7476 4c3f 7694 6b3f 3816 953f 42d7 4d3f
00000080: fe8e 233f 092f b53e 6500 8d3f a979 5d3f
00000090: 02c9 8c3f da7d 623e a08b 5f3f d07d a13f
000000a0: 1ef3 413f 29d2 473f 50dd 0840 0b71 8c3f
000000b0: ffbf 633f 8431 ad3e 2473 4d3f 6649 1b40
000000c0: 47a4 b53f 5967 1b3f 3c8c 353f 4750 0f3f
000000d0: f301 f73e 8c88 9f3e a392 993f 1ce2 f63e
000000e0: 5201 fc3e f7ff dc3e d8ce 063f bb6e 5e3f
000000f0: e6f9 793f 1f4e 643f bce7 a83f 8423 cb3f
00000100: 8be9 813f 5979 873f fe34 343f 7bc1 ae3e
00000110: 6511 e43e 61d7 973f e5b3 793f 64cd 633f
00000120: 2a64 3b3f 5149 bd3e 25d5 7c3f fa38 573f
00000130: 05bf d03e ec5e d83e 1fe3 1f3f 64f5 4c3f
00000140: b639 f83e 712c 003f e89f b03f d411 473f
00000150: 21d5 803f 0f31 9d3f a97f 583f f947 a53f
00000160: a984 2f40 d480 333f 0518 3740 94cf 1c3f
00000170: 289e 7f3f 2970 ad3f a0e3 ff3f 3590 1c3f
00000180: 5bb3 463f f05d d83f 9840 7e3f b532 173f
00000190: 68ac 3b3f 615a d33e d37f a63e ae96 c03f
000001a0: 0c3c a440 87b3 413f a4b7 303f caa3 f63e
000001b0: 3c3d 4e3f 3428 223f fecd f53e 7c6f bc3f
000001c0: fdfd 443f 1c45 123f 3fa9 c53f 14e8 4d3f
000001d0: 78ee 823f 3e9d 8b3f d837 ec3e 2e7c 063f
000001e0: 5182 fb3e b9e6 4f3f 90df 0f3f a285 4e3f
000001f0: 2f8c 2740 8ab7 963e f0cd b23e 85c6 983f
00000200: a6d9 353f d214 903f 39e6 1540 765a 2f40

fc3.weight f4 [4, 132]
0.38296553 -0.1462756 -0.07278544 -0.16903451 -0.8514209 0.031083968 -0.4541197 -0.5111498
0.31642655 0.39126658 -0.37734663 -0.42488083 0.29119948 -0.75378865 0.7716603 -0.5325969
0.58815897 -0.19317289 1.491394 -0.87997544 -0.13344322 -0.3306591 0.3410363 0.3305617
-0.10751104 0.1771987 -0.2714306 0.20257993 -0.2193288 -0.5007513 -1.1376681 -0.9515096
0.24157867 0.47990727 0.1112336 -0.8788622 0.46389064 -1.0401089 -0.8040783 -0.40520936
0.86885047 -0.061314367 -0.70787376 0.3366354 1.007757 0.07485083 -0.64790034 -0.051797774
0.21890843 -0.838325 -0.411213 -0.46493337 1.1176764 -0.72371465 0.6132043 0.42297947
-1.1450616 -0.6823449 0.5879781 -0.00544736 1.009762 -1.4823256 0.5481894 -0.4683008
0.31662446 -0.025293656 -0.7298384 0.3704863 -0.6425686 0.97798425 0.30117676 -0.24189903
0.08380927 0.15193284 -0.47616515 0.3688745 0.40633312 -1.1506042 0.32906097 -0.003102775
-0.9276188 1.0077494 0.6463243 1.2415223 1.4293503 -0.61066544 -0.63114995 0.7344527
0.059580076 0.21841155 -0.36683738 0.42722666 0.5322797 0.5587713 0.15759547 -1.3284479
0.67810047 -0.020659398 0.121582985 0.6455766 -0.031687476 0.30513915 0.960699 0.009011118
0.4571025 -1.0709121 0.7193586 -0.3788378 -0.6784799 -0.22815304 1.7904818 0.5805471
-0.38837588 -0.11868565 0.025750132 0.28392297 -0.123492755 0.011599163 0.37795916 0.5898887
0.44360808 -0.1006193 0.18506742 -0.29168323 0.23619446 -0.58968425 -1.0169935 0.08118981
-0.28149807 -0.41873062 -0.21254936 -0.42024702 -0.06841612 0.4133745 -1.5081583 -0.5161396
-1.1959761 -0.19788185 0.8396498 1.2346414 -0.20893095 -0.54719025 1.1829596 0.052268505
0.6555956 0.6424885 0.55653423 -1.1454222 0.5375267 -0.25282946 -0.80639666 0.09394511
0.488389 -0.43551213 0.07742852 0.60360503 0.085553944 0.7576822 0.8533565 -0.065877646
-0.187641 0.5008085 0.3967129 -0.0077045867 0.18691805 -0.9197033 -0.30873987 0.0035849384
-0.6714136 -0.0951178 0.42253336 0.33632264 0.2846274 -0.41440892 -0.28255728 -0.2771189
1.1552067 0.4258649 -0.11518404 0.6715535 -0.35619277 -0.19657122 -1.2871513 -0.2679418
0.063259475 0.75387603 -0.8455201 1.1786269 0.24803157 -0.52283573 0.34321478 -0.19970554
0.35707992 0.4833541 0.3445485 -0.0082733575 0.308222 -0.07543902 -0.74743825 0.22590588
-1.5871634 -0.18383282 -0.13491891 1.7364335 0.53661203 -0.14209385 -0.51261854 -1.3610604
-0.830944 -1.812293 -0.6692388 -0.06771231 -0.14369316 0.12161892 0.48275262 -0.9779667
1.0364689 0.07236172 -1.2636553 0.0805111 0.43869418 -1.3745416 -0.7151805 0.5867191
1.4118259 0.70671564 -0.32698813 -0.143469 0.32367232 1.1652111 -0.8188979 -0.8448027
0.4287115 0.2890544 -0.6131431 0.33058146 0.51453227 -0.38323092 0.67158204 0.5718001
0.3903503 0.38218054 -0.14326361 0.5871951 1.0824202 0.44878072 0.7419752 0.67260367
-0.44113004 -0.47481468 -1.1612145 0.047926698 -0.5592438 0.8135787 -0.46676275 -0.6764727
00000000: 0f14 c43e 45c9 15be 8810 95bd 6217 2dbe
00000010: b8f6 59bf cea3 fe3c 6182 e8be b7da 02bf
00000020: a902 a23e 1854 c83e 9433 c1be fb89 d9be
00000030: 1918 953e 4bf8 40bf 888b 453f 4558 08bf
00000040: 9691 163f 1dcf 45be 00e6 be3f 1246 61bf
00000050: 57a5 08be 264c a9be 4f9c ae3e 623f a93e
00000060: c02e dcbd 9373 353e f4f8 8abe 1d71 4f3e
00000070: bb97 60be 3d31 00bf 1c9f 91bf 2296 73bf
00000080: 6660 773e 68b6 f53e 71ce e33d 1dfd 60bf
00000090: 1383 ed3e 4a22 85bf 13d8 4dbf 9a77 cfbe
000000a0: fc6c 5e3f c624 7bbd 3737 35bf 7a5b ac3e
000000b0: 2efe 803f 644b 993d ccdc 25bf e729 54bd
000000c0: 8829 603e 789c 56bf 838a d2be bf0b eebe
000000d0: 0510 8f3f 5d45 39bf f5fa 1c3f c490 d83e
000000e0: 6191 92bf 28ae 2ebf bc85 163f c57f b2bb
000000f0: e23f 813f d8bc bdbf 2456 0c3f 1fc5 efbe
00000100: 9a1c a23e a434 cfbc b0d6 3abf 61b0 bd3e
00000110: 607f 24bf 2d5d 7a3f d733 9a3e 61b4 77be
00000120: 32a4 ab3d 4894 1b3e ebcb f3be 1edd bc3e
00000130: e50a d03e 0047 93bf ae7a a83e ed57 4bbb
00000140: 6d78 6dbf effd 803f 8275 253f 34ea 9e3f
00000150: f3f4 b63f 9254 1cbf 0b93 21bf 1805 3c3f
00000160: 3d0a 743d 47a7 5f3e 1cd2 bbbe 74bd da3e
00000170: 7b43 083f a30b 0f3f b560 213e 950a aabf
00000180: fe97 2d3f e63d a9bc 8000 f93d 8244 253f
00000190: baca 01bd 333b 9c3e 5ff0 753f 5ea3 133c
000001a0: 5709 ea3e a613 89bf e327 383f 07f7 c1be
000001b0: dcb0 2dbf f3a0 69be 822e e53f bc9e 143f
000001c0: 34d9 c6be 7611 f3bd f1f1 d23c 5a5e 913e
000001d0: c5e9 fcbd 6a0a 3e3c dd83 c13e f202 173f
000001e0: 9920 e33e 7e11 cebd 5082 3d3e 8157 95be
000001f0: f6dc 713e 8cf5 16bf d82c 82bf d846 a63d
00000200: 8420 90be dc63 d6be 8aa6 59be 9e2a d7be
00000210: c01d 8cbd d3a5 d33e 550b c1bf ba21 04bf
00000220: bf15 99bf 8aa1 4abe 4af3 563f bb08 9e3f
00000230: fff1 55be a914 0cbf 386b 973f 8017 563d
00000240: 1dd5 273f 207a 243f 0779 0e3f 329d 92bf
00000250: 5a9b 093f dd72 81be 0370 4ebf 4b66 c03d
00000260: 1f0e fa3e 72fb debe d892 9e3d dc85 1a3f
00000270: e836 af3d 76f7 413f 9275 5a3f dcea 86bd
00000280: f624 40be fc34 003f f41d cb3e c276 fcbb
00000290: 7267 3f3e ad71 6bbf 2713 9ebe 49f1 6a3b
000002a0: c3e1 2bbf 1fcd c2bd 4b56 d83e 7b32 ac3e
000002b0: afba 913e 682d d4be 59ab 90be 87e2 8dbe
000002c0: d0dd 933f f70a da3e 9ce5 ebbd eeea 2b3f
000002d0: e65e b6be f749 49be 60c1 a4bf ab2f 89be
000002e0: 2f8e 813d 05fe 403f 0174 58bf 3fdd 963f
000002f0: fdfb 7d3e 90d8 05bf d9b9 af3e 9c7f 4cbe
00000300: 2ed3 b63e 307a f73e a968 b03e fa8c 07bc
00000310: 46cf 9d3e c67f 9abd 1d58 3fbf df53 673e
00000320: 2c28 cbbf ac3e 3cbe 2f28 0abe 7443 de3f
00000330: 685f 093f 0d81 11be f83a 03bf 3a37 aebf
00000340: bfb8 54bf 38f9 e7bf 3c53 2bbf c0ac 8abd
00000350: 4d24 13be 5713 f93d 5a2b f73e 075c 7abf
00000360: 03ab 843f 6232 943d 75bf a1bf 01e3 a43d
00000370: 869c e03e fbf0 afbf 1216 37bf 3933 163f
00000380: b6b6 b43f 51eb 343f fd6a a7be 8ae9 12be
00000390: 61b8 a53e a325 953f 4ba3 51bf fd44 58bf
000003a0: 1380 db3e f0fe 933e f2f6 1cbf f941 a93e
000003b0: 63b8 033f d836 c4be cdec 2b3f 7e61 123f
000003c0: ffdb c73e 2bad c33e b2b3 12be 6b52 163f
000003d0: bf8c 8a3f 96c6 e53e 16f2 3d3f c12f 2c3f
000003e0: ccdb e1be e91a f3be ada2 94bf c94e 443d
000003f0: 9a2a 0fbf b246 503f 87fb eebe 512d 2dbf

fc3.bias f4 [4]
-0.12158781 -0.0143530145 0.0809976 0.02951936
00000000: 0803 f9bd e828 6bbc 12e2 a53d 96d2 f13c
