20Agents-goal_actor.pth (torch_old, 96800 bytes, 14 tensors)

fc1.weight f4 [132, 33]
0	0x3ece7ef0	0.4033122
1	0x3ecb2f69	0.3968461
2	0x3ea56bfe	0.32308954
3	0xbe11647a	-0.14198485
4	0x3da68d8f	0.08132469
5	0xbce37b9b	-0.0277689
6	0xbc91668f	-0.017749099
7	0xbdce665c	-0.10078117
8	0xbdbe9548	-0.09305817
9	0x3d2e7683	0.04259349
10	0x3cb81b2e	0.022473898
11	0x3dc3ca0d	0.095600225
12	0xbd8d97a1	-0.069136865
13	0xbebfdac6	-0.37471598
14	0x3ea7d26d	0.3277773
15	0xbee78860	-0.45221233
16	0xbcc6ede9	-0.024283366
17	0x3e2cb5fc	0.16866297
18	0x3a02db1d	0.0004991757
19	0xbcf0dbff	-0.029401777
20	0xbd41170a	-0.047141112
21	0x3dc24dea	0.09487517
22	0xbaa56d11	-0.0012621005
23	0xbddbe297	-0.10736578
24	0x3e031cc3	0.1280394
25	0xbdcc236e	-0.09967695
26	0x3e66b64b	0.22530477
27	0xbb0cc2d8	-0.002147844
28	0x3e788b9c	0.24272007
29	0xbd9feb3a	-0.07808538
30	0x3d9483fa	0.07251735
31	0x3da9a682	0.08283712
32	0xbe05ef78	-0.13079631
33	0x3e85f477	0.26163074
34	0x3ed79ff5	0.42114225
35	0xbe232c80	-0.15934944
36	0xbdd34ff3	-0.103179835
37	0x3cfb8981	0.030705215
38	0x3e81287d	0.25226203
39	0x3e82496b	0.25446638
40	0xbc4f0c21	-0.012637169
41	0x3eef4a66	0.4673645
42	0x3ef8ecf4	0.4861828
43	0x3e9e8d69	0.30967262
44	0xbeb7581c	-0.3580941
45	0x3ba78695	0.005112479
46	0xbcbe74c3	-0.023249036
47	0xbf06ea9b	-0.5270173
48	0xbc86d879	-0.016460644
49	0xbe285c51	-0.16441466
50	0xbd601699	-0.05470905
51	0x3dcfa781	0.10139371
52	0xbd73fab5	-0.059565265
53	0xbe6b1f6e	-0.22961208
54	0x3e8877d7	0.2665393
55	0xbdbf48bf	-0.09340047
56	0x3f0d778f	0.55260557
57	0xbe06ce6c	-0.13164681
58	0xbe772803	-0.24136357
59	0xbe3d2ab0	-0.18473315
60	0x3cea4fd1	0.028602513
61	0x3e54b591	0.20772387
62	0xbd8dd1ce	-0.06924783
63	0x3da6b926	0.08140783
64	0x3c626620	0.013818294
65	0xbf01f8bb	-0.5077016
66	0x3e82bd9b	0.25535282
67	0x3f506c6b	0.8141543
68	0x3ea34c80	0.31894302
69	0xbdf51128	-0.11966163
70	0x3d747d75	0.059689958
71	0xbc34cefb	-0.011035676
72	0x3e4b1d68	0.19835436
73	0xbdede940	-0.116167545
74	0xbe2ed6a3	-0.17074065
75	0x3e506f16	0.20354876
76	0xbdba78fe	-0.09105109
77	0x3e46c3ae	0.19410583
78	0xbdef5ef9	-0.116880365
79	0xbe1e5366	-0.15461501
80	0xbd9d4383	-0.076788925
81	0xbf2211d9	-0.63308483
82	0x3e55bb57	0.20872246
83	0xbd25702c	-0.04039018
84	0xbd0b8368	-0.034060866
85	0xbdb59398	-0.08866042
86	0xbb2da281	-0.0026494565
87	0xbd60bc6f	-0.054867204
88	0xbcc89928	-0.024487093
89	0x3b7cb17d	0.003855794
90	0x3d69fde5	0.0571269
91	0xbdeb903e	-0.115021214
92	0x3c9e5529	0.019327717
93	0xbca664c5	-0.020311723
94	0x3ebbf9f6	0.36714143
95	0xbd6009e9	-0.05469695
96	0x3d659749	0.05605248
97	0xbd50f398	-0.05101356
98	0x3ead5526	0.33854026
99	0x3f38e34c	0.7222183
100	0xbf12400c	-0.5712898
101	0x3e7ce9ee	0.24698612
102	0x3d280745	0.041022558
103	0x3e018ccb	0.12651365
104	0xbe9ee3c4	-0.31033146
105	0x3d90556d	0.07047544
106	0xbebd07f1	-0.3692012
107	0xbdc2fd32	-0.095209494
108	0x3cb141a4	0.021637745
109	0x3e47698e	0.1947386
110	0xbeb68ec7	-0.35655805
111	0x3de871a0	0.11349797
112	0x3da028e9	0.07820303
113	0xbd07bcda	-0.033139087
114	0xbcac62c2	-0.021043185
115	0xbd2e7873	-0.042595338
116	0x3abc569b	0.0014369072
117	0xbe00bbe2	-0.12571672
118	0xbe95d179	-0.29261377
119	0xbeaaa0b5	-0.33325735
120	0xbdd7ec77	-0.10543149
121	0x3f59b0c0	0.85035324
122	0xbed498a4	-0.41522706
123	0x3da13b06	0.07872586
124	0x3d007ba6	0.03136792
125	0xbe96146e	-0.29312462
126	0xbbf178f3	-0.0073691546
127	0x3cf4a2bc	0.029862754
128	0xbd94785f	-0.072495215
129	0xbd04492f	-0.032296356
130	0x3cc04b94	0.023473538
131	0x3e8b97ae	0.2726416
132	0x3ec556ee	0.38542885
133	0x3f6d56bb	0.92710465
134	0x3e64c973	0.22342472
135	0x3ea4ad0b	0.3216327
136	0x3dd2e862	0.1029823
137	0xbde6e09c	-0.112733096
138	0xbc3e03dd	-0.011597601
139	0x3e4cd2a1	0.20002224
140	0xbe2629ac	-0.16226834
141	0x3f233793	0.63756675
142	0x3edc9f7e	0.43090433
143	0x3ef9987b	0.48749146
144	0xbea34c68	-0.3189423
145	0xbe3b344a	-0.18281665
146	0x3c94ff64	0.018188186
147	0xbe572dfb	-0.21013634
148	0x3c9b2cfa	0.018942345
149	0x3de3bf34	0.111204535
150	0x3d398e46	0.0453017
151	0xbdb1a3a1	-0.08673788
152	0xbd5c08ec	-0.053719446
153	0xbd81d6ec	-0.06339821
154	0x3f2a3519	0.6648727
155	0xbe5c78ce	-0.21530458
156	0xbe9b7b9e	-0.3036775
157	0xbca213fc	-0.01978492
158	0xbc08f117	-0.008358262
159	0x3d1ceb4e	0.03831034
160	0x3e348072	0.17627123
161	0xbd894971	-0.06703461
162	0x3d971044	0.07376149
163	0xbd1aac00	-0.03776169
164	0x3f0c9248	0.5491071
165	0xbea56d19	-0.32309797
166	0x3f46b5fe	0.7762145
167	0xbe9ad2a8	-0.30238843
168	0x3d04c1dd	0.032411445
169	0xbd9233fa	-0.0713882
170	0xbbad0c0c	-0.005280977
171	0x3d48e7f3	0.04904933
172	0x3d8003b1	0.06250704
173	0x3e08bd56	0.13353476
174	0xbe6a1ea7	-0.22863255
175	0xbc0cab88	-0.008585818
176	0x3dcff449	0.101540156
177	0xbd951e6e	-0.072811946
178	0x3c86c8f2	0.01645324
179	0xbf7c6e9b	-0.9860627
180	0x3e7afc42	0.24510291
181	0xbd49ba16	-0.04924973
182	0xbdef9c84	-0.11699775
183	0x3ca76377	0.02043317
184	0x3ded692e	0.11592327
185	0xbde8c407	-0.11365514
186	0xbe01bf1a	-0.12670556
187	0x3dcdc40e	0.1004716
188	0x3c8855fb	0.016642561
189	0xbdebf31c	-0.11520979
190	0x3d528020	0.05139172
191	0x3ceec680	0.029147387
192	0x3c1095cc	0.008824777
193	0x3e17a723	0.14809851
194	0xbd769946	-0.060204767
195	0xbd107089	-0.035263572
196	0xbc52b018	-0.012859367
197	0x3dcf61fe	0.101261124
198	0x3df29960	0.1184566
199	0x3ed9ad6c	0.42515123
200	0xbec2afc8	-0.38024735
201	0xbe2cdb77	-0.16880594
202	0x3ed40aa8	0.4141438
203	0x3d92805a	0.07153387
204	0xbce86e6e	-0.02837297
205	0x3eadb50b	0.33927187
206	0xbd2566d6	-0.040381275
207	0xbe51eb28	-0.20499861
208	0xbc4e9203	-0.012608054
209	0xbc1de660	-0.009637445
210	0xbda5fb17	-0.08104532
211	0xbeb52c62	-0.35385424
212	0xbf189a90	-0.59610844
213	0x3e4f71a2	0.20258191
214	0xbdc7b030	-0.09750402
215	0x3d5887d2	0.052863903
216	0x3d8234f2	0.06357755
217	0x3da5036c	0.08057293
218	0x3dec938a	0.11551578
219	0x3d97595e	0.07390092
220	0x3e3234a7	0.17402898
221	0xbe5878bd	-0.21139808
222	0xbe5b049f	-0.21388482
223	0x3e8916bd	0.2677516
224	0x3e0702e0	0.1318469
225	0xbc4e149f	-0.012578159
226	0x3ea864f5	0.32889524
227	0xbdada149	-0.08478028
228	0xbd8e5dce	-0.069514856
229	0xbd99125c	-0.07474205
230	0x3f2d6c0e	0.67743003
231	0xbf2bb569	-0.67073685
232	0xbe9505a8	-0.29105878
233	0xbe8a8bfe	-0.2705993
234	0xbd35915f	-0.04432809
235	0xbe74d582	-0.23909572
236	0x3e0f54e6	0.1399723
237	0x3ccb34bb	0.024805417
238	0xbcffe6d2	-0.031237993
239	0x3e604880	0.21902657
240	0xbeb28b2c	-0.34871805
241	0x3d254210	0.040346205
242	0xbd087b43	-0.033320677
243	0xbdbb0323	-0.09131458
244	0x3e8d99ad	0.27656308
245	0xbe475ee8	-0.19469798
246	0x3e8f0938	0.2793672
247	0xbdae2217	-0.08502596
248	0x3db0841b	0.08618947
249	0x3e4a7414	0.19770843
250	0x3d7f86ac	0.062384292
251	0xbe59935f	-0.21247624
252	0x3cf697d2	0.03010169
253	0xbe02e0a8	-0.12781012
254	0xbb8d68af	-0.004315458
255	0x3c8755a8	0.016520336

fc1.bias f4 [132]
0	0xbd7ec95e	-0.062203757
1	0xbdaf14e3	-0.08548906
2	0x3d3060a1	0.043060903
3	0xbe24b2b7	-0.160838
4	0x3d183555	0.037160236
5	0x3d318a96	0.043345056
6	0xbe08c6a7	-0.1335703
7	0x3de5aed5	0.11214987
8	0xbe1e57a7	-0.15463124
9	0xbdcbf0f8	-0.099580705
10	0xbe30994c	-0.17245978
11	0x3e1f3289	0.15546621
12	0x3da135ed	0.07871614
13	0x3ca3f3ed	0.020013774
14	0xbe251efa	-0.16125098
15	0x3dc7695a	0.09736891
16	0xbdbb1c61	-0.09136272
17	0xbe16dba8	-0.1473223
18	0xbdc4795c	-0.0959346
19	0x3cd365be	0.02580535
20	0xbe24512d	-0.16046591
21	0x3e285263	0.16437678
22	0x3d41bab6	0.047297202
23	0x3e2f6b5c	0.17130798
24	0xbbca8a0b	-0.006181007
25	0x3d99d3f1	0.07511128
26	0x3da80230	0.08203542
27	0x3dece7c6	0.11567645
28	0x3d97ee8a	0.074185446
29	0xbe0ed716	-0.13949236
30	0x3e112d2d	0.1417739
31	0xbe00363f	-0.12520693
32	0xbd94d6d4	-0.07267538
33	0xbcf9c59d	-0.030489737
34	0x3d4b1c28	0.0495874
35	0x3de17ad8	0.11009759
36	0xbd9716f5	-0.073774256
37	0xbc0ee07d	-0.008720514
38	0xbd3138ca	-0.04326705
39	0x3da9226d	0.08258519
40	0x3cd22d60	0.025656402
41	0xbe0b5090	-0.13604951
42	0xbe25f20e	-0.16205618
43	0x3dbcb073	0.092133425
44	0xbb8dbccd	-0.0043254853
45	0x3e2201c5	0.15820988
46	0x3cd4e5e7	0.025988532
47	0x3e1f9635	0.15584643
48	0x3df441f8	0.11926645
49	0xbe250b26	-0.16117534
50	0x3e1f0a95	0.1553138
51	0xbe2e01b8	-0.16992843
52	0xbe084eb8	-0.13311279
53	0x3e0124ce	0.12611696
54	0x3e10121a	0.14069405
55	0x3c88bf34	0.016692735
56	0x3e15e389	0.14637579
57	0x3e284e5d	0.16436143
58	0x3e2e9518	0.17049062
59	0xbcb43b45	-0.022000918
60	0x3e21bff8	0.15795887
61	0x3de0791b	0.10960599
62	0x3e0ce396	0.13758692
63	0xbc9cde7c	-0.019149058
64	0x3d976553	0.07392373
65	0x3c383bd8	0.011244737
66	0x3d9b344e	0.07578336
67	0x3d31fd45	0.043454427
68	0x3dfbbd3f	0.12291955
69	0x3e2270fe	0.15863416
70	0x3e10ac4a	0.14128223
71	0x3d1b4015	0.03790291
72	0xbd202af3	-0.03910346
73	0xbdc143b7	-0.09436744
74	0x3dc599f9	0.096485086
75	0xbde0cbc0	-0.10976362
76	0x3c4d7f35	0.012542536
77	0xbc1d2b22	-0.009592803
78	0x3d81b000	0.063323975
79	0x3c8c99d9	0.017163204
80	0x3dc5cb43	0.0965791
81	0xbe0661ca	-0.13123241
82	0x3d122658	0.0356811
83	0x3d63bbec	0.05559914
84	0xbdf4626d	-0.11932836
85	0x3d69c33b	0.057070952
86	0x3e1a4e52	0.1506894
87	0xbd36b0e1	-0.04460228
88	0xbe07397c	-0.13205522
89	0xbd885fdd	-0.066589095
90	0x3e23ea98	0.16007459
91	0x3daa14c5	0.08304743
92	0xbd31309f	-0.04325926
93	0xbdc4eacd	-0.09615097
94	0x3c7c1c94	0.015387673
95	0xbe1c40b6	-0.1525906
96	0x3d40cd21	0.047070626
97	0xbe1207d3	-0.14260797
98	0xbd40940b	-0.047016185
99	0x3ce8c735	0.028415302
100	0xbdd37816	-0.10325639
101	0x3e17eb23	0.14835791
102	0x3d48da81	0.049036507
103	0x3d73a260	0.059481025
104	0x3dbfc854	0.093643814
105	0x3e300e5b	0.17192976
106	0x3c4c5dda	0.012473548
107	0xbd1ea886	-0.038734935
108	0x3c2f5258	0.010700785
109	0x3e054bc7	0.13017188
110	0xbe0c0ca1	-0.13676693
111	0xbd054a63	-0.032541644
112	0x3da1aaa2	0.07893874
113	0x3e13f8fa	0.14450446
114	0x3d8dc0de	0.06921552
115	0xbc9fb8fc	-0.019497387
116	0x3cb574a1	0.02215034
117	0xbd5d0b54	-0.05396588
118	0x3e2e301e	0.17010543
119	0x3bec4c43	0.0072112395
120	0x3da64487	0.08118539
121	0xbdbb31b0	-0.091403365
122	0x3e278f3b	0.16363232
123	0x3e16f1e8	0.14740717
124	0xbe2aff0f	-0.1669886
125	0xbdb1852b	-0.08667978
126	0x3e20c65c	0.15700668
127	0x3c835fea	0.016036946
128	0xbe181204	-0.14850622
129	0x3a854f39	0.0010170705
130	0x3e0e0af8	0.13871372
131	0xbce8d6a0	-0.028422654

bn1.weight f4 [132]
0	0x3f15d6e3	0.58531016
1	0x3e94791c	0.2899865
2	0x3f00b9ad	0.5028332
3	0x3e48cd4f	0.19609569
4	0xbdc75198	-0.0973236
5	0x3f0a2a0d	0.53970414
6	0x3f012ac8	0.50455904
7	0x3eaeaaa0	0.34114552
8	0x3eef5709	0.4674609
9	0x3ee5dd6b	0.4489549
10	0x3edbd5fa	0.4293669
11	0x3ea99ae0	0.33125973
12	0x3ef2689f	0.47345445
13	0x3f0a1405	0.539368
14	0x3f0a533c	0.54033256
15	0x3ed36143	0.41285142
16	0x3e87c04d	0.265139
17	0x3eac47e0	0.33648586
18	0x3ebf8896	0.37408894
19	0x3eca75b8	0.39542937
20	0x3edb4ab0	0.4283042
21	0x3ed926d6	0.42412442
22	0x3f20064e	0.6250962
23	0x3edafa7c	0.4276923
24	0x3f2cab28	0.67448664
25	0x3e722b1e	0.2364926
26	0x3ed81c44	0.42209065
27	0x3f23c27f	0.6396865
28	0x3f033caa	0.5126444
29	0x3e900427	0.28128168
30	0x3edafb65	0.42769924
31	0x3eef5089	0.4674113
32	0x3f2e97e9	0.68200547
33	0x3efa7fbc	0.4892558
34	0x3eee9335	0.46596685
35	0x3eabe6eb	0.33574614
36	0x3f20cd03	0.62812823
37	0x3f538080	0.8261795
38	0x3f1c76c7	0.6111874
39	0x3f232881	0.6373368
40	0x3ecf81e2	0.4052878
41	0x3ed56f70	0.41686583
42	0x3ef8cc82	0.48593527
43	0x3f033007	0.5124516
44	0x3f0d9af7	0.5531458
45	0x3ee8654b	0.4538978
46	0x3ec96d06	0.3934099
47	0x3f031bf7	0.51214546
48	0x3f08996e	0.53359115
49	0x3eb9d36d	0.36294118
50	0x3e85edbe	0.26157945
51	0x3ee5035c	0.44729125
52	0x3efa9a97	0.48946068
53	0x3eb1923e	0.34681886
54	0x3efa4d18	0.48886943
55	0x3ee76e18	0.45201182
56	0x3ea82b52	0.3284555
57	0x3f0c6fdf	0.548582
58	0x3ef98a63	0.48738393
59	0x3ebfba9e	0.37447065
60	0x3efa2905	0.4885942
61	0x3f1fda41	0.62442404
62	0x3e9ce4b7	0.30643246
63	0x3f00e3dc	0.50347686
64	0x3ea18e19	0.31553724
65	0x3f1f15b2	0.6214248
66	0x3eca9617	0.39567634
67	0x3f364462	0.71198094
68	0x3f08df3c	0.5346563
69	0x3f0942b7	0.53617424
70	0x3e91cb9d	0.28475657
71	0x3e86832b	0.26271948
72	0x3eb5ddf6	0.35520905
73	0x3f062c5f	0.52411455
74	0x3ed0633c	0.4070071
75	0x3ed37c30	0.41305685
76	0x3eec63d2	0.46169907
77	0x3f0540da	0.5205208
78	0x3eae0ef5	0.33995786
79	0x3ec0f86b	0.37689528
80	0x3ef50ea4	0.47862732
81	0x3eb4ee3c	0.35338008
82	0x3ec7e0b5	0.39038625
83	0x3efcfcfc	0.49411762
84	0x3ef6729c	0.48134315
85	0x3f056176	0.5210184
86	0x3eb04fab	0.34435782
87	0x3f08a8bd	0.53382474
88	0x3e8896e3	0.26677617
89	0x3ec6df97	0.3884246
90	0x3f1cc2de	0.61234844
91	0x3ec4314f	0.3831887
92	0x3f03cbf7	0.514831
93	0x3ee5552e	0.4479155
94	0x3efe06fc	0.49614704
95	0x3eeaaf02	0.45836645
96	0x3f30ff05	0.6913913
97	0x3ea4082d	0.32037488
98	0x3f3111e5	0.6916793
99	0x3f07c9d7	0.5304236
100	0x3f446991	0.7672358
101	0x3f0638c0	0.52430344
102	0x3eec036d	0.46096364
103	0x3f082777	0.5318522
104	0x3ebcae72	0.3685184
105	0x3f11c258	0.5693717
106	0x3f03d1ae	0.5149182
107	0x3f07406f	0.5283269
108	0x3f0861d9	0.53274304
109	0x3ed80f84	0.42199337
110	0x3f1cd33d	0.61259824
111	0x3e83f594	0.257733
112	0x3f2a66bd	0.66563016
113	0x3f0acb17	0.5421614
114	0x3f1299d2	0.5726596
115	0x3ee54246	0.44777125
116	0x3f0ee7ff	0.5582275
117	0x3f0f0ad6	0.5587591
118	0x3f089e1b	0.5336625
119	0x3f837159	1.0268966
120	0x3e9eb93b	0.31000695
121	0x3eee32d8	0.46523166
122	0x3f0eeab8	0.558269
123	0x3eccfddd	0.40037432
124	0x3ed0826b	0.407245
125	0x3f41bd80	0.7567978
126	0x3eef7248	0.46766877
127	0x3f40db3a	0.75334513
128	0x3f3d4749	0.739369
129	0x3ee2d3ae	0.44302124
130	0x3ed59864	0.41717827
131	0x3ecb6326	0.39724082

bn1.bias f4 [132]
0	0xbf84e0b6	-1.0381076
1	0xbdd0345a	-0.10166235
2	0xbf8a8708	-1.0822458
3	0xbd7ac8fb	-0.061226826
4	0x3ec23ad3	0.37935504
5	0xbf0b2df6	-0.54367006
6	0xbe5f021d	-0.2177815
7	0xbed3bfd6	-0.41357297
8	0xbde9ad0d	-0.1140996
9	0xbf2ee03b	-0.683109
10	0xb8a79033	-7.99004e-05
11	0xbe94c20b	-0.29054293
12	0xbe37b648	-0.17940629
13	0xbed2921b	-0.41127095
14	0xbec5afa1	-0.38610557
15	0xbf47c01b	-0.78027505
16	0x3e014ddc	0.12627357
17	0xbe469cf0	-0.19395804
18	0xbefbd516	-0.4918601
19	0xbf580a6a	-0.8439089
20	0xbe9c6f81	-0.3055382
21	0xbe76a237	-0.24085318
22	0xbf0b920e	-0.54519737
23	0xbea1de82	-0.31615072
24	0xbeea2f75	-0.45739332
25	0xbe130f4a	-0.14361301
26	0xbecedffa	-0.40405256
27	0xbe88a179	-0.26685694
28	0x3dbac016	0.09118669
29	0x3d46a2b4	0.04849501
30	0xbede8bd6	-0.4346606
31	0xbee4bebf	-0.44676778
32	0xbe53bf65	-0.2067848
33	0xbe9c304f	-0.30505607
34	0xbeeb5f18	-0.45970988
35	0xbcc08a79	-0.023503529
36	0xbeaf276a	-0.34209758
37	0xbf1e15ea	-0.6175219
38	0xbf0bfa60	-0.54678917
39	0xbe427dac	-0.18993253
40	0xbe9f74c5	-0.31143776
41	0xbe96d7b6	-0.2946145
42	0xbf545fed	-0.8295887
43	0xbf06797e	-0.5252913
44	0xbef94719	-0.48687056
45	0xbf0d9d98	-0.55318594
46	0xbe13f3fc	-0.14448541
47	0xbdbd23d4	-0.09235349
48	0xbf904bdb	-1.1273149
49	0xbe54c38c	-0.2077772
50	0xbe04f276	-0.12983117
51	0xbe753b67	-0.23948441
52	0xbef39538	-0.47574782
53	0xbec134b2	-0.37735516
54	0xbebd7d13	-0.37009487
55	0xbe8a52c3	-0.27016267
56	0xbcf3c943	-0.029759055
57	0xbed0e46b	-0.4079927
58	0xbf0236b7	-0.5086474
59	0xbe881a72	-0.26582676
60	0xbec72a63	-0.38899526
61	0xbe73d234	-0.23810655
62	0xbe545297	-0.2073463
63	0xbe8ddaca	-0.27705985
64	0xbe5730cf	-0.21014713
65	0xbf480df1	-0.7814627
66	0xbf2cd81a	-0.67517245
67	0xbf764240	-0.9619484
68	0xbea850af	-0.32874057
69	0xbf4f0e24	-0.8088095
70	0xbe503aa4	-0.2033487
71	0xbf1c0039	-0.6093784
72	0x3e77aa73	0.24186115
73	0xbeee687d	-0.46564093
74	0x3f33df2e	0.7026242
75	0xbed4c861	-0.41559127
76	0xbf01532e	-0.5051755
77	0xbe8c1920	-0.2736292
78	0xbe2d0868	-0.16897738
79	0xbe3d3d30	-0.18480372
80	0x3c96adab	0.018393358
81	0xbeb8ecc0	-0.36118126
82	0xbf0433a8	-0.5164132
83	0xbe556b90	-0.20841813
84	0xbe4feb0f	-0.20304511
85	0xbe2d8571	-0.16945435
86	0xbef09667	-0.46989748
87	0xbedf9ba0	-0.4367342
88	0xbe25ac09	-0.16178907
89	0xbed339bd	-0.41254988
90	0xbecfb07b	-0.4056433
91	0xbe5ce1be	-0.21570489
92	0xbeb39c5e	-0.35080236
93	0xbf3bcae5	-0.7335647
94	0xbed77eef	-0.4208903
95	0xbda0a2c2	-0.078435436
96	0xbed5081f	-0.41607758
97	0xbe9d441d	-0.3071603
98	0xbfbd8949	-1.4807521
99	0xbe6da9e4	-0.2320934
100	0xbf0e0df2	-0.5549003
101	0xbe6e088b	-0.23245446
102	0xbe3e1724	-0.18563515
103	0xbee4f3b7	-0.4471719
104	0xbdcbd580	-0.09952831
105	0xbed2f22f	-0.41200396
106	0xbe797a42	-0.24363044
107	0xbebdd7e2	-0.37078768
108	0x3ce32ff9	0.027732836
109	0xbe2dec05	-0.16984566
110	0xbed2e808	-0.4119265
111	0xbe0cf808	-0.13766491
112	0xbf85cdbb	-1.0453409
113	0xbf036f09	-0.513413
114	0xbf2611d7	-0.6487097
115	0xbef657b3	-0.48113784
116	0xbe1bb00a	-0.15203872
117	0xbe5c5ad8	-0.21519029
118	0xbe4b0d03	-0.19829182
119	0xbfd03cdd	-1.6268574
120	0xbe85d62d	-0.26139966
121	0xbe6400ff	-0.22266005
122	0xbf163334	-0.5867188
123	0xbe87eb23	-0.26546583
124	0xbefb92a4	-0.49135315
125	0xbe9dafb0	-0.307981
126	0xbe1dcedb	-0.1541094
127	0xbf17c0d9	-0.5927864
128	0xbeba55df	-0.3639364
129	0xbe963fef	-0.29345652
130	0xbf7c3f93	-0.98534507
131	0xbeae98c3	-0.34100923

bn1.running_mean f4 [132]
0	0xc00f6871	-2.2407496
1	0x3f059f79	0.5219646
2	0xbfec963f	-1.8483351
3	0x3fa499c3	1.2859424
4	0xc01a212c	-2.4082747
5	0x3f9dc563	1.2325863
6	0x3f0c6a04	0.54849267
7	0x3fdb48c9	1.7131587
8	0xbf93595a	-1.1511643
9	0xbfc45c21	-1.5340616
10	0x3f198c60	0.5997982
11	0x3f78b9c6	0.9715847
12	0x3fa8c691	1.3185598
13	0x3ebe982f	0.37225482
14	0xc0060d06	-2.094545
15	0xbfb2fd25	-1.3983504
16	0x3f90ac76	1.1302631
17	0x3fdc3c23	1.7205852
18	0x3eadf15f	0.33973214
19	0xc0008740	-2.008255
20	0xc01e3613	-2.4720504
21	0x3fab4b58	1.3382368
22	0x3e781d6e	0.24229977
23	0x3fa6f35e	1.304302
24	0x3d4b5757	0.04964384
25	0x40128162	2.289147
26	0x3f05f9e6	0.5233444
27	0x3e097403	0.13423161
28	0x3ee656f9	0.4498823
29	0xbfca9fb0	-1.5829983
30	0x3ecad4bf	0.39615437
31	0xbec86df3	-0.39146385
32	0xbaf13cbb	-0.001840494
33	0x3fc156e8	1.5104647
34	0x3f400920	0.75013924
35	0xbea02bc0	-0.3128338
36	0x3f69ee55	0.9137929
37	0xbf0021fb	-0.5005185
38	0xbdcc4dde	-0.099757895
39	0x3f3a3f28	0.7275262
40	0xbf9880ba	-1.1914284
41	0x3f71a749	0.9439588
42	0xc08cfc73	-4.4058166
43	0xbe9619a3	-0.29316434
44	0x3e131e4b	0.14367025
45	0xbed89abc	-0.42305553
46	0xbf2f09d2	-0.6837436
47	0x3ea490bb	0.3214167
48	0x3f0a18a2	0.53943837
49	0x3ff4f391	1.913683
50	0x3fb9ac74	1.4505754
51	0x3f809d9d	1.00481
52	0x40245edd	2.56829
53	0x3db4b831	0.08824194
54	0xbedac31c	-0.42726982
55	0x3fe568f0	1.7922649
56	0x3f885c58	1.0653181
57	0xbf10bc47	-0.5653729
58	0x3e561444	0.20906168
59	0x3f3e140f	0.74249357
60	0xbfb59d0d	-1.4188553
61	0xbd2f73ce	-0.04283505
62	0xbf85720b	-1.0425428
63	0x3f06bab1	0.5262862
64	0x3eefd693	0.46843395
65	0xbf0c9b64	-0.5492461
66	0x3e9a9134	0.30188906
67	0xbf5d3da3	-0.86422175
68	0xbf280224	-0.65628266
69	0xbf88e6c1	-1.069542
70	0xbf9c2556	-1.2198894
71	0xbf784c0c	-0.9699104
72	0x3d3244c2	0.043522604
73	0xbfa4b437	-1.2867497
74	0x3f0704bc	0.527416
75	0xbe815d33	-0.25266418
76	0xbf99d1e8	-1.2017183
77	0x3f9f4880	1.2444
78	0x3fe97ee9	1.8241855
79	0x3ef3236a	0.47487956
80	0xbeeb22e1	-0.45925048
81	0xbf8367a2	-1.0266001
82	0xbf5722f6	-0.8403772
83	0xbe7cd587	-0.24690829
84	0x3e06650c	0.13124484
85	0x3fdddc46	1.7332847
86	0xbff0d9c2	-1.8816454
87	0x3d9a4b11	0.07533849
88	0xbf63fd26	-0.8905815
89	0xbeeeceed	-0.46642247
90	0xbdd7706c	-0.1051949
91	0xbedbaceb	-0.42905363
92	0x3eecbcd4	0.46237814
93	0x3fad95d3	1.3561348
94	0x3e04c2f2	0.1296499
95	0x3f35eb91	0.7106257
96	0x3e57662e	0.21035072
97	0xbf7e8a36	-0.99429643
98	0xbf0de65f	-0.55429643
99	0x3f9a1492	1.2037528
100	0xbd8d9bd3	-0.06914487
101	0x3fb3cc45	1.4046713
102	0x40075e8f	2.1151464
103	0x3f210f40	0.62913895
104	0x3f8e17fc	1.110107
105	0x3fc5fbf1	1.5467511
106	0x3dc6f07f	0.0971384
107	0x3f5196bd	0.81870633
108	0x3e372277	0.17884241
109	0x406ec7a0	3.7309341
110	0x3e796bcc	0.24357527
111	0xc04bd996	-3.1851554
112	0xbf946596	-1.1593502
113	0xbdd3b1b7	-0.10336631
114	0x3f19669a	0.5992218
115	0xbf0b6c0c	-0.5446174
116	0x3f18451a	0.5948044
117	0xbf5fb85b	-0.8739068
118	0x3ec9b40f	0.39395186
119	0xbf9afe3d	-1.2108837
120	0xbea8a5b5	-0.32938924
121	0x3f812801	1.0090333
122	0xbfc1d9ca	-1.5144589
123	0xc005794b	-2.0855281
124	0xbf300f17	-0.68773025
125	0xbe6ff5de	-0.23433635
126	0x3fa5749f	1.2926215
127	0x3f5d5ec2	0.86472714
128	0x3d86a334	0.06574097
129	0xbef18c6e	-0.47177452
130	0xbf47ccc7	-0.7804684
131	0xbec7774a	-0.38958198

bn1.running_var f4 [132]
0	0x3ffdc286	1.9824989
1	0x40f9185c	7.7842236
2	0x40115293	2.270665
3	0x409717c1	4.7216496
4	0x4063098c	3.5474577
5	0x40584f60	3.3798447
6	0x40e581fa	7.1721163
7	0x4097aaad	4.7395844
8	0x40a59a63	5.175096
9	0x40866079	4.1992764
10	0x41106063	9.023532
11	0x4160ee4f	14.058181
12	0x4165cf25	14.363072
13	0x40ca2288	6.3167152
14	0x415cd763	13.802585
15	0x40052947	2.0806444
16	0x40209912	2.5093427
17	0x40f847b1	7.7587514
18	0x40c26276	6.074519
19	0x40079f11	2.1190836
20	0x414e0127	12.875281
21	0x40b2a538	5.5826683
22	0x40cb25b2	6.3483515
23	0x413c6553	11.774737
24	0x411dc8ec	9.861553
25	0x408c9b6f	4.393974
26	0x4019cfb5	2.4033024
27	0x416416af	14.255538
28	0x3fa80041	1.3125077
29	0x410c3006	8.761724
30	0x4072c607	3.7933366
31	0x41198d06	9.59693
32	0x40ca24b4	6.3169804
33	0x40c7ff99	6.249951
34	0x40a750ce	5.228614
35	0x3f93ed93	1.1556877
36	0x4181c6cf	16.222075
37	0x40966f01	4.7010503
38	0x411098af	9.037276
39	0x40fcba2e	7.897727
40	0x41090de0	8.565887
41	0x4072f25a	3.796042
42	0x409f9e8f	4.9881053
43	0x411a0d8c	9.628307
44	0x40c3372a	6.100484
45	0x413c3732	11.763475
46	0x40eada1f	7.339126
47	0x40bdd72e	5.932517
48	0x4079bf7e	3.9023128
49	0x40bad107	5.838016
50	0x4052b0b6	3.2920356
51	0x40fb173b	7.8465858
52	0x40ba16b0	5.8152695
53	0x3fdf7ef4	1.7460618
54	0x40668585	3.6018994
55	0x41070aad	8.440106
56	0x40ff321c	7.974867
57	0x4158d6c8	13.552437
58	0x4168fb9c	14.561428
59	0x406d587c	3.7085257
60	0x412ec23f	10.922423
61	0x408caf25	4.39638
62	0x409e2778	4.942318
63	0x40af61fe	5.480712
64	0x40fef749	7.967686
65	0x401e4a2c	2.473277
66	0x4024f47c	2.5774221
67	0x401190ff	2.2744749
68	0x40cb3dd3	6.351297
69	0x3ff71f88	1.9306498
70	0x40222c16	2.5339408
71	0x404affa2	3.1718526
72	0x4003dfed	2.0605423
73	0x411d52bc	9.832699
74	0x3f61fadf	0.88273424
75	0x41d02570	26.01828
76	0x4029aac2	2.6510472
77	0x40cc0cb2	6.3765497
78	0x40864b58	4.196697
79	0x402a9f60	2.6659775
80	0x3faddbe1	1.3582727
81	0x415c2de8	13.761208
82	0x4090ef40	4.5292053
83	0x40263e4c	2.5975523
84	0x3fdfd6e5	1.7487456
85	0x410f551d	8.95828
86	0x411eced2	9.925493
87	0x40bb0cea	5.8453264
88	0x40c8c9ab	6.2746177
89	0x40ebb2a6	7.3655577
90	0x40554b18	3.3327084
91	0x4053e998	3.3111324
92	0x40d5edd4	6.6852818
93	0x41174762	9.454927
94	0x40922dc8	4.5680885
95	0x404e0fa6	3.219705
96	0x40922a14	4.5676365
97	0x40cfebb9	6.4975247
98	0x4010df75	2.2636387
99	0x4092edb4	4.5915165
100	0x40d3dab3	6.6204467
101	0x40982f1c	4.7557507
102	0x40b33d7e	5.6012564
103	0x40846573	4.137384
104	0x410d676b	8.837749
105	0x418cb8f7	17.590315
106	0x406fdae4	3.747735
107	0x418b1940	17.38733
108	0x3f8e27b6	1.1105869
109	0x40d0ff25	6.5311456
110	0x4061ae4f	3.526264
111	0x40ffb9a1	7.99141
112	0x4009172d	2.1420395
113	0x414ae84e	12.681715
114	0x405dc336	3.4650397
115	0x40f14e99	7.5408444
116	0x40caf225	6.3420587
117	0x41cbafab	25.460775
118	0x41121055	9.128987
119	0x3fc32dd5	1.5248362
120	0x41185e49	9.523019
121	0x403440fa	2.8164659
122	0x412b3840	10.701233
123	0x40e83242	7.256135
124	0x40a95525	5.2916436
125	0x3f786300	0.9702606
126	0x41026451	8.149491
127	0x41223227	10.137244
128	0x40864662	4.1960917
129	0x408a34ae	4.3189306
130	0x40877940	4.233551
131	0x40c4001e	6.1250143

fc2.weight f4 [132, 132]
0	0x3d685ffa	0.056732155
1	0xbd02105e	-0.03175389
2	0x3dbd2ef8	0.09237474
3	0x3c294d46	0.010333365
4	0xbe824888	-0.25445962
5	0x3e51979c	0.2046799
6	0x3ea7f813	0.32806453
7	0xbddc3440	-0.107521534
8	0x3eeeccca	0.46640617
9	0xbeda0ee7	-0.42589495
10	0x3e8309f4	0.2559353
11	0x3e22c6b4	0.15896112
12	0x3e27af11	0.16375376
13	0xbe148d8d	-0.14507122
14	0xbdba8bbe	-0.09108685
15	0xbf07a7b9	-0.529903
16	0x3eb2c527	0.3491604
17	0x3e25781e	0.16159102
18	0x3de587f9	0.11207575
19	0xbef54684	-0.47905362
20	0x3e7f4cd6	0.24931654
21	0xbf69bc45	-0.913029
22	0x3ef41e8f	0.47679564
23	0xbe311d23	-0.17296271
24	0xbdc83c16	-0.097770855
25	0xbec5611c	-0.3855065
26	0x3e8e1a65	0.27754512
27	0x3c5dbd2e	0.0135338735
28	0xbee90b46	-0.45516413
29	0xbeeb73d1	-0.45986798
30	0x3e099020	0.13433886
31	0xbd936398	-0.071967304
32	0x3c2116cd	0.009832096
33	0xbef00d06	-0.46884936
34	0xbdd6ee97	-0.10494726
35	0xbe1de5f0	-0.15419745
36	0xbdd65a4d	-0.10466442
37	0xbd8b8cf9	-0.06813998
38	0xbf09adb9	-0.53780705
39	0xbd89e449	-0.06732995
40	0xbf1b95a8	-0.6077523
41	0xbf07a139	-0.5298038
42	0xbee8695b	-0.4539288
43	0xbe8ed7b0	-0.27898932
44	0x3e546e03	0.20745091
45	0x3ece0e11	0.40245107
46	0xbfafe02d	-1.3740288
47	0xbcd777d8	-0.026302263
48	0x3e97103f	0.29504582
49	0x3df3b8e3	0.11900499
50	0x3e89a61b	0.2688454
51	0xbdc88802	-0.097915664
52	0xbdf29892	-0.11845507
53	0xbed3d3b5	-0.41372457
54	0xbeb4b65c	-0.3529538
55	0x3d735b9d	0.05941354
56	0x3e3f0a1d	0.18656202
57	0x3e5d8eef	0.21636556
58	0xbe1420e8	-0.14465678
59	0x3eaea558	0.34110522
60	0xbd305d9e	-0.04305803
61	0x3e3b4e88	0.18291676
62	0x3e7d21e5	0.24719961
63	0x3d8bce29	0.06826431
64	0x3d5dd1d6	0.054155193
65	0xbd34f128	-0.044175297
66	0xbe4d7a64	-0.2006622
67	0xbe5d7f74	-0.21630651
68	0xbf53e215	-0.8276685
69	0x3e072685	0.13198288
70	0xbe5cc497	-0.21559368
71	0xbe7c570f	-0.24642585
72	0x3ee35414	0.44400084
73	0xbf11fcef	-0.5702657
74	0xbd85eb8f	-0.0653907
75	0xbf49bf6c	-0.7880771
76	0x3e82516a	0.2545274
77	0xbe86420c	-0.26222265
78	0x3dccde50	0.1000334
79	0xbe7f24db	-0.24916403
80	0xbef65631	-0.48112634
81	0xbc9c33dc	-0.019067697
82	0x3e4d4fc1	0.20049955
83	0xbf17026b	-0.58988065
84	0xbe99a5b5	-0.30009237
85	0xbdfbcac8	-0.12294537
86	0xbe53709e	-0.20648429
87	0xbe7dcd27	-0.2478529
88	0xbed2c593	-0.41166362
89	0x3e985ec4	0.297598
90	0xbd32ba70	-0.043634832
91	0xbe166523	-0.14687018
92	0xbed670f9	-0.41883066
93	0xbdaf7049	-0.085663386
94	0x3e4072c2	0.18793777
95	0xbeba11e2	-0.36341769
96	0x3dbca217	0.09210604
97	0xbf16f94b	-0.5897414
98	0xbe3b0b93	-0.18266134
99	0x3dfb0429	0.12256653
100	0x3df9d9f9	0.12199778
101	0xbdef0841	-0.11671496
102	0x3d31aa2c	0.04337518
103	0x3ab1af5d	0.0013556291
104	0xbeae7775	-0.34075513
105	0xbe8018ac	-0.25018823
106	0x3e31bf2b	0.17358081
107	0xbd7a7b76	-0.061152898
108	0x3c620368	0.013794757
109	0xbececf19	-0.40392378
110	0xbc9afe32	-0.018920038
111	0x3f2a87c4	0.6661341
112	0xbe6291cf	-0.22125934
113	0xbeb02847	-0.3440573
114	0xbfc82829	-1.5637256
115	0x3ec4834a	0.38381416
116	0x3e1c906d	0.15289469
117	0x3cd12e2a	0.025534708
118	0x3d301238	0.042986125
119	0xbe19cd4b	-0.1501972
120	0xbea8ea15	-0.3299109
121	0xbdac2934	-0.08406296
122	0x3e9b8740	0.30376625
123	0x3e0640b3	0.13110618
124	0x3d92c77a	0.071669534
125	0x3c5fe441	0.01366526
126	0xbda823a9	-0.08209927
127	0x3d7c19c3	0.061548006
128	0xbbbfc547	-0.0058523747
129	0xbf44e49e	-0.7691134
130	0xbd164cbe	-0.03669428
131	0xbdf41220	-0.119175196
132	0xbe057723	-0.13033728
133	0xbe38c06b	-0.18042152
134	0xbdc552e2	-0.09634949
135	0xbe978b6d	-0.2959856
136	0xbe5cc4f6	-0.2155951
137	0xbdc1fad2	-0.09471668
138	0x3d2e05ce	0.042486005
139	0xbe10a1a1	-0.14124157
140	0xbe5c7345	-0.21528347
141	0xbecda55f	-0.4016523
142	0x3e18319e	0.14862677
143	0xbcdc538e	-0.02689531
144	0x3dd1b743	0.102400325
145	0xbe1f9882	-0.15585521
146	0xbec76218	-0.38942027
147	0x3ec7b3a7	0.3900425
148	0x3f38665f	0.72031206
149	0x3e600825	0.21878107
150	0xbd6391a0	-0.0555588
151	0xbe85d579	-0.2613943
152	0xbe15f5ce	-0.14644548
153	0xbdeb0b8c	-0.11476812
154	0xbe80d592	-0.2516294
155	0x3f265fb0	0.6498976
156	0x3dd0ca1e	0.10194801
157	0x3e16434c	0.14674109
158	0xbcd51585	-0.026011238
159	0x3d1505b0	0.036382377
160	0x3d0f5977	0.03499743
161	0x3ce19f1a	0.027541686
162	0xbec62275	-0.38698164
163	0xbd7788a2	-0.060433038
164	0x3e550425	0.20802362
165	0x3d9cb40e	0.0765153
166	0xbe07e48c	-0.13270777
167	0xbdc36bd0	-0.09542048
168	0xbecffe58	-0.40623736
169	0x3c35ad7f	0.011088728
170	0x3e8fd327	0.28090784
171	0xbee162fa	-0.44020826
172	0x3eb7753f	0.3583164
173	0xbeb4af8a	-0.35290176
174	0xbf4776a3	-0.779154
175	0x3da5e1d6	0.080997154
176	0xbd8ebf31	-0.069700606
177	0x3e225046	0.15850934
178	0xbea74835	-0.32672277
179	0xbed4cf00	-0.41564178
180	0xbeb44512	-0.35208946
181	0x3e3fdb2d	0.18735953
182	0xbd41044f	-0.04712325
183	0xbec35969	-0.38154152
184	0x3e64623a	0.22303095
185	0x3d6434f2	0.055714555
186	0x3d9d1ed8	0.076718986
187	0x3c0a2bbf	0.008433281
188	0xbe57bc96	-0.21068034
189	0x3ea6b6a7	0.32561228
190	0x3e198c64	0.14994961
191	0xbe9224b0	-0.28543615
192	0xbf53a659	-0.826757
193	0x3eb1929a	0.3468216
194	0xbe8ad58d	-0.2711605
195	0x3e72cf3b	0.23711865
196	0xbeca1665	-0.3947021
197	0x3e05f06b	0.13079993
198	0xbf10fe30	-0.5663786
199	0x3de8a97b	0.11360451
200	0xbe57541b	-0.21028177
201	0xbe9ddc74	-0.30832255
202	0xbe7f4b17	-0.24930988
203	0x3f148aae	0.5802411
204	0xbe0507e2	-0.12991288
205	0xbea5ee73	-0.32408485
206	0xbede3e0b	-0.4340671
207	0xbcc15cf3	-0.023603892
208	0xbdf59be4	-0.119926244
209	0xbeb29f28	-0.34887052
210	0x3beeeaec	0.0072911885
211	0xbe56b207	-0.2096635
212	0xbea6b276	-0.3255803
213	0xbd712f68	-0.0588831
214	0x3dd346e7	0.10316258
215	0x3b81cb8b	0.003961032
216	0xbe16419a	-0.14673463
217	0x3e43c09e	0.19116446
218	0x3f54a722	0.83067524
219	0xbe9fdd34	-0.31223452
220	0xbde40d57	-0.11135357
221	0xbe964d14	-0.2935568
222	0x3dfd8b1d	0.123800494
223	0xbe125598	-0.14290464
224	0x3e377d27	0.17918836
225	0x3cf9934c	0.030465744
226	0xbd1dff65	-0.03857364
227	0xbd9007b4	-0.07032719
228	0x3dc6cb5c	0.097067565
229	0x3e2dd4d6	0.16975722
230	0xbe966b7d	-0.29378882
231	0x3f06a30a	0.5259253
232	0x3d4e7d59	0.05041251
233	0xbf1ffccf	-0.6249513
234	0x3e57fddc	0.21092933
235	0x3ec65dbd	0.38743392
236	0x3dcdbdfe	0.10046004
237	0x3e75519c	0.23956913
238	0x3e0739bd	0.13205619
239	0x3e72ad76	0.23698983
240	0x3eb52929	0.35382965
241	0x3ee91c80	0.45529556
242	0xbf0d9143	-0.55299777
243	0x3ee680f8	0.4502027
244	0x3d5530b0	0.052048385
245	0x3e603844	0.21896464
246	0xbf1d8b6b	-0.6154086
247	0x3d34aff2	0.044113107
248	0x3d8c465d	0.06849358
249	0xbf45f5e3	-0.7732832
250	0x3d6107a5	0.05493893
251	0xba63eccb	-0.00086946477
252	0x3c1bd3c3	0.009510937
253	0xbece1f4e	-0.4025826
254	0x3eec520a	0.4615634
255	0xbd9b72c0	-0.07590246

fc2.bias f4 [132]
0	0xbd1bd6e5	-0.038046736
1	0xbc419d24	-0.01181725
2	0x3d8dc1eb	0.069217525
3	0x3d0d5ea2	0.034514077
4	0x3cd15371	0.025552483
5	0x3c1e7a90	0.009672776
6	0xbd91ca1c	-0.071186274
7	0xbc9cb283	-0.01912809
8	0xbd3caec6	-0.046065114
9	0xbc34feae	-0.0110470485
10	0xbc96088e	-0.018314626
11	0xbc96a986	-0.018391382
12	0xbd76af00	-0.060225487
13	0xbd9f5617	-0.07780092
14	0x3daedcac	0.085381836
15	0x3bb22a3a	0.0054371627
16	0x3d9ab65d	0.07554314
17	0x3c36a0cc	0.011146735
18	0x3d0eead3	0.034891915
19	0x3d88e373	0.066840075
20	0xbd8495a6	-0.06473856
21	0xbd371037	-0.044693198
22	0x3d7aea21	0.06125844
23	0x3da402e1	0.080083616
24	0x3c866afe	0.01640844
25	0x3c3e0ffa	0.011600489
26	0xbc15509d	-0.009113458
27	0xbd403674	-0.04692693
28	0x3cf4e013	0.029892003
29	0xbdab388e	-0.08360396
30	0xbc911a86	-0.017712843
31	0xbbd57369	-0.006514002
32	0xbce96bf0	-0.028493851
33	0x3d46d0ba	0.0485389
34	0xbd96458d	-0.073374845
35	0x3d91a4d8	0.071115196
36	0x3d02846e	0.031864576
37	0xbb05367b	-0.0020326662
38	0xbcf05894	-0.029339112
39	0xbcae1691	-0.021250995
40	0xbc74101a	-0.014896417
41	0x3d9c75af	0.07639634
42	0xbd6f0c79	-0.058361504
43	0xbd2f525f	-0.042803165
44	0xbc2bc0d0	-0.010482982
45	0xbcda1a22	-0.02662379
46	0x3cc0d38a	0.02353837
47	0x3d9cac74	0.0765008
48	0x3d6fc271	0.058535043
49	0xbd14a485	-0.03628971
50	0x3d75bc10	0.059993804
51	0xbda3395a	-0.07969923
52	0x3c9ad252	0.018899117
53	0x3d175bdf	0.03695285
54	0x3c98f383	0.018670803
55	0x3d8c843e	0.06861161
56	0xbc3ac273	-0.011398899
57	0x3d2dd4c6	0.042439245
58	0xbd53853b	-0.05164073
59	0x3d9ac549	0.075571604
60	0x3d769583	0.06020118
61	0x3c94ab9c	0.018148236
62	0x3cd25b73	0.025678372
63	0x3da3f11c	0.08004972
64	0x3d1ed8e2	0.038781054
65	0x3da382cd	0.07983933
66	0x3d01ed6e	0.03172057
67	0x3d5bfa17	0.0537053
68	0xbca8c876	-0.0206034
69	0xbc7c3a21	-0.015394718
70	0xbd25396d	-0.04033797
71	0xbd8e03b2	-0.069342986
72	0xbd8aee30	-0.06783712
73	0x3d8c51d0	0.06851542
74	0x3d0c9b03	0.03432752
75	0x3d2bae98	0.041914552
76	0xbcec9e0e	-0.02888396
77	0x3d84f96d	0.06492887
78	0xbd8062fb	-0.06268879
79	0xbd704d5b	-0.058667522
80	0x3da36139	0.07977528
81	0x3dac7026	0.08419828
82	0xbd72ed59	-0.059308384
83	0xbb65629f	-0.003500141
84	0xbd3d64c8	-0.04623869
85	0x3d59889f	0.053108808
86	0xbccaae47	-0.024741305
87	0xbd9a5ce7	-0.07537251
88	0xbcb96544	-0.022631295
89	0xbd95a58a	-0.07306965
90	0xbd1d7bd3	-0.038448166
91	0xbdb13c8f	-0.08654129
92	0xbd200044	-0.039062753
93	0xbbe509cf	-0.0069896947
94	0xbcc695b6	-0.02424131
95	0x3d4241d7	0.04742607
96	0x3d6dcc12	0.058055945
97	0xbd9f1ce8	-0.07769185
98	0x3bb2c40a	0.0054554986
99	0x3d7cf528	0.061757237
100	0xbd653af8	-0.05596444
101	0xbc067b8f	-0.00820817
102	0xbd861789	-0.06547458
103	0x3dae70bc	0.08517596
104	0xbd153de3	-0.036435973
105	0x3d1b094f	0.037850674
106	0x3c9e6bcc	0.01933851
107	0xbc0998af	-0.008398219
108	0x3cc4dc7e	0.02403092
109	0xbc48a1ae	-0.012245579
110	0x3c6e6d00	0.014552355
111	0x3daebb92	0.0853187
112	0x3d1e5af7	0.03866097
113	0x3992caa5	0.00027998272
114	0xbda3a8b6	-0.079911634
115	0x3d540be0	0.051769137
116	0x3d5cd546	0.05391433
117	0x3c51e44a	0.012810776
118	0xbd8d40b0	-0.06897104
119	0x3c2f35ef	0.010694011
120	0xbda7329a	-0.08163948
121	0xbc953d26	-0.018217634
122	0x3d6d516e	0.057938986
123	0xbc8ab4ce	-0.016931918
124	0x3d7f381b	0.062309366
125	0x3d186570	0.037206113
126	0x3d82e31a	0.063909724
127	0xbda71926	-0.081590936
128	0x3ce6acf5	0.028158644
129	0xbcf1bb02	-0.029508118
130	0xbd92b61d	-0.071636416
131	0xbd8ae9e7	-0.067828946

bn2.weight f4 [132]
0	0x3f8674e6	1.0504425
1	0x3f51407f	0.8173904
2	0x3fc4acf0	1.5365276
3	0x3f96175b	1.1725878
4	0x3fd6b998	1.6775389
5	0x3fa5ac10	1.2943134
6	0x3f96e16d	1.1787544
7	0x3faec47a	1.365371
8	0x3fb9eed2	1.4526007
9	0x3fcb5488	1.5885172
10	0x3f97864a	1.1837857
11	0x3f91a4a1	1.1378366
12	0x3faa0d8c	1.3285384
13	0x3fc22e67	1.5170411
14	0x3f94a5b3	1.1613067
15	0x3fb1a2e0	1.387783
16	0x3f80bd9e	1.0057867
17	0x3f910745	1.1330343
18	0x3fcee6d6	1.6164196
19	0x3f9aee5f	1.2103995
20	0x3fadb7b7	1.357169
21	0x3fcd8997	1.6057614
22	0x3fb60240	1.4219437
23	0x3fe7f58e	1.8121812
24	0x3fdf9f8c	1.7470565
25	0x3f86001e	1.0468786
26	0x3fafbb02	1.3728945
27	0x3fbb9087	1.4653481
28	0x3f9567d0	1.1672306
29	0x3fa260a2	1.268574
30	0x3f8907c4	1.0705495
31	0x3fd52798	1.6652708
32	0x3f879e4b	1.0595182
33	0x3fcd2403	1.6026615
34	0x3f43d893	0.7650234
35	0x3f5b3eff	0.85643
36	0x3ff3deb5	1.905234
37	0x3f9d2731	1.2277585
38	0x3fa119d2	1.2586005
39	0x3fa99b13	1.325045
40	0x3f9d1539	1.2272102
41	0x3fbd919c	1.4810061
42	0x3fc77612	1.5582907
43	0x3fdc2caf	1.7201136
44	0x3fbf1a6d	1.492994
45	0x3fb2c402	1.3966067
46	0x3f9b24f6	1.2120655
47	0x3f70d31b	0.9407212
48	0x3f6c37de	0.92272747
49	0x3fd79bc4	1.6844411
50	0x3fd07530	1.6285763
51	0x3f84ded8	1.0380507
52	0x3fa460fe	1.28421
53	0x3fc613b1	1.5474759
54	0x3fc53b3b	1.5408701
55	0x3fab04a0	1.3360786
56	0x3f6c0645	0.92197067
57	0x3f6893f5	0.90850765
58	0x3f57e53b	0.8433415
59	0x3fb5e553	1.4210609
60	0x3fe2b559	1.7711593
61	0x3fbff9d4	1.4998116
62	0x3f88a415	1.0675074
63	0x3f9de385	1.2335058
64	0x3f8cb545	1.0992819
65	0x3fc7acb3	1.5599579
66	0x400d636d	2.2091935
67	0x3f585bf2	0.845153
68	0x3fab2667	1.3371094
69	0x3fbab7cd	1.4587342
70	0x3f936e1a	1.1517975
71	0x3fcc8cc5	1.598046
72	0x3f843e06	1.0331428
73	0x3f5b2a41	0.8561135
74	0x3fbe5133	1.486853
75	0x3fb959fa	1.4480584
76	0x3fbca42e	1.4737604
77	0x3fbaa7fd	1.4582516
78	0x3fa30931	1.273718
79	0x3f89a3b5	1.0753084
80	0x3f876804	1.0578618
81	0x3faf8ffa	1.3715813
82	0x3fdedbb8	1.7410803
83	0x3fbb09b1	1.4612333
84	0x3fd73a72	1.6814711
85	0x3f9c1947	1.2195214
86	0x3f983439	1.1890937
87	0x3f4f2dc3	0.809292
88	0x3f7a1cd7	0.97700256
89	0x3f91ee97	1.1400937
90	0x3fca0a51	1.5784398
91	0x3fb0e004	1.3818364
92	0x3fbc3eeb	1.4706701
93	0x3fd52921	1.6653177
94	0x3f8d2e91	1.1029836
95	0x3fe3e0d5	1.7802988
96	0x3fb2599a	1.3933594
97	0x3f9c7eb6	1.2226169
98	0x3f9b7972	1.2146437
99	0x3f62df39	0.8862186
100	0x3fca192f	1.5788935
101	0x3f72c813	0.9483654
102	0x3fb0b6d1	1.3805791
103	0x3fae047a	1.3595116
104	0x3f9f0a79	1.2425071
105	0x3fef63c0	1.8702316
106	0x3fb5a9f9	1.4192497
107	0x3f89e6c9	1.0773555
108	0x3f9be214	1.2178369
109	0x3f77fb10	0.96867466
110	0x3f9f05a6	1.2423599
111	0x3f3c52e5	0.73563987
112	0x3fe76a83	1.807938
113	0x3f70c087	0.94043773
114	0x3ff4a5e1	1.9113122
115	0x3fb0c961	1.3811456
116	0x3faeab59	1.3646041
117	0x3fc633c2	1.5484545
118	0x3fa9f5f9	1.327819
119	0x3f4c201b	0.7973649
120	0x3fad01dc	1.3516192
121	0x3faf351b	1.3688082
122	0x3f58fe14	0.8476269
123	0x3ff611d1	1.9224187
124	0x3f642667	0.891211
125	0x3f803ca7	1.001851
126	0x3faa4142	1.3301165
127	0x3fdeae44	1.7396932
128	0x3f987a84	1.1912389
129	0x3faed34a	1.365823
130	0x3f81171b	1.0085176
131	0x3f809f5d	1.0048634

bn2.bias f4 [132]
0	0xbd3bda4e	-0.04586249
1	0x3e01bda6	0.12670001
2	0xbecc18c4	-0.39862645
3	0xbf489662	-0.78354466
4	0xbfffe0a4	-1.999043
5	0xbf9236e0	-1.1422997
6	0x3eb83412	0.35977226
7	0xbf2f8e15	-0.68576175
8	0xbfd0362a	-1.626653
9	0xbf287d4a	-0.65816176
10	0xbd3d94ec	-0.0462846
11	0xbfb449fb	-1.4085077
12	0xbf1a3b09	-0.6024633
13	0xbfd55a6a	-1.6668217
14	0xbf225826	-0.63415754
15	0xbec79f82	-0.38988882
16	0xbe27c40d	-0.16383381
17	0x3e0f8541	0.14015676
18	0xbfdb8e23	-1.7152752
19	0xbf4c3256	-0.79764307
20	0xbf74471d	-0.9542101
21	0xbf9d8f1b	-1.2309297
22	0xbf82b96c	-1.0212836
23	0xbf5d90eb	-0.8654925
24	0xbf6a7891	-0.9159022
25	0x3c69e2b4	0.014275242
26	0xbeac92fd	-0.33705893
27	0xbf95c298	-1.170001
28	0xbec17669	-0.37785652
29	0xbd868aa1	-0.0656941
30	0xc00722a8	-2.1114902
31	0xbeeca983	-0.46223077
32	0xbf32750f	-0.6970987
33	0xbf00d157	-0.5031943
34	0xbeadeae0	-0.33968258
35	0x3e5d8f41	0.21636678
36	0xbfd378c8	-1.6521235
37	0xbf37d9fd	-0.71817
38	0xbff7f3d1	-1.9371282
39	0xbf85e0a8	-1.0459185
40	0xbf272806	-0.65295446
41	0xbfebc454	-1.841929
42	0xbf2b6530	-0.66951275
43	0xbee29ae6	-0.44258803
44	0xbf82acc2	-1.0208972
45	0xbf4eca16	-0.8077711
46	0xbfc6fcce	-1.55459
47	0xbd8ea7c1	-0.0696559
48	0xbd8992f2	-0.06717481
49	0xbf4781e6	-0.77932584
50	0xbfc6faf6	-1.5545337
51	0xbec33f53	-0.3813425
52	0xbeb0fda7	-0.3456852
53	0xbed1a783	-0.40948114
54	0xbe239903	-0.15976338
55	0xbf130b49	-0.57439095
56	0xbeb21178	-0.34778953
57	0xbec216a7	-0.37907907
58	0x3d387621	0.04503453
59	0xbf95459a	-1.1661866
60	0xbfbf1adf	-1.4930075
61	0xc00b8ca5	-2.1804593
62	0x3e09039b	0.13380282
63	0xbdb15b97	-0.086600475
64	0x3a6f0984	0.00091185444
65	0xbf8deded	-1.1088234
66	0xc01acb68	-2.418665
67	0xbe0ad0d6	-0.13556227
68	0xbf09b86d	-0.53797036
69	0xbf3644aa	-0.71198523
70	0xbf3792cc	-0.7170837
71	0xbfe40f7c	-1.7817225
72	0xbed60a43	-0.41804704
73	0xbe877ebf	-0.26463887
74	0xbec498fa	-0.38397962
75	0xbfb966a8	-1.4484453
76	0xbeaec0de	-0.3413152
77	0xbff94b80	-1.9476166
78	0xbf5f577a	-0.87242854
79	0xbfd9d7b4	-1.7018952
80	0xbebdbf9b	-0.37060246
81	0xbd4cfeb0	-0.050047576
82	0xbf091a27	-0.5355553
83	0xbfc72c2b	-1.5560354
84	0xbfd7d740	-1.6862564
85	0xbc965fcb	-0.018356225
86	0xc0044acc	-2.0670652
87	0xbd84b950	-0.06480658
88	0xbcb6f3d2	-0.02233306
89	0xbe0512a1	-0.12995388
90	0x3edf355d	0.435954
91	0xbfa96a09	-1.3235484
92	0xbf6f4e34	-0.93478703
93	0xbe62e3f7	-0.22157274
94	0x3cdd59ca	0.027020354
95	0xbf37fe5b	-0.7187249
96	0xbd8fbafe	-0.07018088
97	0xbe83fc48	-0.25778413
98	0xbe40f992	-0.18845204
99	0xbebdb1f7	-0.3704984
100	0xbe99e037	-0.30053875
101	0xbf109f00	-0.56492615
102	0xbe3e4354	-0.18580371
103	0xbf4eebbd	-0.8082846
104	0x3ead67ff	0.33868405
105	0xbf66edab	-0.902064
106	0xbf6bf384	-0.9216845
107	0xbf38491e	-0.7198657
108	0xbda71dfa	-0.081600145
109	0xbf4aa6bd	-0.7916067
110	0xbff988de	-1.9494894
111	0xbe697fac	-0.22802609
112	0xc0132a47	-2.2994554
113	0xbf0b48ed	-0.5440815
114	0xbf556fb1	-0.8337355
115	0xbf712975	-0.94203883
116	0xbe8dcd60	-0.2769575
117	0xbfe2cccf	-1.7718753
118	0xbeff52f2	-0.4986797
119	0xbe8206b9	-0.25395754
120	0xbec7bfd7	-0.3901355
121	0xbeead8d6	-0.45868558
122	0xbeb66b82	-0.35628897
123	0xbf681db8	-0.9067035
124	0x3e198277	0.14991175
125	0xbf34a355	-0.70561725
126	0xbebd1765	-0.3693191
127	0xbed2f245	-0.41200462
128	0xbf44b814	-0.7684338
129	0xbf1eb11c	-0.61989
130	0xbe25fb54	-0.16209155
131	0xbe1b0625	-0.15139063

bn2.running_mean f4 [132]
0	0xbf6a993d	-0.91640073
1	0xbf49dfdc	-0.7885721
2	0xbe8e4d19	-0.27793196
3	0xbe965aed	-0.29366246
4	0x3f925657	1.1432599
5	0xbe7e1b4c	-0.248151
6	0x3f0e1a26	0.5550865
7	0xbf26c518	-0.6514449
8	0x3f1b706d	0.60718423
9	0x3d238319	0.039919946
10	0xbf11fad5	-0.57023364
11	0x3f23b006	0.63940465
12	0x3f0c8661	0.54892546
13	0x3f8aefdd	1.085445
14	0x3e0968da	0.13418904
15	0xbfa2e9f1	-1.2727643
16	0x3e058613	0.13039427
17	0xbf897702	-1.0739443
18	0x3f6d7514	0.9275677
19	0x3e9c1716	0.30486363
20	0xbd6b7926	-0.057488583
21	0x3f2dd91f	0.67909425
22	0xbdb74056	-0.08947818
23	0x3f639c9d	0.8891085
24	0x3f8d8cb6	1.1058567
25	0xbf9c3a20	-1.2205238
26	0xbf82a461	-1.0206414
27	0x3f034cb7	0.5128893
28	0xbfb647f4	-1.4240708
29	0xbf240f4d	-0.6408585
30	0x3e558f09	0.20855345
31	0x3f323477	0.69611305
32	0x3db29134	0.087191015
33	0xbf335ced	-0.7006367
34	0xbdcdecc2	-0.100549236
35	0xbf0a40e4	-0.54005265
36	0x3f932b01	1.1497499
37	0xbe9369c6	-0.28791636
38	0x3f49ac45	0.7877849
39	0x3f068fd2	0.525632
40	0x3de5e971	0.11226166
41	0x3f671a53	0.9027454
42	0xbfdd43ac	-1.7286277
43	0x3e110e2d	0.14165564
44	0x3f07e009	0.53076226
45	0x3dcca1da	0.09991808
46	0x3f554c9e	0.83320034
47	0xbf65ae64	-0.89719224
48	0xbf788518	-0.97078085
49	0xbe7e62d2	-0.24842384
50	0x3f819b12	1.0125449
51	0xbd5d5221	-0.054033402
52	0xbea3f6b4	-0.32024157
53	0xbde4d6ff	-0.1117382
54	0xbed2283a	-0.41046315
55	0xbf130ae5	-0.574385
56	0xbf241b35	-0.64104015
57	0xbda40c4f	-0.0801016
58	0xbe43d583	-0.19124417
59	0x3f0a286f	0.53967947
60	0x3f2f5acb	0.68497914
61	0x3fa6e29c	1.3037906
62	0xbf765401	-0.9622193
63	0xbf2069ae	-0.62661254
64	0x3ecb016c	0.39649522
65	0x3e2bdc56	0.1678327
66	0x3f9ed749	1.240945
67	0xbe3c34d4	-0.18379527
68	0x3e63bccd	0.2223999
69	0x3f116dac	0.5680797
70	0xbf82b492	-1.0211356
71	0x3eeed7a3	0.46648893
72	0xbf434975	-0.7628396
73	0xbe80da85	-0.25166717
74	0xbf8fd5b3	-1.1237091
75	0x3f6c4b5e	0.923025
76	0x3e0d454d	0.13795967
77	0x3fa5080d	1.2893082
78	0xbf45c0be	-0.77247226
79	0x3f5b0a84	0.8556292
80	0x3e9a99d0	0.30195475
81	0xbd81b0b8	-0.063325346
82	0x3f6c0c6b	0.9220645
83	0x3e8bb7eb	0.27288756
84	0xbdacbe1e	-0.084346995
85	0x3d6b2ea2	0.05741752
86	0x3f680393	0.90630454
87	0x3f5b6e39	0.8571506
88	0xbfab2e31	-1.3373471
89	0x3f1424e9	0.5786882
90	0xbf968541	-1.1759416
91	0x3ea5b0b6	0.32361382
92	0x3f1439db	0.5790078
93	0x3f19b37a	0.60039485
94	0xbf808dfb	-1.0043329
95	0xbeba88dd	-0.36432543
96	0xbf679587	-0.90462536
97	0xbf4dd1da	-0.80398333
98	0xbe52e096	-0.20593485
99	0xbefca803	-0.49346933
100	0x3dd7680d	0.10517893
101	0xbf3ac26e	-0.72952926
102	0xbf337fb3	-0.7011673
103	0x3f81f61a	1.0153229
104	0xbfb7858c	-1.433763
105	0xbe4e96ed	-0.20174761
106	0x3f020eaf	0.50803655
107	0x3dfde656	0.12397449
108	0xbcf16f6a	-0.029472072
109	0xbc14ea32	-0.00908904
110	0x3f0b9507	0.5452427
111	0xbfb6d115	-1.4282557
112	0x3f40858d	0.7520378
113	0xbf1d3850	-0.6141405
114	0x3f042ef4	0.51634145
115	0x3f305cb8	0.6889148
116	0xbe7b48f8	-0.24539554
117	0x3f41a8a6	0.7564796
118	0xbeede956	-0.46467084
119	0xbe489009	-0.19586195
120	0x3d69698a	0.056985416
121	0x3da5b8b9	0.08091874
122	0x3e527ae6	0.20554695
123	0x3f614ce8	0.88007975
124	0xbfa246a7	-1.2677811
125	0xbdcabc4d	-0.09899197
126	0xbe64f555	-0.22359212
127	0x3e348c10	0.17631555
128	0x3e2050be	0.156558
129	0x3ec0e2e0	0.37673092
130	0xbfb9eb89	-1.4525005
131	0xbfb4eeef	-1.4135417

bn2.running_var f4 [132]
0	0x3fc936be	1.5719831
1	0x3f3c7695	0.7361844
2	0x3f0cf731	0.55064684
3	0x3eb4c97a	0.35309964
4	0x3fcbc7a7	1.5920304
5	0x3ecc2845	0.39874473
6	0x3f37770f	0.71666044
7	0x3ee51aab	0.4474691
8	0x3f54771e	0.8299426
9	0x3fc56b62	1.5423396
10	0x40560e4a	3.3446221
11	0x3f95a5e1	1.1691247
12	0x3f8afd53	1.0858558
13	0x3f21b064	0.63159776
14	0x3ead5388	0.33852792
15	0x3fdcdf79	1.7255698
16	0x3ef0fd38	0.4706819
17	0x40a89277	5.267879
18	0x3f95ec6d	1.1712776
19	0x3fa45961	1.2839776
20	0x3ef96303	0.48708352
21	0x3fcccb2e	1.5999506
22	0x3ee8631b	0.4538811
23	0x4006308d	2.0967133
24	0x3fc00be4	1.5003629
25	0x404195ce	3.0247684
26	0x40280167	2.6250856
27	0x3fc92748	1.5715113
28	0x3f2d2925	0.67640907
29	0x3f69fcd5	0.91401416
30	0x3f45e248	0.772984
31	0x3f9eed9b	1.2416261
32	0x3f2a8abc	0.6661794
33	0x3f4bdc54	0.7963307
34	0x3f3527f9	0.7076412
35	0x400878c8	2.132372
36	0x3fa5b8c9	1.2947017
37	0x3e7144ff	0.23561476
38	0x3f8778b2	1.0583708
39	0x3fd7b445	1.6851889
40	0x3f995be5	1.1981169
41	0x3f6b307c	0.91870856
42	0x403c2a83	2.9400947
43	0x3fad0343	1.351662
44	0x3f54a925	0.83070594
45	0x3f24a17d	0.6430891
46	0x3f64c2f9	0.89360005
47	0x40386a0e	2.881473
48	0x4030357e	2.753265
49	0x3f5b126d	0.8557499
50	0x3f60e1e7	0.878447
51	0x3ef5f925	0.48041645
52	0x3eb3e04d	0.35132065
53	0x3f115f99	0.56786495
54	0x3f7b6888	0.9820638
55	0x3eb586bd	0.3545436
56	0x3ee55d22	0.44797617
57	0x3ecf7316	0.4051749
58	0x3f1c4d4e	0.6105546
59	0x3f864bf7	1.0491933
60	0x3fa6fc0f	1.3045672
61	0x3f843b55	1.0330607
62	0x3f96440e	1.1739519
63	0x3fe9b168	1.8257265
64	0x3f98c261	1.193432
65	0x3faddd75	1.3583208
66	0x3f5eec1a	0.8707901
67	0x3f17a911	0.5924235
68	0x3f2cfdd5	0.67574817
69	0x3f7b04b1	0.98054034
70	0x3f8ec49a	1.1153748
71	0x3f832a3e	1.0247266
72	0x3f13e7da	0.5777565
73	0x3eb80720	0.35942936
74	0x3f992c91	1.1966726
75	0x3f93d219	1.1548492
76	0x3e9daf7e	0.30797952
77	0x3f42d680	0.7610855
78	0x3f8480e5	1.0351835
79	0x3f18b9d0	0.5965853
80	0x3f2b06cb	0.6680724
81	0x3f808890	1.0041676
82	0x3fe60080	1.7968903
83	0x3f2ddc5a	0.67914355
84	0x3f6130e9	0.87965256
85	0x3f955302	1.1665957
86	0x3f287d3e	0.65816104
87	0x3fb45b3d	1.4090344
88	0x4031eeba	2.7801957
89	0x3f6262f0	0.88432217
90	0x40348851	2.82082
91	0x3f7bbf18	0.9833846
92	0x3fb639f2	1.4236434
93	0x3fca219f	1.579151
94	0x400aebaf	2.170635
95	0x3f0792e0	0.5295849
96	0x3f22dea2	0.6362096
97	0x3f8f8a14	1.1214013
98	0x3f969e15	1.1766993
99	0x3f43b1c1	0.76443106
100	0x3f8212be	1.016197
101	0x3ecb4f52	0.39708954
102	0x3e905805	0.28192154
103	0x3febea2e	1.8430841
104	0x40f8a144	7.7696857
105	0x3f22d217	0.6360182
106	0x3f3858bc	0.720104
107	0x3efd7239	0.49501207
108	0x3f3de3ef	0.74175924
109	0x3f7dacef	0.99092
110	0x3f214a8b	0.6300437
111	0x4063584e	3.5522647
112	0x3f7bab1d	0.98307973
113	0x3ec64f74	0.38732493
114	0x3fd8ab5e	1.6927297
115	0x3f4cb323	0.7996084
116	0x3f7f731d	0.99785024
117	0x3f917304	1.1363225
118	0x3f357c9a	0.7089325
119	0x3ef9363f	0.486742
120	0x3f2c905b	0.6740777
121	0x3f837693	1.0270561
122	0x3f4b0ed2	0.7931949
123	0x3fc44b7e	1.5335538
124	0x4061b9cf	3.5269659
125	0x3e8b085b	0.27154812
126	0x3eb9b384	0.36269772
127	0x3f98c338	1.1934576
128	0x3ec89933	0.39179382
129	0x3fab5cea	1.338773
130	0x407acbf6	3.9186988
131	0x403792ad	2.8683274
