20AgentsBias-goal_critic.pth (torch_old, 118307 bytes, 13 tensors)

fc1.weight f4 [148, 33]
000000 e6 f7 9b 3c 2d cb 01 bd 1c 2d 9e 3d 06 d2 e1 bc
       0.019039106 -0.031687904 0.07723448 -0.027565967
000010 d9 47 95 be 8b 1d d8 3e 80 00 e5 3d 1a cb 75 bc
       -0.29156378 0.4221004 0.11181736 -0.0150020365
000020 39 9f a7 3e a1 9b a5 3d e8 4c c5 3e 3a 39 8e bd
       0.32738665 0.080863245 0.38535237 -0.06944509
000030 68 d6 65 3e 10 61 aa 3d 8e d2 c9 3d b6 31 ac bd
       0.2244507 0.083192945 0.09854613 -0.08407919
000040 44 a9 55 be 0c dc 3d 3e aa 3f c6 bd 5d be bc 3e
       -0.20865351 0.18540972 -0.09680112 0.36863986
000050 37 ce 75 bd ff db 65 be d7 e1 1f bd 2f c0 15 3e
       -0.060011115 -0.22447203 -0.039033737 0.14624093
000060 fc b2 09 3e 34 38 fc bd 45 21 4b 3e 28 fa 9f bd
       0.13447183 -0.123154074 0.1983691 -0.078113854
000070 5a 99 02 3d 49 7d 9e bd 76 50 c5 bc 26 bd 9a bd
       0.03188453 -0.0773874 -0.024086218 -0.075556085
000080 a0 8b fb bf 13 ba fa 3e 68 2f d1 be a3 3e 95 bd
       -1.9651985 0.48970088 -0.4085648 -0.07287338
000090 5c 8f 96 be ff c6 05 3f 1f a8 d4 bd 26 fd 07 be
       -0.2940625 0.5225677 -0.10383629 -0.13280162
0000a0 32 38 a8 3c 16 81 d3 be 95 3f 9d be dd fa 05 3e
       0.020534609 -0.41309422 -0.30712572 0.13083978
0000b0 5f c3 68 3b 51 61 c5 bd 3c 1d 84 be be 77 b5 3e
       0.003551684 -0.09637702 -0.25803554 0.3544292
0000c0 68 96 0b 3e 16 be af 3d 57 f8 f1 be 09 5f 82 bc
       0.13631594 0.08581178 -0.4725978 -0.015914457
0000d0 33 dc 9d be ae c7 d8 3c 16 bb 97 bd 75 16 5e bd
       -0.3083206 0.026462402 -0.07408731 -0.054220635
0000e0 91 09 80 be e4 0d 37 be 75 28 3d be 0e ea 43 be
       -0.250073 -0.17876393 -0.18472464 -0.19132254
0000f0 0e 7a 3e 3d 48 41 48 be 90 ac 81 bb e3 e7 72 3d
       0.04650312 -0.19556153 -0.0039573386 0.059303176
000100 ba 27 65 3d b5 60 9d bf 2d fc 21 3e d8 c8 12 bf
       0.05594609 -1.2295138 0.15818854 -0.57337713
000110 d2 f0 36 3e 95 bc 4b 3d 08 97 a6 3e 7c b0 d5 3e
       0.17865303 0.049740393 0.32537103 0.4173621
000120 7f a0 0f 3e aa c3 87 bc 17 7d 4e 3e eb 30 ed 3c
       0.14026068 -0.016572792 0.20164905 0.02895399
000130 0e e7 99 bd c2 e9 2f be 2a 15 56 3c d3 d6 81 be
       -0.07514773 -0.17179015 0.013066569 -0.2535921
000140 84 05 0b 3f 0d 8c b0 bc 7e d0 f1 bd ba f5 1d 3e
       0.5430529 -0.021551156 -0.11807345 0.15425768
000150 dd 2e dd 3d ab e2 ea bb 41 ce fb 3c 63 da 53 3d
       0.10799954 -0.007168134 0.030737998 0.05172194
000160 93 fc d0 3c c7 40 bc bc 8e c6 7b 3d 80 82 6d 3e
       0.025511062 -0.022980107 0.061468653 0.23194313
000170 9a 9f 43 3e 41 cb 66 bd a6 d4 88 be f1 23 83 3d
       0.19103852 -0.05634618 -0.26724738 0.0640334
000180 54 ac 91 3c 26 8b 7e 3d 64 fb 95 3f 91 18 69 3d
       0.017782368 0.06214442 1.1717343 0.056908194
000190 64 15 be 3e 8c 48 d2 3e 00 2b 66 bd 23 64 42 be
       0.37125695 0.41070974 -0.05619335 -0.18983512
0001a0 33 a7 9a bd 6d c5 8a 3d b8 89 4a bd 5f b5 fe 3e
       -0.07551422 0.06775937 -0.049447745 0.4974775
0001b0 03 95 d9 3d c6 2b b3 be 69 9d 7e 3d 03 f4 5c 3e
       0.10624125 -0.34994334 0.062161837 0.21577458
0001c0 fa ab e7 be 31 86 ad bd 2f 66 5c be 31 a1 f8 bd
       -0.45248395 -0.084728606 -0.21523355 -0.1214012
0001d0 7b a2 6c bd ab 9e 17 be 90 f0 d1 3d ab 75 11 3d
       -0.05777214 -0.14806621 0.10250962 0.035512608
0001e0 ba 28 94 3c a1 c2 cd 3d 07 2f a5 bb 33 4f f1 bd
       0.018085826 0.10046888 -0.0050410065 -0.11782684
0001f0 5b a4 a1 3d 40 a4 89 3e a6 4e a2 3d 05 11 f4 3d
       0.078926764 0.26883125 0.07925157 0.11917309
000200 e7 62 0f bd 43 f1 85 bd 84 d4 9c 3c be d6 7d bf
       -0.03500643 -0.06540158 0.019144304 -0.99155796
000210 12 be db 3d 58 a1 ab 3e 70 16 1d 3e 61 63 c1 3c
       0.107296124 0.33521533 0.1534059 0.023606958
000220 e9 51 c4 3e 3b dd d6 bd c9 3f b5 3e c2 da db bd
       0.38343742 -0.10491415 0.35400227 -0.10735084
000230 c5 63 33 3e 70 e7 2d 3f 69 91 0c 3d f0 2e 12 3e
       0.17518528 0.6793127 0.03431836 0.14275718
000240 a5 ca ea bc c6 7a 85 be f1 f9 17 be 50 35 44 be
       -0.028661082 -0.2607023 -0.14841439 -0.19160962
000250 f2 b6 8d 3d 83 a4 f9 bb 29 b7 0e bd 3b d2 3f be
       0.0691966 -0.0076184883 -0.034842644 -0.1873254
000260 c9 98 54 bc b0 95 64 bd a8 d7 06 3d ee 38 1f 3d
       -0.01297588 -0.055806816 0.03292051 0.03887265
000270 af 20 d0 bc b5 f7 67 be bb 80 f2 bd 61 a0 c3 3c
       -0.02540621 -0.22653086 -0.1184096 0.023880186
000280 a9 7b 8c 3e 09 5b 81 3d 63 9e 0c bd ac ff ec 3c
       0.27438095 0.06316192 -0.034330737 0.028930508
000290 fe 1f b5 3f 18 26 2a be 75 ae a7 be c0 fb 1f 3e
       1.4150388 -0.16616094 -0.32750288 0.15623379
0002a0 24 90 56 bd 3c e7 70 be a6 af a4 3d 41 1d f2 3e
       -0.052383557 -0.23525709 0.08041315 0.47287944
0002b0 b3 d5 df bd 9a a9 21 3e 09 bf d0 bc 18 0d fb bd
       -0.10929432 0.15787354 -0.025481718 -0.12258357
0002c0 de 52 a6 be 8b dd 42 be 85 6b bf bd 92 e0 20 be
       -0.32485098 -0.19029824 -0.093466796 -0.15710667
0002d0 5f da 95 bd d5 ad fa bd 3e 3c b0 3c cd 2e 1c 3e
       -0.073170416 -0.12240187 0.0215131 0.15252228
0002e0 c7 5a c8 bc ad 57 9f bc be 74 f3 bd 27 af f0 3d
       -0.024457349 -0.019450987 -0.11887501 0.11752158
0002f0 1b 70 fc 3e 4b fa b0 bd f7 82 2b 3e 6c 2e fb 3e
       0.4930428 -0.086414896 0.16749178 0.49058855
000300 43 9c e9 bc 41 62 5d be 9c ca 85 3c 81 60 4d bc
       -0.028516894 -0.21619512 0.016331963 -0.012535215
000310 c8 22 67 bc e3 bd d5 3e d9 7e 53 be 60 41 2d be
       -0.014107414 0.41746435 -0.20653857 -0.1691947
000320 3a 2a 8f bc 90 a2 3f be 67 2d 58 3c 82 49 c3 bd
       -0.01747619 -0.18714356 0.0131944185 -0.09535505
000330 cb 16 98 bd f9 99 df 3d e9 ee 7c be fa ad a2 bd
       -0.074262224 0.1091804 -0.24700512 -0.0794334
000340 fc b7 c5 bd a1 88 09 bd b7 4f 7c bb e0 b7 2e be
       -0.09654233 -0.033577565 -0.0038499662 -0.1706233
000350 2b fc 2e 3f b4 88 9a 3b 7b f7 8f bc cb 11 51 bd
       0.6835353 0.0047160033 -0.017574063 -0.05104236
000360 99 a9 04 bd 23 22 07 3e 2a ac da 3c 00 c9 d8 bc
       -0.032388303 0.13196616 0.026693422 -0.026463032
000370 a6 22 4f bd 92 91 28 be 0b a2 a1 3e 91 ff f7 bc
       -0.050570153 -0.1646178 0.3156894 -0.03027323
000380 48 14 d4 3e 38 7d 31 3e c2 7e 8f 3d c6 31 7a 3d
       0.41421723 0.17332923 0.07006599 0.061082624
000390 c4 2c b3 bd 68 04 50 bc 82 7d 48 bf 7e be 49 3e
       -0.08748773 -0.012696363 -0.7831651 0.19701573
0003a0 82 2d b8 be 7f 9d 20 3f 2b b9 4e 3e 0b e9 d8 3d
       -0.3597222 0.6274032 0.20187823 0.105913244
0003b0 a7 f2 c5 3d 1e fe 83 bd 7a c7 bd be 9d 09 8f 3d
       0.09665423 -0.064449534 -0.3706625 0.069842555
0003c0 5b e1 42 be 60 a5 0e ba e7 52 ac be 13 f8 2e be
       -0.19031279 -0.0005441513 -0.33657 -0.1708682
0003d0 55 a0 18 be 19 20 03 be 89 f2 c9 bd 40 9c 46 3e
       -0.14904912 -0.12805213 -0.09860713 0.19395542
0003e0 01 a4 95 3e 60 b5 5c 3c e4 7f 2c be 2c 67 0f 3c
       0.29226688 0.013470978 -0.16845661 0.008752625
0003f0 23 2e d6 bd 76 1f c9 bd 42 1b 83 3e 38 6f 46 3b
       -0.10458019 -0.09820454 0.25606734 0.0030278694

fc1.bias f4 [148]
000000 06 fa 64 bd d4 2c dc 3d 5c 05 cf 3c 7c 57 a4 bc
       -0.055902503 0.10750738 0.02527111 -0.020061247
000010 4e 85 04 3e 3a 21 4a be 6a ea 97 3d ac e3 bf 3d
       0.12941477 -0.19739237 0.07417758 0.09369597
000020 d4 9c 2c bd f4 ae a9 bd 29 71 71 bd a7 4c 63 3d
       -0.04214175 -0.08285323 -0.05894581 0.055493023
000030 1b 98 00 be 5a 3a df bc 60 67 9f 3b fc b4 ec ba
       -0.12558024 -0.027249504 0.004864618 -0.0018059309
000040 67 95 f8 3d 75 71 c2 bc 3c aa 13 3e e7 e2 fe 3d
       0.12137871 -0.023735741 0.14420408 0.12445622
000050 75 53 6e bd ff 61 c7 bd 65 da 18 be 8a d2 8f 3a
       -0.05818506 -0.09735488 -0.14927061 0.001097278
000060 f3 0a 95 bd 40 4b 36 3e d2 1f 61 3d b5 ef 91 3d
       -0.07277479 0.17802143 0.054961987 0.071257986
000070 4d 99 68 3d 28 6a ad bb 4f 5a cd bd 38 53 2d be
       0.056786824 -0.005292196 -0.100269906 -0.16926277
000080 d5 5f 0b 3e 1c 70 1c 3e 21 b3 c6 3d 88 f6 27 3e
       0.13610776 0.15277141 0.09702135 0.16402638
000090 6e 91 17 be 9f ee 2f be 9b f9 42 3d 44 52 2b 3e
       -0.14801571 -0.1718087 0.047601324 0.167306
0000a0 6b f2 37 3d 63 e4 5e 3d 26 63 52 3d 1e 13 f2 3c
       0.044908922 0.054417025 0.051364087 0.029550131
0000b0 fb 52 8c bc fc ed b0 bd 5f 13 af 3d cf 6a 07 3e
       -0.017129412 -0.08639142 0.085486166 0.13224338
0000c0 87 bc 1f 3c 10 f4 c5 bd 09 27 34 3d 80 64 a7 3d
       0.009749538 -0.09665692 0.04398254 0.08173466
0000d0 81 84 76 3d 3a 80 1c be 16 7f c1 bd aa 96 10 3d
       0.06018496 -0.1528329 -0.09448068 0.035299934
0000e0 74 fc b5 3d ae 43 ad bd 7b fc c7 bd 7e 43 36 3d
       0.08886042 -0.084601745 -0.09764954 0.04449796
0000f0 7f f6 14 be 4d 4f a2 3d 26 47 98 3b 0c 6e 0b bd
       -0.14547156 0.07925282 0.0046471534 -0.034040496
000100 1b 86 f9 bb 02 d0 f0 3d 58 30 0f 3d 47 44 8e bd
       -0.0076148636 0.11758424 0.034958214 -0.069466166
000110 9e 7b 8b 3e e5 87 e0 bd 55 74 b3 bc 21 bc bb 3d
       0.2724275 -0.1096342 -0.021906057 0.09166742
000120 e4 8a 84 3d bf b7 93 bd 83 de 17 bc 9f aa ea 3d
       0.06471804 -0.07212781 -0.0092693595 0.11458325
000130 6c d7 f3 3d 61 15 31 3d b6 89 31 3e 07 62 cb 3d
       0.11906323 0.04323328 0.17337689 0.099308066
000140 c6 9a 46 bc db 0e 2a be e8 7b 76 bd 9b d6 89 3d
       -0.012121862 -0.1660723 -0.06017676 0.06730386
000150 1a b7 1c be 07 dc 23 3e 75 60 37 be 7c 5f 7e 3d
       -0.15304223 0.16001903 -0.17907889 0.06210278
000160 aa 8b 56 bd 3e d3 12 3d f0 14 41 be ab 5e a5 3d
       -0.052379288 0.035845987 -0.18855643 0.08074697
000170 4d 57 a2 3d e1 d0 3b 3d 47 a3 09 3e 1e 4d 4f 3d
       0.079268076 0.0458535 0.13441192 0.050610654
000180 40 e2 25 3e 62 1f 9a 3d b3 62 d2 3d 01 19 4b bd
       0.16199589 0.07525517 0.10272732 -0.049584392
000190 a0 4b 1f be 66 57 f4 bd e0 bb 02 3d 19 c5 03 3e
       -0.15556192 -0.119307324 0.031917453 0.12868156
0001a0 45 56 c5 3d 9f f0 ba 3d a0 4b 10 3e 38 38 3b be
       0.09635595 0.09127926 0.14091349 -0.18283165
0001b0 66 c7 0f be ac d9 10 3e fc a9 68 3c 98 01 06 be
       -0.14040908 0.14145535 0.014200684 -0.13086545
0001c0 71 13 03 3c 2e a6 0a be 89 b7 eb 3d a3 e4 c0 bc
       0.008000241 -0.13539955 0.11509616 -0.023546522
0001d0 5d 1c 25 be 27 1d a0 3d 3e 73 9b 3c b6 c0 31 3e
       -0.16124101 0.0781806 0.01897585 0.1735867
0001e0 0d 51 0a be be 3b bb 3d b3 5e 83 3c ff 5e 3f 3d
       -0.13507481 0.09142254 0.016036367 0.046721455
0001f0 97 a8 55 3d f0 ee 49 3d 32 2d f1 bd d9 5b 19 be
       0.052162733 0.049300134 -0.117761984 -0.14976443
000200 fd 16 22 3e 5c cf 6f 3e 8d 65 09 bc 13 57 b4 3c
       0.15829082 0.23418945 -0.008386028 0.022014176
000210 b8 fd 70 3d 62 1e 21 be b2 2d ba 3d 8e 14 3d bd
       0.058835715 -0.15734246 0.09090747 -0.04616218
000220 ce 35 fd bd dd ac 81 3d d8 63 07 3e 51 d0 8f 3d
       -0.12363778 0.06331799 0.13221681 0.07022155
000230 a3 ac 00 bd e0 b3 20 3e eb 88 95 bc b2 d7 8f 3d
       -0.03141464 0.15693617 -0.018253764 0.070235625
000240 09 70 d4 bc eb 44 9c bd a2 55 71 be b6 36 0e 3e
       -0.025932329 -0.076303326 -0.23567823 0.13888058

bn1.weight f4 [148]
000000 1d ef 9b 3e dc 55 df 3e f9 fd 14 3f c8 14 7f 3e
       0.30455866 0.43620193 0.5820003 0.24910271
000010 b0 0c 05 3f 10 d7 10 3f d4 5b 31 3f 99 96 be 3e
       0.51972485 0.5657816 0.69280744 0.37224272
000020 97 d0 43 3f fd 7d cd 3e e4 4e 01 3f 98 51 4d 3f
       0.7649016 0.40135184 0.50511 0.8020263
000030 70 d7 9d 3e 8b 3a 6c 3e 4a 77 bb 3e c2 9c 51 3f
       0.30828428 0.23069207 0.36614448 0.8187982
000040 4e 45 dd 3e 3c 1d 44 3f 5b 63 09 3f ff f8 2c 3f
       0.43216938 0.7660711 0.5366723 0.6756744
000050 25 3e 2a 3f 8f e2 83 3f 91 44 c4 3e 48 c1 1b 3f
       0.66501075 1.0303515 0.38333562 0.608418
000060 c1 fc 89 3f c4 db 03 3f 17 32 7f ba 6c c9 1f 3f
       1.0780259 0.5150721 -0.0009734942 0.6241672
000070 d9 af 0e 3f 12 94 16 3f a2 38 03 3f 29 b1 fc 3e
       0.5573707 0.5881969 0.5125829 0.49353912
000080 21 28 bf 3e b3 db 23 3f a1 db 95 3e 44 a3 86 3e
       0.37335303 0.6400711 0.29269126 0.26296437
000090 da f3 20 3f cc af 00 3f 29 2a d2 3e 0f c4 ac 3e
       0.6287209 0.50268245 0.4104779 0.3374333
0000a0 63 75 b0 3e fa e7 08 3f fa a8 e1 3e 4c df 26 3f
       0.3446456 0.5347897 0.4407423 0.65184474
0000b0 d7 8b 2a 3f f5 d4 06 3f 0b 07 bb 3e 9c 5c 04 3f
       0.6661963 0.52668697 0.3652881 0.5170381
0000c0 5c 05 b3 3e ff e2 4d 3f 51 85 1b 3f 0d fb 23 3f
       0.34965026 0.80424494 0.607503 0.6405495
0000d0 3b 9b 3e 3f 67 dd 2d 3f e1 54 ba 3e 61 20 2e 3f
       0.7445561 0.6791596 0.36392882 0.68018156
0000e0 bb b3 db 3e 0e 31 fa 3e 2e 2b f0 3e fa a8 c1 3e
       0.4291056 0.4886555 0.46907943 0.3782423
0000f0 f6 2e fe 3e aa 2d f8 3e 5d 7b da 3e 72 a5 48 3f
       0.49645203 0.4847234 0.42672244 0.7837745
000100 58 3b 9b 3e a6 cd fa 3e 6a da a7 3e 11 d7 8b 3e
       0.30318713 0.48985022 0.32783824 0.2731252
000110 8d 37 5c 3f 54 a7 23 3f 96 01 28 3f 6d 3e 88 3f
       0.86022264 0.639272 0.6562742 1.0644051
000120 3a 81 cb 3e d4 82 0d 3f 40 9d 16 3e 2b 40 d4 3e
       0.3974703 0.5527775 0.14708424 0.41455206
000130 c5 94 77 bb 1a 81 05 3f 32 32 bf 3e e7 8a bb 3e
       -0.0037777883 0.5215012 0.37342983 0.36629412
000140 e7 01 a1 3e 5c 32 e0 3e d6 99 55 3f e0 82 45 3e
       0.31446764 0.4378842 0.8343786 0.19288206
000150 1f d1 f7 3e 22 5e 37 3f fe 0b 07 3f 93 df 51 3f
       0.48401734 0.7162801 0.52752674 0.8198177
000160 0c 90 54 3f 6e 7a fa 3e 48 df ef 3e 0e 7e cd 3b
       0.830323 0.4892153 0.46850038 0.0062711304
000170 fb f3 25 3f 08 b8 86 3e 66 71 2b 3f f5 93 0f 3f
       0.6482541 0.2631228 0.6696991 0.5608514
000180 ce f5 9b 3e 79 87 a2 3e b8 13 33 3f a3 53 2b 3f
       0.30460972 0.31743982 0.69951963 0.66924495
000190 b9 59 92 3e 5c 2c 1a 3f 81 29 0b 3f 8e f5 a8 3e
       0.28584078 0.6022394 0.54360205 0.32999843
0001a0 71 d2 f7 3e 96 01 4a 3f d3 fb 2f 3f 71 33 ce 3e
       0.48402742 0.7890867 0.6874363 0.40273622
0001b0 29 63 91 3e d4 f1 b6 3e f5 cc d3 3e 1b 77 c7 3e
       0.28395966 0.35731375 0.41367307 0.38958058
0001c0 83 1d ce 3e de d1 df 3e 20 e1 f1 3e e7 48 09 3f
       0.4025689 0.43714803 0.4724207 0.53626865
0001d0 c6 96 ea 3e 0e ab 0f 3f 8b 91 00 3f 4f 89 68 3f
       0.45818156 0.56120384 0.5022208 0.90834516
0001e0 36 66 f0 3e 65 43 e3 3e 48 3a 3a 3f b4 ad 31 3f
       0.4695298 0.44387355 0.7274518 0.69405675
0001f0 66 3b 1c 3f 4e 93 d8 3e 54 69 06 3f b2 3c 2b 3f
       0.61028135 0.42299885 0.5250447 0.6688949
000200 57 6f 94 3e 1d e4 11 3f 7b 25 24 3f 0f b3 f0 3e
       0.28991196 0.569887 0.6411969 0.4701161
000210 11 43 c4 3e 0f c9 e6 3e 71 63 4b 3f 36 20 11 3f
       0.38332418 0.4507527 0.7944861 0.56689775
000220 13 8e e9 3e a0 d4 be 3e 92 7a 54 3f bd 24 39 3f
       0.45616207 0.37271595 0.8299953 0.72321683
000230 a5 7d 15 3f 01 13 a9 3e a4 d7 b3 3e 73 e3 1f 3f
       0.58394843 0.3302231 0.35125458 0.62456435
000240 bc e3 f1 3e 03 bf 0f 3f d2 5b 3e 3f 94 18 a1 3e
       0.4724406 0.56150836 0.74358857 0.31464064

bn1.bias f4 [148]
000000 1b 68 c7 bd 53 b9 92 be 11 32 a6 be 73 4e 58 bd
       -0.097366534 -0.28657016 -0.32460073 -0.05280919
000010 8e 92 01 bf 38 74 31 be 38 03 1f be e7 ab d8 bd
       -0.5061425 -0.1732949 -0.15528572 -0.10579663
000020 a4 cf 03 bf 30 e9 c8 be 12 33 81 3d fe 9d 8b be
       -0.5148871 -0.39240408 0.06308569 -0.27268976
000030 1c 78 e8 be 97 26 0b bf 46 86 1e be 5e d9 69 3d
       -0.45404136 -0.5435576 -0.15480909 0.057092063
000040 23 c8 0d bf 90 54 01 bf 86 99 89 be 0c c1 bd be
       -0.5538351 -0.5051966 -0.26874942 -0.37061346
000050 44 47 b7 be 70 3e cc be 6e a0 fc be 9c 95 85 be
       -0.3579656 -0.39891386 -0.49341148 -0.26090705
000060 b8 d3 bf be 39 a1 ec bd f0 05 1e bc d2 b3 0e bf
       -0.37466216 -0.11554188 -0.00964497 -0.55743134
000070 2a 46 15 be 27 b4 0c bf 02 f0 03 bf f6 7b ab be
       -0.14577547 -0.5496239 -0.515381 -0.33493012
000080 44 75 40 be 61 b6 9b be 70 cd 83 be 9e 2d 08 be
       -0.18794733 -0.30412582 -0.25742674 -0.13298652
000090 1f c4 8d be 4d fb 96 bd a8 5b 12 bf 40 95 97 be
       -0.2768869 -0.073721506 -0.57171106 -0.29606056
0000a0 bc 5a 2f bd 43 e2 b4 be 48 31 1d be 29 6b 8e be
       -0.04281114 -0.35328874 -0.1535083 -0.27816132
0000b0 51 70 aa be e1 c7 84 be 77 5c f9 3c 80 42 88 be
       -0.33288816 -0.25933746 0.030439598 -0.26613235
0000c0 49 5d d4 bd 83 f8 df be f1 62 aa be 78 a1 c2 be
       -0.10369355 -0.43744287 -0.3327861 -0.38013816
0000d0 25 d7 8e bc ad 88 ee be 7b 97 9c bd 21 85 cc be
       -0.017436573 -0.4658865 -0.0764608 -0.3994532
0000e0 a4 2d ab be bd 2f 6d be 27 63 fc be 7c ed 29 be
       -0.3343326 -0.23162742 -0.49294397 -0.165945
0000f0 e2 a8 f5 be e9 82 e6 bd 73 b2 31 be 8c 3d 1a be
       -0.4798041 -0.11255438 -0.17353229 -0.15062541
000100 9b 00 60 be ac 51 a8 be 6b 52 a4 3d 3e a4 95 be
       -0.21875231 -0.3287481 0.080235325 -0.2922687
000110 90 ea ea be b2 63 82 be e7 38 5b be a1 5e ed bd
       -0.45882082 -0.25466686 -0.21408425 -0.11590315
000120 2b df 00 bf e4 fc 87 be dd c4 cb bd 95 3d a6 bd
       -0.5034053 -0.26560128 -0.09949658 -0.081172146
000130 59 38 f3 bc 6c c7 94 be 0e a2 04 bf 8c a9 d7 be
       -0.029689955 -0.29058397 -0.51809776 -0.42121542
000140 b2 74 b7 bd 88 34 5c be 06 c0 0d be bf 01 aa 3e
       -0.08957805 -0.21504414 -0.13842782 0.33204457
000150 8a 7c 1a bf 20 f9 f2 3c ae 86 8e be 07 43 a4 be
       -0.6034628 0.029659808 -0.27837127 -0.32082388
000160 c6 e6 d9 be 69 8b 27 bf 39 1b ea be 8d 25 cb bd
       -0.4255888 -0.654471 -0.45723894 -0.099192716
000170 23 18 d3 be d8 32 b4 bc fc 40 e0 be 35 1b bd bd
       -0.41229352 -0.0219969 -0.4379958 -0.09233705
000180 79 68 ff bd b4 a0 b6 be 78 3f 8f be 83 9c b6 be
       -0.124710985 -0.35669482 -0.2797811 -0.35666284
000190 54 38 97 be 5e f6 0f be 33 c4 07 bf 31 56 6c be
       -0.29535162 -0.14058825 -0.5303375 -0.23079754
0001a0 31 56 c7 be 39 13 a8 be 63 c3 d3 be 8b bd f5 be
       -0.38932946 -0.32827166 -0.41360006 -0.47996172
0001b0 13 63 58 be 31 a9 40 be 9a 30 5a be 9d 36 ab be
       -0.21131544 -0.18814541 -0.21307603 -0.33440104
0001c0 e5 7d 7c be 8f 0e b9 be c1 9f 7c be 88 86 a3 be
       -0.246574 -0.3614392 -0.24670316 -0.31938577
0001d0 74 81 bf be 51 08 f1 be 9e 0b ee be 78 a1 2b bf
       -0.37403452 -0.47076657 -0.46493238 -0.67043257
0001e0 66 3e b3 be a0 36 08 bf 12 c4 85 be 36 b6 04 be
       -0.35008544 -0.5320835 -0.26126152 -0.12960133
0001f0 bd 2c d0 be c1 19 1c 3d ad fe e4 be d9 ff e8 bd
       -0.40659133 0.0381105 -0.44725552 -0.11376924
000200 fb e1 80 be 98 28 18 bf 66 0f f2 be d9 24 d6 be
       -0.2517241 -0.5943694 -0.47277373 -0.41824988
000210 0d fb 88 be 50 ef d8 bd 39 b7 cf be 35 ee d7 be
       -0.26754037 -0.1059252 -0.40569475 -0.42173925
000220 7c 09 b4 be 0d 19 a6 be 0e 76 bc be c4 5c 36 bd
       -0.35163486 -0.32440987 -0.3680882 -0.044522062
000230 e0 c5 55 be 4c 7e 0d be 43 e3 4a be 01 71 a6 be
       -0.20876265 -0.1381771 -0.19813256 -0.3250809
000240 74 ff 58 be aa 11 72 be 55 52 b3 be 95 10 8d be
       -0.21191198 -0.23639551 -0.35023752 -0.27551714

bn1.running_mean f4 [148]
000000 32 0b 4a be bb 55 dd bd 46 d1 21 bd fe db 47 bf
       -0.19730833 -0.108073674 -0.03950622 -0.78070056
000010 75 ff 83 be d5 ec 95 3f 1c 17 02 c0 bf c9 ef 3f
       -0.25780836 1.17129 -2.0326605 1.8733443
000020 1a 41 21 3e 15 41 8b 3f c7 dc 9c be 08 6d 6c bd
       0.1574749 1.0879236 -0.3063719 -0.057721168
000030 d8 00 7a bf d0 df 6e be a3 c8 10 c0 16 89 c5 3d
       -0.9765754 -0.23327565 -2.262246 0.09645288
000040 8c d5 39 c0 4c fc 3d 3f d9 37 cf 3f 0f c9 f9 3e
       -2.9036589 0.742131 1.6188918 0.48786208
000050 44 f1 c4 be 1e de 9f bb 16 06 95 bf ba 78 ec 3f
       -0.3846532 -0.0048787734 -1.1642482 1.8474343
000060 e9 45 fa bc 70 ef 44 bf d4 69 ea 3d 87 d4 13 bf
       -0.030550914 -0.7692785 0.11445966 -0.57746166
000070 81 f3 74 be 86 c7 75 bf 35 12 b2 bf 39 84 36 3f
       -0.23921014 -0.96007574 -1.3911806 0.71295506
000080 48 bf 4a 3e a9 ed c4 3c 13 ec 1b be 29 1a 62 3f
       0.1979953 0.024039106 -0.15226774 0.8832117
000090 0e b7 09 c0 38 26 01 c0 2c 90 3d c0 c7 af cf bf
       -2.1517978 -2.0179577 -2.9619246 -1.6225518
0000a0 18 85 c3 3e b5 30 65 bf be 1e 1a 3d 90 f7 c5 3e
       0.3818748 -0.89527446 0.037626974 0.38665438
0000b0 7c 29 03 bf 39 1b 0a 40 97 cc 39 3e ae cf 03 3f
       -0.51235175 2.1579115 0.18144451 0.5148877
0000c0 de 8b 0d bf f1 78 47 3f 29 59 8f 3f d7 0d a4 3d
       -0.55291545 0.77918917 1.1199085 0.08010452
0000d0 20 94 25 40 d3 52 c7 be f9 bf e9 3d 36 ea 1c bf
       2.5871658 -0.38930377 0.11413569 -0.6129488
0000e0 51 f8 2b be 8e f2 89 bf fa 77 be bf 12 ab 86 bd
       -0.16793944 -1.0777147 -1.4880364 -0.06575598
0000f0 a0 34 57 bf f5 f1 d6 be 4b 79 ce bf a5 ac 48 bf
       -0.84064674 -0.41981474 -1.6130766 -0.78388435
000100 01 62 a8 3f ad 99 78 bf f1 b4 d4 be e2 c8 20 bf
       1.3154908 -0.9710949 -0.41544297 -0.6280652
000110 a0 87 73 3f 08 65 0e 3d 8a 24 1c 3f 5b 33 69 be
       0.9512882 0.03476432 0.60993254 -0.22773497
000120 9d ae 23 bf 82 6f 0f 40 a7 86 51 3e 33 ec f2 3e
       -0.63938314 2.241181 0.20461522 0.4744583
000130 8b 02 75 3d f8 a0 20 3f ab b1 1b 40 93 6e 26 c0
       0.05981688 0.6274562 2.432719 -2.600499
000140 cb 5e 14 bf 3c 8c 0c bf e8 cc 02 be 24 7e 30 40
       -0.5795714 -0.5490148 -0.12773478 2.757699
000150 2b 6d 05 c0 cd 1a f6 3d bf 52 1b 40 b3 7a 57 bf
       -2.084788 0.120168306 2.4269254 -0.841716
000160 bc aa 0a bd ef 6b 3e bf b6 95 23 3f 28 f3 87 3e
       -0.03385423 -0.74383444 0.63900316 0.265527
000170 3b b4 87 3c d0 4c ad 3e 18 e2 37 3f 88 a7 dc bc
       0.016565433 0.33847666 0.71829367 -0.026935354
000180 fd 5a d0 3c f7 3c 02 c0 d8 e2 ee 3c a3 48 5a bf
       0.025434012 -2.034971 0.029160902 -0.85267085
000190 ef cd 6f bf db 0c 25 3f 4d 12 e6 be be e0 fb 3f
       -0.93673605 0.6447274 -0.44935837 1.9677961
0001a0 57 46 05 be eb 69 ac bf 03 be 0f 40 a3 f0 86 c0
       -0.13015114 -1.3469824 2.2459724 -4.2168746
0001b0 c0 c4 09 c0 b1 4e 24 3f bb 56 db bf cd d7 10 40
       -2.1526337 0.64182574 -1.7135843 2.2631714
0001c0 2a 11 46 bf 07 42 89 3f 8b 06 37 3e 69 73 82 3f
       -0.7736994 1.0723275 0.1787359 1.019147
0001d0 b0 72 2f be 72 88 00 be 04 62 8d bf b4 3e 5a 3e
       -0.17133594 -0.1255205 -1.1045537 0.21312982
0001e0 fa 20 7f 3e d6 1d 56 bf 99 68 a6 bd 44 db 0e 3b
       0.24914923 -0.83639276 -0.08125419 0.0021798173
0001f0 e1 9f 0b 3e be 25 28 3f f3 27 9e 3f 0c 0e 9c bc
       0.13635208 0.6568259 1.2355942 -0.019049667
000200 70 73 4b 3e 3c c0 13 3f ec 24 b6 3d df 1e f5 3e
       0.19868255 0.577152 0.08893761 0.47875115
000210 05 c6 39 bf 68 7e ac 3e b4 94 a7 3f 89 68 15 c0
       -0.7256778 0.3369019 1.3092256 -2.3345053
000220 ba 3d 44 be 1f b2 7c 3d 02 93 16 3f 21 9f 32 3e
       -0.19164172 0.061693307 0.58818066 0.17443515
000230 8b c8 ce 3f 9d a3 eb 3f c9 ee e3 3e 3d 11 1e 3e
       1.6154951 1.8409306 0.44518116 0.15436263
000240 03 29 52 bf 7c 8d ad 3f 51 be 85 3c ac 2a c1 be
       -0.8209383 1.3558803 0.016326101 -0.3772787

bn1.running_var f4 [148]
000000 4e 87 9b 40 8e 15 96 40 1a b3 4a 40 61 52 14 40
       4.8602667 4.690131 3.1671815 2.317528
000010 75 b4 ab 40 3b 7d 1d 41 15 4b 90 40 7d d8 67 40
       5.3657784 9.843074 4.5091653 3.6225884
000020 01 24 94 3f 04 15 51 40 4b 4a 78 3f 71 8c 73 40
       1.1573488 3.2669077 0.9698836 3.8054469
000030 85 73 79 40 4f 2e c4 3f 03 ad 9a 40 37 03 e5 3f
       3.8976758 1.5326632 4.8336196 1.7891606
000040 64 76 02 41 aa 30 ee 40 51 1c 9c 41 57 94 0e 41
       8.153904 7.4434404 19.513826 8.911216
000050 22 ea 9a 40 66 e0 89 40 86 b4 98 40 de 90 32 41
       4.8410807 4.3086424 4.7720366 11.160368
000060 60 bc e8 40 a4 4a 28 40 d2 5d c1 3d 6f 17 eb 3f
       7.272995 2.6295557 0.09441723 1.8366526
000070 73 21 7c 40 f7 65 dc 40 25 e7 1e 41 84 85 fc 40
       3.9395416 6.887447 9.931432 7.8912983
000080 eb 0a 2d 40 fb 6e 4a 40 f8 92 a2 40 6d 97 ff 40
       2.7037914 3.1630237 5.0804405 7.9872346
000090 26 67 48 41 35 e3 f0 40 52 15 c7 40 50 1b 83 40
       12.525183 7.527735 6.2213526 4.097084
0000a0 53 dd bb 40 6b e5 53 40 1a 55 e3 40 87 73 3e 40
       5.870767 3.3108776 7.1041384 2.9758012
0000b0 87 03 c1 40 3f b1 eb 40 26 56 bd 3f 24 1b f9 40
       6.0316806 7.3653865 1.4791915 7.784563
0000c0 00 95 c5 40 38 35 a8 40 de c7 03 41 28 a2 0e 41
       6.1744385 5.2564964 8.236296 8.914589
0000d0 f6 d2 ad 40 b6 33 b7 40 01 e7 fa 40 7c 5d 0d 41
       5.432002 5.7250624 7.8406987 8.835323
0000e0 bc 56 85 40 a5 ae 88 41 5e e5 0e 41 b9 2b 72 41
       4.1668377 17.085276 8.930998 15.135674
0000f0 00 b5 9b 40 14 7e cb 40 8a 86 d0 40 1f e0 ad 3f
       4.8658447 6.3591404 6.516423 1.3584021
000100 42 a4 5e 40 ee 49 6d 41 85 fb 5c 40 d1 3c 2f 40
       3.4787755 14.830549 3.4528515 2.738087
000110 0e e0 56 40 57 1c 3f 40 09 e4 e5 40 35 01 9f 3f
       3.3574252 2.9861047 7.1840863 1.2422243
000120 2b a6 07 41 39 7d ce 40 a5 e0 0e 40 92 03 0f 41
       8.478068 6.452786 2.2324612 8.938372
000130 ea 8d 23 3f 3a ab cc 40 c1 58 cc 40 fc dc b1 40
       0.6388842 6.3959017 6.385834 5.5582256
000140 3a ea 48 40 38 cf 17 41 8c cb d6 3f 15 01 b1 40
       3.139296 9.4880905 1.6780868 5.531382
000150 9c 4b a9 40 cd a3 a6 40 aa b9 12 41 50 d7 c8 40
       5.2904797 5.207495 9.170328 6.2762833
000160 ec 6a 70 40 ae 50 e7 40 86 cb f8 40 3c 81 f9 3f
       3.756526 7.2285986 7.774844 1.9492564
000170 0f 85 36 40 e3 7c 46 40 24 54 0e 41 e5 7c 52 3f
       2.8518713 3.1013725 8.895542 0.82221824
000180 1a 0c 83 40 5d 26 c0 40 5e 9d 3b 40 1e 3b 95 40
       4.0952272 6.004683 2.93148 4.6634665
000190 6e ec 5f 40 a3 59 c1 3f 2f ba a9 40 26 6a 80 40
       3.4988055 1.510548 5.3039775 4.0129576
0001a0 ca ea b1 40 ce 6e cc 40 ac f0 25 41 0f 66 a4 40
       5.559911 6.388526 10.371258 5.1374583
0001b0 e2 15 b2 40 e3 6a 24 40 ad 3b d0 40 b5 19 bb 40
       5.5651712 2.5690238 6.5072846 5.846888
0001c0 72 35 26 41 ed ec e3 40 c7 49 ed 40 13 6c 5d 40
       10.388048 7.1226716 7.415256 3.4597213
0001d0 91 9d 0e 40 3b e2 82 40 5d ee 18 40 23 2e 67 40
       2.228367 4.090116 2.3895485 3.612191
0001e0 76 c6 95 40 2c 1e a2 40 7b ec b0 3f e6 b8 e1 40
       4.680476 5.066183 1.3822168 7.0538206
0001f0 6c 3c 3e 40 f3 35 89 40 4b 03 08 41 47 16 de 40
       2.9724379 4.2878356 8.500804 6.9402194
000200 bb 37 6c 40 0f c1 a1 40 a6 f5 40 40 89 9d 8a 40
       3.6909015 5.0548167 3.0149932 4.3317304
000210 cb 86 aa 3f c2 0d df 3f b0 9c 80 40 43 e6 8a 40
       1.3322386 1.7426074 4.019127 4.340608
000220 30 14 0f 40 c5 ea 76 40 83 71 ab 40 90 73 1e 40
       2.2356071 3.8580792 5.3576064 2.4758034
000230 37 b8 ca 40 eb ce 34 41 65 8c b4 40 bc f7 f1 40
       6.334987 11.300517 5.642138 7.561491
000240 19 5a a4 40 59 4d 11 41 d9 e4 73 40 4c 74 61 40
       5.1359982 9.081384 3.8108428 3.5227232

fc2.weight f4 [148, 152]
000000 25 38 0a 3d cf fc 16 3e 41 04 e0 3d 8f b6 04 be
       0.03374495 0.14744876 0.10938311 -0.12960266
000010 0a 4d 17 bf b4 f1 33 3e 27 c1 b3 bd 7c 86 80 3e
       -0.5910193 0.17572671 -0.08777075 0.25102603
000020 30 a2 30 3d 18 62 af bd bf 8f 37 bd 72 37 6e bf
       0.043123424 -0.08563632 -0.04481482 -0.9305335
000030 85 89 fd 3c aa 88 29 3e 63 3d ec be e7 fd e8 be
       0.030949363 0.1655604 -0.46140584 -0.45506212
000040 1d 82 61 bf 8d ef 49 be 00 4a 9c be aa d7 6b be
       -0.8808916 -0.19720288 -0.30525208 -0.23031488
000050 47 f2 8b bd 15 b9 8b 3e 6a 65 c3 be 12 84 39 be
       -0.0683332 0.27289644 -0.3816331 -0.18116787
000060 d8 a0 f5 3c 0f fa 0b be 87 45 38 3d de 7f aa be
       0.029983923 -0.13669609 0.04498818 -0.3330068
000070 70 cd 2d bf bc f7 67 be 00 c3 c6 bd ac a9 3f be
       -0.678916 -0.22653097 -0.09705162 -0.18717068
000080 5a 5a 63 3d 5a ca 15 3c f4 c0 82 3e 30 d8 21 be
       0.055506088 0.009142483 0.25537837 -0.15805125
000090 8e 5a 52 bf 64 5d 63 3d 32 ba 1b be 61 c6 db be
       -0.82169425 0.055508986 -0.15207747 -0.4292479
0000a0 c1 55 8b 3e 1e aa 13 3e dc 26 47 3e b3 73 df bd
       0.27213863 0.14420363 0.19448417 -0.1091074
0000b0 57 6d 87 be ce cd b5 be 50 c3 9e be 96 13 0e 3e
       -0.26450607 -0.3550858 -0.31008387 0.13874659
0000c0 36 4e 16 3e 99 17 b2 bb cd 8c 04 bf 5b f7 b8 3d
       0.14678273 -0.005434942 -0.51777345 0.09031554
0000d0 22 4a ac 3d 28 32 85 3d 26 df ae 3d 55 28 79 be
       0.08412577 0.06503707 0.08538656 -0.24331792
0000e0 0d 76 74 3e 20 ff c7 bc 40 80 14 3e 4f 13 c1 bd
       0.23873158 -0.024413645 0.14502048 -0.09427511
0000f0 d9 01 35 be ef 66 f0 be 07 65 80 3e e3 1e e4 bd
       -0.17676486 -0.46953532 0.25077078 -0.11138704
000100 d4 9e cf be 94 d8 82 be 0f 60 6e be 15 c4 4f 3e
       -0.40550864 -0.2555586 -0.23278831 0.20289643
000110 04 0d 47 bf 05 4d 9d be ca 5d 93 3d 24 50 4b 3d
       -0.77754235 -0.30722824 0.07195623 0.049636975
000120 50 15 6d 3d 1a 32 04 be 5c 1c f2 be 8b ce fa bd
       0.057881653 -0.12909737 -0.4728726 -0.12246426
000130 b4 68 08 bc cf 29 59 3e 00 80 b4 be a5 b8 3a 3e
       -0.008325744 0.21207355 -0.35253906 0.18234499
000140 51 c5 03 be 19 89 bc 3d 13 b5 f7 be 4c d3 01 bd
       -0.12868239 0.09205837 -0.48380336 -0.03169565
000150 3a 3a 58 be 3b c8 b3 be 8b f1 ae 3d ab c1 e5 3d
       -0.21115962 -0.351137 0.085421644 0.1121858
000160 e5 04 80 bd cc 19 8d bd 7e 07 5b be 14 c8 c7 bd
       -0.062509336 -0.06889686 -0.21389577 -0.09754959
000170 a3 ed f0 bc 69 83 46 3e cf 0b da bd 2e c7 06 3c
       -0.029410189 0.19386066 -0.106467836 0.008226199
000180 17 e0 95 3d 9d ce 64 3e be d9 e6 bd 99 be ea 3c
       0.07318132 0.22344442 -0.11272 0.028655337
000190 61 b3 35 be 80 fa a5 3e b8 21 b4 be 1e cd 66 bd
       -0.17744209 0.3241768 -0.35181975 -0.05634796
0001a0 b2 78 39 be d5 55 7c be f3 d0 b2 3d 35 21 e6 be
       -0.18112448 -0.24642117 0.0873126 -0.4494721
0001b0 c0 78 38 3e ce 3e ee 3d ae 6a 40 be b1 fb 39 bb
       0.18014812 0.11633073 -0.18790695 -0.002837878
0001c0 bb 3f 8b be 84 39 df 3c 8d 55 9b 3b 4c e8 83 3d
       -0.2719706 0.027249105 0.004740423 0.064407915
0001d0 47 fd 8e be c7 2a 04 bd 4a 06 d3 be f3 bd 5a 3e
       -0.2792761 -0.03226736 -0.41215736 0.21361522
0001e0 c0 48 f2 bd ed d6 89 3e 32 37 6e be 9b ff 9c bd
       -0.11830282 0.26921788 -0.23263243 -0.076659404
0001f0 66 41 d3 be 56 f5 2c 3e 3a bf ea be 6d f8 83 3e
       -0.41260833 0.16890463 -0.4584902 0.2577547
000200 16 64 87 3e 1d 92 31 be 53 a8 f0 be e2 19 24 3d
       0.26443547 -0.17340894 -0.4700342 0.040063746
000210 a9 fb 53 3c 30 f3 99 3d 02 40 e9 3c cf 3c d8 bd
       0.012938418 0.075170875 0.028472904 -0.10558473
000220 38 b7 af be f1 79 1d 3e 00 00 58 3a 58 a7 95 3d
       -0.34319472 0.15378548 0.0008239746 0.07307309
000230 22 4f c3 bd 6f 1e 92 bd 2c e3 92 3d 8d 8d 5c be
       -0.09536578 -0.07134711 0.07172236 -0.21538372
000240 17 44 d0 be a2 37 28 3e 58 e0 56 bd f3 c6 37 3e
       -0.40676948 0.16427472 -0.052460045 0.17946987
000250 df 9a 81 3d df 5a 8a bc f3 c5 55 bc 7f 93 30 3c
       0.063283674 -0.016889034 -0.013047683 0.010777353
000260 56 d7 a1 3e 36 81 02 3e 8b b7 c0 be 80 7d f2 3d
       0.316096 0.12744603 -0.37640032 0.118403435
000270 6f 5e 9b 3e db 29 14 3e 55 f7 2c be b9 d4 6d be
       0.30345485 0.14469092 -0.16891225 -0.23225679
000280 ae 08 88 bd 40 cd 9c bd ee 09 ab bd e2 27 c6 3e
       -0.066422805 -0.07656336 -0.08351503 0.38702303
000290 67 a7 1e 3e cf 0e b6 be b6 ff 66 be dd 7f 07 3e
       0.15493546 -0.35558173 -0.22558483 0.1323237
0002a0 52 2d 81 bd 8a 0d 80 3d 34 08 2c be 87 99 02 3e
       -0.06307472 0.06252582 -0.16800004 0.12753879
0002b0 9d e8 45 3e 4e 2c 05 bf 1d cc 29 3e 78 9b ad be
       0.19327016 -0.5202073 0.1658177 -0.33907676
0002c0 d7 d0 e0 3e 55 71 80 3e b1 5c 90 3c 45 ec e3 3d
       0.43909332 0.25086465 0.017622324 0.11129049
0002d0 03 88 05 bc 0e 9e c6 be bd 61 62 3e 04 ce aa 3d
       -0.0081501035 -0.3879246 0.22107597 0.083400756
0002e0 fd de 8f bd d7 be 0b be 27 fe 16 be a4 1b 8a be
       -0.070249535 -0.13647018 -0.14745389 -0.26974213
0002f0 ad fd b5 be 58 7f 30 be 00 1b ea be ba eb bc 3e
       -0.35545102 -0.17236078 -0.45723724 0.36898595
000300 58 fd e5 be c1 12 48 3d 93 c0 0b be 9e db 82 bd
       -0.44919848 0.04884601 -0.1364768 -0.06389545
000310 89 0c 1f bf d9 a5 5e bf be c5 51 3e 94 cc 34 3e
       -0.621285 -0.86971813 0.20485589 0.17656165
000320 f2 ac 80 be 50 ab 33 be fe c1 0e bf 9e db 31 3e
       -0.25131947 -0.1754582 -0.5576476 0.17368934
000330 31 0b 4d be f4 7a 28 3e c1 32 22 bf 7b 65 e0 3d
       -0.200238 0.16453153 -0.63358694 0.10956856
000340 e9 26 29 bd d1 48 ca bd 01 c8 62 3e 9c d3 8b be
       -0.041296873 -0.0987717 0.22146608 -0.27309883
000350 60 fc 51 bf 4d 45 f2 3d 85 a0 36 bf 82 99 34 be
       -0.8202572 0.11829624 -0.71338683 -0.17636684
000360 11 16 f7 bd 86 a3 3c be 9a d3 d5 be dc 97 a4 3e
       -0.12064756 -0.18421754 -0.41763002 0.3214711
000370 2c 9d 5f 3e 44 cd 2b 3e b2 a0 ac 3e f2 17 25 3e
       0.218373 0.16777521 0.3371635 0.16122416
000380 f7 62 ad bd 20 0d 4b 3e 78 46 34 bf 05 26 8d be
       -0.08466142 0.19829226 -0.70420027 -0.2756807
000390 6f 7f 48 bd fa 7e a5 bd c7 cd f9 3d 2c 01 46 be
       -0.048949655 -0.080808595 0.12197452 -0.19336385
0003a0 5b da f4 3d 1d f6 95 bd 3d 7e 2c bd 99 80 57 3e
       0.119557105 -0.07322333 -0.042112578 0.2104515
0003b0 fb 7a 32 bd 3f 2d e6 bd 87 66 d1 be a1 a7 03 bf
       -0.043574315 -0.11239099 -0.40898535 -0.51427656
0003c0 ca 5a 41 bd 6b 6f b2 be 1d 50 ed be 74 f3 02 3d
       -0.047205724 -0.3485063 -0.46350184 0.031970456
0003d0 3c a2 eb be d8 13 8b bd c1 4c 50 be 18 93 50 3d
       -0.46022213 -0.06790894 -0.2034178 0.05092153
0003e0 8f 6c 9e 3d 6a 7c 7a 3c 2b b4 95 3e f5 f3 82 be
       0.0773555 0.015288452 0.2923902 -0.2557675
0003f0 68 1f 72 3e cf 1b 26 3e 1f 22 bc bd ea ec f5 bd
       0.23644793 0.16221546 -0.091861956 -0.120080784

fc2.bias f4 [148]
000000 57 73 39 bd 96 8d 22 3d d7 f0 09 3e 2a 92 af 3d
       -0.045276012 0.039685808 0.1347078 0.085728005
000010 0a 8f 75 bd b5 b0 e2 3d 37 ae a9 3c fa b5 26 be
       -0.059950866 0.110688604 0.020712955 -0.16280356
000020 46 72 e6 3d 79 23 8f bd be f2 fc bc b3 ed 26 bd
       0.11252265 -0.06989188 -0.030877467 -0.04075403
000030 1e db 89 3d 73 71 d1 3c 9b e3 1c 3e 0c 8e d4 3d
       0.067312464 0.025566792 0.153212 0.10378656
000040 63 ae 32 be 22 57 81 3d fa e1 31 3d 56 57 2f 3d
       -0.17449336 0.063154474 0.0434284 0.0428079
000050 d4 ae aa bc fc b4 a7 3c f5 2a bc bc 1f ff db bd
       -0.020835318 0.020472042 -0.022969702 -0.1074202
000060 43 94 b9 bd 70 7a 89 bd 64 e1 29 bd 1d 08 22 3d
       -0.09061482 -0.06712806 -0.041474715 0.03955852
000070 63 ab d6 bd a3 fa 20 be 0c 45 e3 3c 22 7d ee bd
       -0.10481908 -0.1572061 0.027742885 -0.11644961
000080 49 33 83 3d 6c da f3 bd 17 ed 20 be 40 6a 85 be
       0.06406266 -0.11906895 -0.15715443 -0.26057625
000090 69 91 88 bd 0e f1 a1 3a f9 f9 89 bd 93 b6 0f be
       -0.0666836 0.0012355165 -0.067371316 -0.1403449
0000a0 16 e6 7f bd 9d b5 cc bd 17 98 0a bc 0e 87 68 bd
       -0.062475286 -0.099955775 -0.008459113 -0.056769423
0000b0 a1 04 fc bb 9a 5e 8d bc 2a 07 b7 bc a5 0e 79 bd
       -0.0076909815 -0.017257024 -0.022342283 -0.06080498
0000c0 e0 51 05 bd 1e fc 9f bc 72 cf e9 3d 70 3e 74 3d
       -0.032548785 -0.019529399 0.1141652 0.059629858
0000d0 52 e4 48 3d 74 bd e2 3d 5a a5 2b bd ac b3 87 3d
       0.04904587 0.110712916 -0.04190574 0.066260666
0000e0 49 7e 3c be db b1 e8 3d 6c 5a f6 bd da 99 81 3d
       -0.18407549 0.11362048 -0.12028965 0.06328173
0000f0 cd 46 f4 bd ed 8f fc 3c f6 73 da 3d f5 55 93 bd
       -0.11927567 0.030830348 0.10666649 -0.071941294
000100 29 ff f3 3c 0b 04 84 3e d6 24 f3 3c d6 b0 0b be
       0.029784756 0.25784335 0.02968065 -0.13641676
000110 75 a5 c1 bd 3f 44 04 be f1 fa 22 3d 34 69 8a 3d
       -0.094553865 -0.12916659 0.039790098 0.06758347
000120 50 dd 53 3d 14 c3 23 be 26 2d 6d 3d ff db 46 3e
       0.051724732 -0.15992385 0.057904385 0.1941986
000130 df 19 ae 3d 79 26 22 bd 09 ee 27 3d 57 66 9d bd
       0.08501028 -0.03958747 0.040998492 -0.076855354
000140 85 8e 8f bc 72 ed 36 3e fa ec 16 3e a7 a9 51 3d
       -0.017524013 0.17864016 0.14738837 0.051187184
000150 41 81 92 bd f1 ab ca 3e cc 2a 3a be a3 a8 cf bd
       -0.071535595 0.39584306 -0.18180388 -0.10139587
000160 fb c3 53 3e c3 71 9b bd 06 df 82 be 41 44 7a 3d
       0.2068023 -0.07590058 -0.25560778 0.06110025
000170 72 ad 45 be 98 c7 8d 3c 5c 51 37 3e 9f b0 f3 bd
       -0.19304445 0.017307088 0.1790213 -0.11898922
000180 ed b5 1c be cb 30 b4 3e 32 07 c5 3c 7d 44 0b 3c
       -0.15303774 0.35193476 0.024051283 0.008500216
000190 1c 52 d1 be c8 99 38 3e 98 b6 0d bd 17 69 9a bc
       -0.40882957 0.18027413 -0.034597963 -0.018848939
0001a0 9e 9d c1 3d 2c 3a 96 bd b2 52 8f 3d 87 52 9c 3c
       0.09453891 -0.07335314 0.06998195 0.01908232
0001b0 3d 48 87 bd 6b bd 86 bd 45 dd f6 3d 8e c5 d1 3d
       -0.06605575 -0.06579097 0.120539226 0.10242759
0001c0 6a 7e 1e 3e cc 73 f9 bd af 70 2f 3d 4b c3 1e 3e
       0.1547791 -0.121802896 0.042832073 0.15504186
0001d0 42 91 c8 bb 2a fa 93 3c cc 9d af 3d 5a 61 90 3d
       -0.0061208317 0.018063623 0.08575019 0.07049818
0001e0 91 ca 3d 3e 2b d2 a0 be 4f 00 2e be 05 0b b6 bd
       0.18534304 -0.31410345 -0.16992305 -0.088888206
0001f0 02 38 33 be e4 72 f6 bd 54 50 ba 3d 39 45 06 be
       -0.17501834 -0.120336324 0.090973526 -0.13112344
000200 a9 8f d0 3d 0f d7 34 bc ea 3e 6c 3e ff 97 a0 bd
       0.10183651 -0.011037602 0.23070875 -0.07841491
000210 de f5 9f 3d 5f 66 fc 3d de 52 2f bd 7d 33 c5 bc
       0.07810567 0.12324213 -0.042803638 -0.024072403
000220 77 ea d0 bc 8b 8a 8d 3e 72 cd b4 bc 63 04 d6 bc
       -0.025502427 0.27644762 -0.02207062 -0.026125139
000230 62 37 44 bc 27 8f 49 bd 35 dc 37 bd b8 02 b9 3d
       -0.011976095 -0.049208786 -0.04488774 0.09033722
000240 f4 42 e6 bd f7 10 ed 3d 60 6b 30 be 66 30 2d 3e
       -0.11243239 0.115755014 -0.1722846 0.16912994

bn2.weight f4 [148]
000000 c1 90 14 3f 82 6e c8 3e 2e 5b d1 3e e7 cf 80 3e
       0.58033377 0.3914681 0.40889877 0.25158617
000010 3d 25 49 3e 2d b2 41 3e 36 09 5a 3e a1 31 87 3e
       0.19643112 0.18915625 0.21292576 0.2640505
000020 15 d1 d1 3e 18 91 3d 3e f2 a2 dc 3e 87 d2 49 3e
       0.4097983 0.1851238 0.43093067 0.19709216
000030 d4 7a 06 3f d4 ff 13 3f 76 90 a0 3e 6f dc 13 3f
       0.5253117 0.5781224 0.31360215 0.5775823
000040 f1 0c 2b 3f 00 cd 0c 3f 75 db 30 3f a6 01 87 3e
       0.6681662 0.55000305 0.69084865 0.26368445
000050 06 bf 7d 3e 0e d6 5f 3e 61 eb 57 3e f7 ce d3 3e
       0.24779901 0.21858999 0.21085884 0.4136884
000060 30 83 42 3e d3 22 d7 3e 2b 0b 72 3e aa e7 48 3e
       0.18995357 0.42018756 0.23637073 0.19619623
000070 9d 35 41 3e ca e2 08 3f 5d 0d 54 3e f3 f2 cb 3e
       0.18868108 0.5347105 0.20708223 0.39833793
000080 46 aa a4 3e ac 4c 2f 3f 41 5f be 3e 48 c5 f0 3e
       0.32161158 0.68476367 0.37182048 0.47025514
000090 1a db 5a 3e c9 d0 0f 3f 55 65 50 3e 47 2f 4e 3f
       0.21372643 0.56177956 0.20351155 0.8054089
0000a0 c1 9e b4 3e dc 19 9a 3e 5d e2 a5 3b 21 63 db 3e
       0.3527737 0.30097854 0.005062385 0.42849067
0000b0 8a 80 24 3f ef 32 d7 3e 57 57 76 3e 0a 95 71 3e
       0.64258635 0.42031047 0.24056755 0.2359201
0000c0 31 8e 06 3f 92 fd 9d 3e 9f 82 bb 3e e0 a7 7d 3e
       0.52560717 0.3085752 0.36623093 0.2477107
0000d0 42 0a 55 3e f2 ba 90 3e e6 0b ed 3e 12 5f 0b 3f
       0.20804694 0.28267628 0.4629814 0.5444194
0000e0 38 8e e5 3e a1 4e b4 3e 6f bc 18 3f d5 3b 81 3e
       0.44835067 0.3521624 0.59662527 0.2524096
0000f0 98 6f a1 3e e5 fb 0d 3f 98 af c2 3e 87 8a 07 3f
       0.31530452 0.55462486 0.38024592 0.5294575
000100 8c 51 b9 3b 6d 60 f9 3e 4e ab d0 3e d8 55 17 3f
       0.005655473 0.4870638 0.40755695 0.5911536
000110 1d 2d 9e 3e 88 73 d9 3e c1 10 68 3e fb 3c 59 3e
       0.30893794 0.42470956 0.22662641 0.21214668
000120 f7 0d d8 3e 09 50 ae 3e 72 2a 4f 3e 7c 14 6c 3e
       0.42198154 0.34045437 0.20231035 0.23054689
000130 7b e1 ec 3e 13 f1 85 3e bd 3b 99 3e 09 02 8c 3e
       0.46265778 0.26160488 0.2992839 0.27345303
000140 3f b1 05 3f cb 2f b1 3e d5 7e 5e 3e e1 09 0f 3e
       0.5222358 0.34606776 0.2172807 0.13968612
000150 62 f3 89 3e a1 fb f7 3e 19 9c 21 3f 1b 7a 1a 3f
       0.269435 0.48434165 0.6312881 0.6034257
000160 19 40 04 3f f4 72 8e 3e 54 bf bc 3e a1 5d 2c 3f
       0.51660305 0.27822077 0.36864722 0.67330366
000170 9c 2c c5 3e 35 3b 97 3e 54 dc f3 3e 9a 2b 96 3e
       0.38510597 0.2953736 0.47629035 0.2933014
000180 4d d3 1b 3f 30 d1 53 3f ef 1f e0 3e 0b 46 c8 3e
       0.60869294 0.8274107 0.43774363 0.3911594
000190 8e 88 81 3e 62 b1 9e 3e af 76 ab 3e 5b 69 e6 3e
       0.25299495 0.30994707 0.33488986 0.45002255
0001a0 e8 d5 59 3e 20 64 e6 3e 64 6f 89 3e ae 99 6a 3b
       0.21273005 0.44998264 0.26842797 0.0035797167
0001b0 d3 8c 9e 3e 94 22 92 3e 12 ed f9 3e 4a 4a 79 3e
       0.30966815 0.28542006 0.48813683 0.24344745
0001c0 e1 86 6d 3e c6 d7 06 3f f8 e7 70 3e 01 dd dd 3e
       0.23195983 0.52672994 0.23525989 0.43332675
0001d0 56 1d 8c 3e 42 8f f4 3e 0d 8d 37 3f 8f 48 35 3e
       0.27366132 0.47765547 0.716996 0.1770346
0001e0 e0 6d a9 3e fb e6 9c 3e 4c 11 09 3f 04 5e 95 3e
       0.3309164 0.30644974 0.5354202 0.2917329
0001f0 da 35 07 3f af a9 90 3e 5a d3 94 3e f6 86 8e 3e
       0.52816546 0.28254458 0.29067498 0.27837342
000200 73 ef c9 3e 3b ce 9c 3e 02 1d a2 3e 36 1b 4b 3e
       0.39440498 0.3062609 0.31662756 0.19834599
000210 08 12 d0 3e a2 86 1d 3f f7 f5 0c 3f 64 39 cd 3e
       0.40638757 0.6153356 0.5506281 0.40082848
000220 63 1a 00 3f 64 89 b2 3e e3 5d 69 3e 16 2d 25 3f
       0.5004026 0.34870446 0.22789721 0.6452192
000230 5c 2c 1c 3f 57 a1 ef 3e 33 1b 51 3e 8f aa 00 3f
       0.6100519 0.4680278 0.20420532 0.5026025
000240 bf 81 dc 3e 8f af 97 3e 0e cf 92 3e f7 0f 64 3e
       0.43067738 0.29626128 0.28673595 0.22271715

bn2.bias f4 [148]
000000 6b 19 c5 3d 72 08 e0 be f7 44 ef be 37 61 83 be
       0.09623989 -0.43756443 -0.46732304 -0.25660107
000010 8b a5 03 be 96 4e eb 3c e2 12 aa be 6e 03 0f be
       -0.12856118 0.028723996 -0.3321753 -0.13966152
000020 16 df 82 bd bf 8c 87 be a0 d4 86 be fd d7 78 be
       -0.063902065 -0.26474568 -0.26334095 -0.24301143
000030 9a 08 06 3e 85 84 ad be bb dc 0e bd 8c e2 0a 3e
       0.13089219 -0.33890167 -0.034878474 0.13562983
000040 27 24 57 3d f7 14 70 3d 22 20 e0 bd 0e d4 22 be
       0.052524712 0.058613744 -0.10943629 -0.15901205
000050 95 92 da bd 9d 2a f2 bd cf 77 7f be 82 6c 8b be
       -0.106724896 -0.11824534 -0.24948047 -0.27231222
000060 35 ef e0 3d 41 8f 9e be cb eb 03 be 08 45 10 be
       0.10983125 -0.3096867 -0.12882917 -0.14088833
000070 6f 2f 01 bf ca 1a 2a be eb 74 30 be 93 da 92 be
       -0.50463 -0.16611782 -0.172321 -0.28682384
000080 a5 b3 3a 3d 18 39 43 bd 12 fe fa be bb 37 87 be
       0.04558148 -0.04766187 -0.49021965 -0.26409706
000090 5d 65 c5 be b6 bc f0 bc 61 4a 03 be 17 d5 9e 3d
       -0.38553897 -0.02938686 -0.12821342 0.077554874
0000a0 ec 39 34 3e 99 d1 d8 3e 7c 42 f5 bc 11 f6 1e 3e
       0.1760022 0.4234741 -0.029938929 0.15523554
0000b0 8e 85 d3 bd 48 b7 88 bd a4 37 b6 be 02 d8 aa be
       -0.10328208 -0.06675583 -0.35589325 -0.33367926
0000c0 1e 1c c2 be e0 f4 ee be 43 21 00 bf 87 c9 ed bd
       -0.37912077 -0.466712 -0.50050753 -0.11610704
0000d0 9b 51 79 bc 56 a0 c0 be 3c 16 85 be bf c1 9b be
       -0.01521721 -0.37622327 -0.25993526 -0.30421254
0000e0 84 33 1b bf e8 6b e2 be de 95 75 be a0 23 ab be
       -0.6062548 -0.4422295 -0.23982951 -0.33425617
0000f0 b3 94 ce be 23 46 40 3a 8b 1d 89 be 13 cd 51 3b
       -0.40347824 0.000733467 -0.26780352 0.0032013103
000100 bb 20 57 bd 60 2a 06 bf 6e 2e 18 bd e9 01 bd 3d
       -0.05252145 -0.5240841 -0.037153654 0.0922888
000110 d2 91 b6 3c 76 6d 17 bf 3e 2c 6a be f7 5a 10 be
       0.02228633 -0.591514 -0.2286844 -0.140972
000120 a2 e9 c4 be eb 98 8a be e7 5b 11 be d2 1c 5c be
       -0.38459498 -0.27069792 -0.14195214 -0.21495369
000130 81 db b0 be 3b f8 06 bd 13 0e da bd e0 52 1b bd
       -0.34542468 -0.032951575 -0.10647216 -0.037920833
000140 5b e8 42 bd 21 ab 66 bd a4 0a 28 be 9d 4c a2 be
       -0.047584873 -0.056315545 -0.16410309 -0.31699076
000150 18 8a ac be 94 fa 0a 3e 53 36 94 be ae c6 6b be
       -0.33699107 0.1357215 -0.28947696 -0.23025009
000160 c7 47 89 be 20 f8 28 bd 4c 7d a5 be 74 ed a6 3d
       -0.26812574 -0.041252255 -0.32322156 0.08150759
000170 b5 f8 37 3d 2f d7 cd 3e 50 a1 3b bd 37 0f 0a be
       0.04491492 0.40203235 -0.045808136 -0.13482367
000180 56 04 62 be 56 c9 02 3e a7 1e 03 bf e7 5c f0 bd
       -0.22071967 0.12772116 -0.51218647 -0.1173647
000190 73 36 2b bd c3 b4 16 3f 50 76 a1 be 55 fc 34 bd
       -0.041799974 0.5886957 -0.31535578 -0.044185955
0001a0 54 a7 63 be 53 2d 09 3d 17 3b 04 bf ee 63 88 bd
       -0.222318 0.03349049 -0.51652664 -0.06659685
0001b0 37 89 8c bd 28 83 fb bc 7a c0 48 be e2 c1 a1 be
       -0.06862109 -0.030702189 -0.19604674 -0.31593233
0001c0 69 d9 d8 bd 62 9b ad be 72 7c d4 be 39 bf 16 bf
       -0.10588343 -0.3390761 -0.41501194 -0.5888553
0001d0 8e f7 08 be f0 91 e3 be f3 de 55 be 7d bb 5e be
       -0.13375685 -0.4444728 -0.2088583 -0.21751209
0001e0 d6 fa 64 bd 7d 6b 09 be 82 20 83 3d ba ce 8e bd
       -0.05590328 -0.1341991 0.06402685 -0.06973024
0001f0 35 49 cc 3c a8 57 6f 3d 4e ec ad be 4c 8e 34 be
       0.024937252 0.058433205 -0.3396935 -0.17632407
000200 01 c3 ae be 61 43 0f be b0 c4 a7 3e 08 97 5c be
       -0.3413315 -0.13990547 0.32767248 -0.21541989
000210 df 7b 17 bf d8 e6 c2 be 7b c0 36 be f3 cf f9 be
       -0.5917339 -0.38066745 -0.17846863 -0.48791465
000220 79 1d 98 be 1b 6d 69 bd 0d 78 a1 bd ff 04 09 3d
       -0.29709986 -0.056988817 -0.07884226 0.03345203
000230 70 65 b7 be cc 4f 08 3e e5 94 eb bd c9 8c ed be
       -0.35819578 0.1331169 -0.11503009 -0.46396473
000240 b6 27 02 bf 7e 7b 5c be 8a 0e 4f be 36 3b 75 be
       -0.50841844 -0.21531484 -0.2022039 -0.23948368

bn2.running_mean f4 [148]
000000 6a 27 c0 bf a5 c3 96 bf 18 33 87 3f db f0 48 bf
       -1.5012028 -1.1778456 1.0562468 -0.78492516
000010 15 fd 25 bf 73 c5 69 bf 9b 21 9b bf 82 98 8e bf
       -0.648393 -0.9131691 -1.211963 -1.1140292
000020 02 38 a5 bf 75 65 1e bf 6c 60 ea be 55 f1 85 bf
       -1.2907717 -0.6187356 -0.4577669 -1.0464274
000030 85 52 9c bf f4 53 c7 bf b5 a0 99 bf 8b 4b ac bf
       -1.2212683 -1.5572495 -1.2002169 -1.3460554
000040 dd 4a d7 bf 4a 95 81 bf fb b7 a6 bf 65 4c 60 bf
       -1.6819721 -1.0123684 -1.3024896 -0.8761657
000050 c1 27 5a bf 0a 5e 11 bf 95 d0 4d 3f 02 93 9d bf
       -0.8521691 -0.5678412 0.80396396 -1.2310488
000060 e0 78 c1 bf cf 2b 35 be 80 39 f5 be 68 69 9f be
       -1.5115013 -0.17692493 -0.47895432 -0.31135106
000070 7d e2 cf 3f 8b 15 81 bf e0 22 21 bf c7 28 63 bf
       1.6240994 -1.0084699 -0.6294384 -0.88734096
000080 02 ea 47 bf 8a 4b c4 bf 80 08 80 bf 6d ad db be
       -0.7809144 -1.5335553 -1.0002594 -0.4290575
000090 7b 69 99 bf 3d 41 83 bf a0 6d 8f bf 00 b5 ca bf
       -1.1985315 -1.0254284 -1.120533 -1.5836487
0000a0 80 a9 74 bf 99 44 e9 bf 1b 13 88 be 1a c2 cb bf
       -0.95571136 -1.8224059 -0.26577076 -1.591861
0000b0 4f 99 3a bf ee 7f e7 bf 0b 53 81 bf 9b 1a 21 3f
       -0.7289018 -1.8085916 -1.0103468 0.6293122
0000c0 60 79 0f bf db 5d 26 bd 96 f5 a9 be a9 1a a4 bf
       -0.5604458 -0.04061685 -0.3319518 -1.2820636
0000d0 a8 b6 22 bf e6 45 75 bf 0b 10 77 bf 89 0f 71 bf
       -0.6355996 -0.9580978 -0.96508855 -0.9416433
0000e0 e4 a7 2f bf d1 62 29 3f ef 38 b1 bf b1 83 dc be
       -0.68615556 0.66166407 -1.38455 -0.43069223
0000f0 e8 df 89 bf b7 d4 d8 be c3 e4 4a bf 4b 45 72 bf
       -1.0771456 -0.4234979 -0.7925531 -0.9463698
000100 83 05 4b bd 3e 42 8f bf 02 cf b9 bf ba f5 d6 bf
       -0.049565803 -1.119209 -1.4516299 -1.679374
000110 94 da 74 bf 5d 38 97 bc e1 36 63 be b5 12 0a bf
       -0.95646024 -0.018459493 -0.22188903 -0.53934795
000120 98 fe 2f be 36 b0 d8 bf 65 6e 29 bf 54 da 95 bf
       -0.17186964 -1.6928775 -0.66184074 -1.1707253
000130 b2 2c 65 bf 28 ad 8a bf 51 10 80 bf 82 00 68 bf
       -0.89521325 -1.0834093 -1.0004979 -0.90625775
000140 c4 5e b8 bf e3 c8 49 bf a0 12 13 bf a7 bb 21 3f
       -1.440392 -0.78822154 -0.57450294 0.6317696
000150 d9 2e 03 bf 54 eb 49 bf 2e cf 0f c0 e8 95 c1 bf
       -0.5124336 -0.7887471 -2.2470202 -1.5123873
000160 c7 8f 82 bf 22 f6 b9 bf d1 c0 79 bf 5c e3 85 bf
       -1.0200127 -1.4528239 -0.9755984 -1.046001
000170 80 e7 cb bf 99 be d7 bf 3e ba 36 bf da 58 8d bf
       -1.5930023 -1.6855041 -0.71377933 -1.104274
000180 af e8 8c bf ac 69 82 bf a0 92 20 bf 60 ce 9f bf
       -1.1008509 -1.0188498 -0.6272373 -1.2484856
000190 c8 17 ad bf 7d 92 df bf 56 46 b4 be 9c 1d 8d bf
       -1.3522882 -1.746658 -0.35209912 -1.1024661
0001a0 00 a8 2a bf 3c d3 8b be aa da 5a 3f b3 4b f6 bd
       -0.666626 -0.27309597 0.85489905 -0.12026157
0001b0 23 11 a2 bf 14 31 58 bf 3c 06 2f bf 41 a1 be bf
       -1.266148 -0.8444989 -0.6836889 -1.4892961
0001c0 ff 51 96 bf f1 9a 94 bf b8 6a 64 bf 17 c3 64 bf
       -1.1743773 -1.1609784 -0.8922534 -0.89360183
0001d0 2f 46 48 bf 08 ae 8a bf 76 48 a9 bf ff 8a 48 3f
       -0.7823209 -1.083436 -1.3225238 0.7833709
0001e0 4d b4 5e bf e7 03 05 c0 64 4d a9 bf de 4b 20 bf
       -0.8699387 -2.0783632 -1.3226743 -0.62615764
0001f0 4d 60 96 bf 4b 08 87 bf 50 32 d3 bd 49 16 98 bf
       -1.1748139 -1.0549406 -0.10312331 -1.1881801
000200 d4 c7 5b bf 4a 8e 0c bf d6 40 be bf 36 0f 6e be
       -0.8585179 -0.54904616 -1.4863536 -0.2324799
000210 1d a7 69 bf 79 14 77 bf 70 ab 5f bf 51 2b b0 bf
       -0.9127062 -0.96515614 -0.8737097 -1.3763219
000220 d9 52 b0 bf 74 62 ae bf 26 95 bf bf 67 c6 d7 bf
       -1.3775283 -1.3623796 -1.4967391 -1.6857423
000230 14 47 d2 bf fc 2c 91 bf 38 4d e8 bd 61 12 0e bf
       -1.6427941 -1.1341853 -0.11342853 -0.55496794
000240 ff 9c e1 bf 0b 94 82 bf 9e f9 be bf fa ae 56 bf
       -1.7626036 -1.0201429 -1.4919927 -0.83860743
