SingleAgent-best_critic.pth (torch_old, 118307 bytes, 13 tensors)

fc1.weight f4 [148, 33]
-0.17874788 -0.090415746 -0.001265813 0.4276625 -0.8743092 -0.58904916 -0.7545125 0.055485707
0.14789805 -0.14388877 0.02993878 -0.06565436 0.053035602 0.123791076 -0.074232124 0.0034974706
0.7205288 -0.56405306 0.33909062 -0.6151081 -0.021128928 0.017666591 -0.0382283 0.08448517
-0.10645884 0.006066068 -0.05780412 -0.19169353 -0.25479117 -0.0773874 0.0894884 -0.075556085
6.201002 0.22371013 -0.24065651 0.3284595 -3.0205657 -1.430754 -0.72288954 0.8637652
0.068495385 0.15530221 -0.57011557 0.40210983 -0.19357453 0.5182586 -0.05743314 0.18267116
0.09712354 -0.44851026 0.04535795 1.5665015 -0.29517505 -0.040705077 0.15431604 -0.218091
0.16426197 0.11821554 0.39489144 0.042816024 0.24731557 0.22150052 -0.0039573386 -0.14151436
0.05594609 -2.1841967 0.61156404 -0.13664937 0.28948075 1.6846228 -1.8356519 -0.045035124
1.8628757 0.1003785 0.4794507 0.24487919 -0.09013194 -0.04854908 0.08614033 -0.55228794
0.15403366 -0.09061889 -1.3907583 0.5053799 -0.071497686 -0.14725478 -0.017077358 0.087786555
0.046604183 -0.5967613 0.2052465 -0.11243322 0.38769522 0.14184284 -0.18444422 0.0640334
-0.1804074 0.06214442 -3.009815 0.37465015 0.09210184 0.4266838 -0.047506727 0.848913
-1.3167373 -2.5860581 0.12100455 0.12136221 -1.0187731 0.22710754 0.21271755 0.19941613
-0.19613145 -0.22339435 -0.60872316 2.1920538 -0.63454205 -1.3219719 -0.25112194 0.019590188
-0.06635273 0.12313492 -0.54421926 -0.01802902 -0.26130474 0.39982036 -0.06460606 -0.051969178
-0.03500643 0.078454986 0.019144304 -1.988002 0.21519522 -0.26358417 -0.3994369 -1.2925729
1.1233983 -2.2971613 0.21984152 0.043138087 0.39311308 0.2434063 0.16549245 -0.24295697
-0.06573101 0.15296629 0.123210736 0.35281026 1.03165 -2.5423825 1.1469623 -0.31767476
-0.020835385 -0.028244028 -0.060137037 -0.03397337 -0.2997988 0.0061424486 -0.6922566 0.12258801
0.00057810236 0.06316192 -0.13303864 0.028930508 -2.16343 0.757216 0.07295381 -0.8784211
-0.98043776 -0.9977685 -0.6859759 0.9642989 0.9514852 -1.5041279 -0.34041008 -0.37294817
-0.18506004 0.050144747 -0.48842457 -0.07414248 0.38799897 0.39596438 -0.47358435 -0.64171326
1.3327368 0.08793723 -0.15858436 0.3261666 -0.12003838 -0.03323284 -0.16320567 0.2970686
-0.21536349 -0.68139666 0.016331963 0.17430942 -0.014107414 -1.4470781 -0.11212472 0.033198185
0.029515972 0.021123506 0.95280385 1.1980686 -0.7311105 -0.036464132 -0.26792398 0.19457664
-0.047601294 0.102303036 0.042705067 0.12378417 0.0109350635 -0.030657807 1.2586669 1.0092888
-0.71583754 -0.40892026 -0.0012994786 0.044488937 -0.013718411 -0.0248161 0.03666279 -0.009398815
0.1000199 -0.04516016 0.2326881 0.061082624 0.13100228 -0.012696363 5.338934 0.17163445
-0.25046533 -0.12993538 0.18352821 -0.2806679 -1.5742584 1.1893061 -0.431099 -0.32418367
-0.3193763 0.1856653 -0.46710706 0.0364812 0.033385646 -0.16521403 0.81832266 -0.4978345
1.5545126 3.1582406 -0.6360933 -0.07669217 -0.0039062118 -0.32033268 0.54990834 -0.017376969
00000000: af09 37be e42b b9bd a3e9 a5ba 94f6 da3e
00000010: bad2 5fbf edcb 16bf bb27 41bf fb44 633d
00000020: 9672 173e 9457 13be 2c42 f53c cb75 86bd
00000030: dc3b 593d 2d86 fd3d 0307 98bd d235 653b
00000040: 9374 383f c865 10bf 499d ad3e b977 1dbf
00000050: 9316 adbc 87b9 903c 4795 1cbd 9006 ad3d
00000060: 1807 dabd dec5 c63b 03c4 6cbd 4f4b 44be
00000070: fd73 82be 497d 9ebd b245 b73d 26bd 9abd
00000080: 9c6e c640 4514 653e a96e 76be d82b a83e
00000090: f350 41c0 f222 b7bf 4a0f 39bf b71f 5d3f
000000a0: 4f47 8c3d 8b07 1f3e 18f3 11bf 57e1 cd3e
000000b0: 6738 46be 98ac 043f 033f 6bbd 260e 3b3e
000000c0: b5e8 c63d 23a3 e5be 42c9 393d 1f83 c83f
000000d0: 2f21 97be 5eba 26bd 0605 1e3e 3f53 5fbe
000000e0: 4a34 283e fd1a f23d 362f ca3e db5f 2f3d
000000f0: 4b40 7d3e 08d1 623e 90ac 81bb 24e9 10be
00000100: ba27 653d e1c9 0bc0 768f 1c3f d0ed 0bbe
00000110: d236 943e b8a1 d73f a4f6 eabf c076 38bd
00000120: b672 ee3f 3e93 cd3d 907a f53e 9cc1 7a3e
00000130: 1897 b8bd 66db 46bd 576a b03d be62 0dbf
00000140: 00bb 1d3e 6696 b9bd 5e04 b2bf 9460 013f
00000150: 616d 92bd f5c9 16be d1e5 8bbc 70c9 b33d
00000160: 07e4 3e3d 59c5 18bf 232c 523e 6343 e6bd
00000170: fd7f c63e 403f 113e f2de 3cbe f123 833d
00000180: b8bc 38be 268b 7e3d cfa0 40c0 25d2 bf3e
00000190: e49f bc3d 4d76 da3e 6a96 42bd 5d52 593f
000001a0: d98a a8bf fa81 25c0 3cd1 f73d c08c f83d
000001b0: 2867 82bf e18e 683e a1d2 593e be33 4c3e
000001c0: afd6 48be 7dc1 64be 48d5 1bbf 9c4a 0c40
000001d0: 5971 22bf 6036 a9bf 0e93 80be 9a7b a03c
000001e0: f1e3 87bd 292e fc3d f451 0bbf 98b1 93bc
000001f0: bcc9 85be 41b5 cc3e 2f50 84bd a2dd 54bd
00000200: e762 0fbd 02ad a03d 84d4 9c3c d976 febf
00000210: 235c 5c3e 81f4 86be fe82 ccbe 0773 a5bf
00000220: 84cb 8f3f b104 13c0 231e 613e 90b1 303d
00000230: 1e46 c93e 803f 793e da76 293e b6c9 78be
00000240: fb9d 86bd 32a3 1c3e e955 fc3d 8ca3 b43e
00000250: 1b0d 843f 65b6 22c0 a9cf 923f 44a6 a2be
00000260: f8ae aabc 0560 e7bc 4152 76bd a927 0bbd
00000270: 3a7f 99be 9846 c93b bb37 31bf 6c0f fb3d
00000280: cb8b 173a 095b 813d 483b 08be acff ec3c
00000290: a375 0ac0 e8d8 413f cf68 953d 35e0 60bf
000002a0: f8fd 7abf c26d 7fbf 1e9c 2fbf 4bdc 763f
000002b0: 8994 733f 4387 c0bf 3b4a aebe 10f3 bebe
000002c0: 6180 3dbe 9464 4d3d c912 fabe 03d8 97bd
000002d0: cda7 c63e d8bb ca3e a679 f2be 5247 24bf
000002e0: 1f97 aa3f 6f18 b43d f063 22be 4fff a63e
000002f0: afd6 f5bd 291f 08bd 631f 27be 6019 983e
00000300: 3f88 5cbe 0370 2ebf 9cca 853c 2b7e 323e
00000310: c822 67bc db39 b9bf a5a1 e5bd d2fa 073d
00000320: 7bcb f13c 340b ad3c f4ea 733f 505a 993f
00000330: 0f2a 3bbf 6a5b 15bd 552d 89be 193f 473e
00000340: 93f9 42bd 4184 d13d 82eb 2e3d 8e82 fd3d
00000350: fb28 333c 1526 fbbc ff1b a13f 6030 813f
00000360: 2141 37bf ff5d d1be 4453 aaba 083a 363d
00000370: 30c3 60bc 224b cbbc b92b 163d 7dfd 19bc
00000380: 3cd7 cc3d dcf9 38bd ca45 6e3e c631 7a3d
00000390: 7625 063e 6804 50bc 8cd8 aa40 f1c0 2f3e
000003a0: fe3c 80be c80d 05be d2ee 3b3e b4b3 8fbe
000003b0: 4d81 c9bf 2f3b 983f 02b9 dcbe 67fb a5be
000003c0: 4a85 a3be 0b1f 3e3e a828 efbe 506d 153d
000003d0: 63bf 083d de2d 29be 987d 513f 2ae4 febe
000003e0: 45fa c63f 9d20 4a40 03d7 22bf c910 9dbd
000003f0: 5cff 7fbb a502 a4be cbc6 0c3f 255a 8ebc

fc1.bias f4 [148]
0.31915826 -0.05706946 -0.04029877 0.30235535 0.21172073 -0.057722412 0.18168284 0.08394262
-0.28939623 -0.16245887 0.008499975 0.304197 -0.07814269 -0.19388796 -0.18318719 -0.020623181
0.02208313 -0.14828797 0.21859878 0.06644091 -0.2225033 -0.029537557 -0.36844867 0.058585916
-0.3948485 0.061430763 0.21825965 0.017528081 -0.36772323 0.027382769 -0.1992767 -0.08970023
0.08945079 0.12416056 0.43187436 0.0787144 -0.06550461 0.041924454 -0.22871593 0.231192
0.1888689 0.4281437 0.14425188 0.14871989 -0.13539936 0.039232332 0.31017503 -0.027534151
0.023755863 0.11238506 0.2643728 -0.05411292 -0.009503203 -0.123016566 -0.22451118 0.03285271
0.108238615 -0.26733682 -0.15948251 0.09117401 -0.18035147 0.35306633 -0.06597016 -0.19874083
0.042553905 0.143153 0.040825505 0.57560146 0.30690458 0.030340903 -0.040467657 0.14024137
0.116848655 -0.361298 0.06409618 0.1367722 0.080518775 -0.37063515 0.1634304 0.049549665
-0.058016144 0.042702798 -0.13592754 0.014114169 0.17999505 0.4319033 -0.2802713 0.14454117
-0.04728447 -0.044499956 -0.10766828 0.21829778 0.0118243275 -0.047689006 0.13909419 0.021305667
0.16067478 0.03065062 -0.0067433724 0.36095142 -0.021915426 -0.08451917 0.14568087 -0.025506072
-0.01773414 0.19421539 0.07418475 -0.08464008 0.008255473 0.116099685 -0.26956668 0.06265254
0.2759865 -0.23637366 0.26924798 0.03294497 -0.7454044 0.11945862 -0.13839385 -0.5543036
-0.24501258 -0.053911135 0.20022206 0.09930882 0.2616078 0.045102842 -0.19265528 -0.32321948
0.23086804 -0.072775416 -0.32166204 0.13265583 0.0787016 -0.1679589 0.32091677 -0.11175484
-0.15477225 0.026041882 0.20844081 -0.20950033 0.3909393 -0.009712496 -0.45073834 0.2790668
0.026868008 -0.17787528 -0.16834006 0.12741597
00000000: b668 a33e abc1 69bd 5310 25bd 52ce 9a3e
00000010: 52cd 583e 566e 6cbd 110b 3a3e 1cea ab3d
00000020: be2b 94be 9e5b 26be 7b43 0b3c b6bf 9b3e
00000030: 4609 a0bd 918a 46be 6c95 3bbe f2f1 a8bc
00000040: aee7 b43c cdd8 17be 5cd8 5f3e 2c12 883d
00000050: e8d7 63be bff8 f1bc 4ea5 bcbe c9f7 6f3d
00000060: 9529 cabe d39e 7b3d 757f 5f3e 0d97 8f3c
00000070: 3846 bcbe d451 e03c 310f 4cbe c1b4 b7bd
00000080: fa31 b73d e447 fe3d a31e dd3e 0435 a13d
00000090: 4827 86bd fab8 2b3d 8234 6abe 98bd 6c3e
000000a0: d966 413e a735 db3e c4b6 133e 074a 183e
000000b0: 21a6 0abe 15b2 203d 43cf 9e3e 4d8f e1bc
000000c0: a89b c23c 232a e63d df5b 873e 82a5 5dbd
000000d0: 53b3 1bbc 1cf0 fbbd 42e6 65be 9090 063d
000000e0: 35ac dd3d 5fe0 88be 624f 23be 70b9 ba3d
000000f0: 0eae 38be 1cc5 b43e 5d1b 87bd b782 4bbe
00000100: 014d 2e3d b396 123e a538 273d 9e5a 133f
00000110: 9922 9d3e 7c8d f83c 6ac1 25bd 6f9b 0f3e
00000120: 594e ef3d 0dfc b8be dc44 833d 030e 0c3e
00000130: 07e7 a43d e4c3 bdbe 4c5a 273e 97f4 4a3d
00000140: 56a2 6dbd 21e9 2e3d 9730 0bbe 1e3f 673c
00000150: 9f50 383e 6e22 dd3e b87f 8fbe 9a02 143e
00000160: 5cad 41bd 9645 36bd 3081 dcbd 7489 5f3e
00000170: d3ba 413c 8c55 43bd b56e 0e3e 3989 ae3c
00000180: ee87 243e 0217 fb3c 82f7 dcbb a0ce b83e
00000190: fb87 b3bc 6318 adbd 5e2d 153e 1cf2 d0bc
000001a0: 3047 91bc 66e0 463e 2dee 973d c757 adbd
000001b0: f741 073c acc5 ed3d a504 8abe fa4f 803d
000001c0: 1a4e 8d3e f00b 72be dfda 893e 4ef1 063d
000001d0: d3d2 3ebf b9a6 f43d 1eb7 0dbe d7e6 0dbf
000001e0: 94e4 7abe ecd1 5cbd 0307 4d3e 6c62 cb3d
000001f0: 75f1 853e c2bd 383d 6d47 45be 067d a5be
00000200: ac68 6c3e 470b 95bd e3b0 a4be eed6 073e
00000210: 4e2e a13d 6bfd 2bbe 344f a43e b9df e4bd
00000220: 9e7c 1ebe c955 d53c 8271 553e 4187 56be
00000230: 3229 c83e 2921 1fbc 2dc7 e6be d8e1 8e3e
00000240: 4c1a dc3c f024 36be 5661 2cbe 5579 023e

bn1.weight f4 [148]
1.31453 0.61865985 0.66643685 0.88938653 0.76418763 0.6782081 1.1884948 0.5948033
1.6391724 0.47333738 0.87782055 0.9028224 0.7128047 0.71598697 0.7848084 0.7675829
0.0022369667 0.6155179 0.6671287 1.1880006 0.7723927 0.8898604 0.56551826 0.8020261
1.2139845 0.47021803 0.6706769 0.89524937 0.74974424 0.8254365 1.1313549 0.5357782
0.70177215 0.37945256 0.49279267 0.7061525 1.0505294 0.6948839 0.9666695 0.54366213
0.6184394 0.8412749 0.94290036 0.648904 0.8058453 0.37983507 0.67734104 0.6823355
0.66560775 0.79457474 1.2766018 0.9241613 1.097885 0.57235515 0.6556982 0.5380861
0.74511796 0.8458737 1.0288291 1.2287077 1.2065855 1.242046 0.74837226 0.96877164
0.53446084 0.4316068 0.9078629 1.9035115 0.71607655 0.9072739 0.8329262 0.42701888
0.5852773 0.9036634 0.6751823 0.47164142 0.6187792 0.85993433 0.9031578 0.67886686
0.7558375 0.6449182 0.665733 0.54592735 1.4079248 0.636965 0.70755094 0.834566
0.37956554 0.7631633 0.73473096 0.812573 1.0071613 0.56672436 0.88696456 0.5225836
0.6150071 0.61488867 0.71853703 0.90614384 0.84911954 0.7324807 0.61142737 0.9888953
0.8198812 0.8748886 0.76693845 0.8790258 1.2156526 0.58489573 0.52597845 0.6802063
0.7041307 0.75037485 0.74671024 0.7475517 0.814357 0.6786282 0.6017129 1.2892386
0.7493688 1.1635097 0.67777354 1.5702274 0.55047226 0.6314244 1.0178186 0.80604136
0.92611766 0.64350545 0.76604396 1.1242906 0.5951033 0.64740455 0.93460673 0.84257346
0.55870193 0.6044745 0.745663 0.67030513 0.64807403 0.68989 0.75818044 0.9375413
0.93034613 1.3719218 0.9020168 0.5004158
00000000: 8542 a83f 7e60 1e3f 9b9b 2a3f d6ae 633f
00000010: cda1 433f 0c9f 2d3f 9920 983f 0745 183f
00000020: 67d0 d13f 4759 f23e d9b8 603f 5e1f 673f
00000030: 5e7a 363f ec4a 373f 34e9 483f 5080 443f
00000040: 139a 123b 9592 1d3f f2c8 2a3f 6710 983f
00000050: 87bb 453f e4cd 633f cec5 103f 9551 4d3f
00000060: d863 9b3f 6bc0 f03e 7bb1 2b3f 102f 653f
00000070: 3def 3f3f ce4f 533f 3dd0 903f c328 093f
00000080: 57a7 333f 9b47 c23e 524f fc3e 69c6 343f
00000090: bf77 863f e9e3 313f a777 773f 712d 0b3f
000000a0: 0b52 1e3f cb5d 573f eb61 713f 931e 263f
000000b0: e14b 4e3f be79 c23e 3966 2d3f 8aad 2e3f
000000c0: 4565 2a3f 4069 4b3f b067 a33f d695 6c3f
000000d0: 7f87 8c3f de85 123f d6db 273f 03c0 093f
000000e0: 0dc0 3e3f 2e8b 583f acb0 833f 4b46 9d3f
000000f0: 6571 9a3f 5dfb 9e3f 5395 3f3f 6b01 783f
00000100: 6dd2 083f 91fb dc3e b469 683f 44a6 f33f
00000110: cb50 373f 1a43 683f a73a 553f 38a2 da3e
00000120: bcd4 153f 7c56 673f bfd8 2c3f fc7a f13e
00000130: 5068 1e3f a824 5c3f 5935 673f 38ca 2d3f
00000140: 917e 413f 5c19 253f 7a6d 2a3f e5c1 0b3f
00000150: e136 b43f 2310 233f 0f22 353f 1ea6 553f
00000160: 6a56 c23e ac5e 433f 5417 3c3f c904 503f
00000170: a9ea 803f d914 113f 1c10 633f 0ac8 053f
00000180: 1b71 1d3f 5869 1d3f 0bf2 373f 0bf9 673f
00000190: e65f 593f db83 3b3f 8186 1c3f 3e28 7d3f
000001a0: bce3 513f b3f8 5f3f 1456 443f d607 613f
000001b0: 819a 9b3f babb 153f 86a6 063f 0022 2e3f
000001c0: e941 343f 9118 403f 6728 3f3f 8c5f 3f3f
000001d0: b379 503f 94ba 2d3f db09 1a3f c505 a53f
000001e0: a2d6 3f3f e3ed 943f 9182 2d3f 36fd c83f
000001f0: c0eb 0c3f 08a5 213f e147 823f ba58 4e3f
00000200: 0c16 6d3f c6bc 243f 751b 443f c1e8 8f3f
00000210: b158 183f 4ebc 253f 6342 6f3f e5b2 573f
00000220: 1707 0f3f d7be 1a3f c5e3 3e3f 1e99 2b3f
00000230: 2ee8 253f a29c 303f 1d18 423f b502 703f
00000240: 2a2b 6e3f 229b af3f 93ea 663f 401b 003f

bn1.bias f4 [148]
-0.82974005 -0.5464541 0.16947748 -0.78450155 -0.53296524 -0.34496132 -0.45503375 -0.050027486
-0.6176175 -0.0061389706 -0.2190364 -0.88000274 -0.40088105 -0.3828652 -0.4362156 -0.36896712
-0.017196884 -0.19087368 -0.5899659 -0.81110007 -0.3128104 -0.40720615 -0.15198043 -0.6384273
-0.87529075 0.050074656 -0.7813502 -0.75369054 -0.63008946 -0.27568418 -0.58718514 -0.19553699
-0.3708658 -0.019174151 -0.11507635 -0.09365898 -0.61238664 -0.5069604 -0.39328808 0.03323287
-0.29557753 -0.5777 -0.52333504 -0.72303265 -0.5429489 -0.10857567 -0.2777639 -0.10222069
-0.13307326 0.06767781 -0.3238961 -0.5805805 -0.44901583 -0.37426293 -0.39423606 0.3010396
-0.13615121 -0.47635862 -0.53371024 -0.73480016 -0.93459105 -0.08276066 0.009919385 -0.22094333
-0.18923743 0.07349825 -0.28997976 -0.16814715 -0.48201478 -0.5024144 -0.43958056 0.0976889
-0.31533578 -0.51376766 -0.26088825 0.44426033 -0.29272875 -0.44330272 -0.613956 -0.47491646
-0.59240574 -0.18612696 -0.23037188 -0.37197867 -0.672349 0.054343592 -0.63869077 -0.553756
-0.09200036 -0.35427013 -0.47798535 -0.3612058 0.120645 -0.241074 -0.8796473 0.36461318
-0.50725275 -0.39128226 -0.18268459 -0.24793655 -0.6352695 -0.36769557 -0.2187738 -0.24445176
-0.49452853 -0.5048858 0.22522892 -0.9235585 -0.39561754 -0.22764987 -0.10761906 -0.55666655
-0.17928602 -0.57146007 -0.07112356 -0.15008728 -0.3116886 -0.7995351 -0.2306678 -1.2075907
-0.36301774 -0.20167053 -0.29313222 -0.91478634 -0.023098769 -0.16105983 -0.48854473 -0.21509124
-0.7604138 -0.08661129 -0.50621784 -0.6170859 -0.30628017 -0.1815884 -0.48368007 -0.84193134
0.0479251 -0.11526129 -0.260755 -0.082771406 -0.19447775 -0.09239238 -0.15691718 -0.47082844
-0.39513204 -0.5528096 -0.50488704 -0.38930246
00000000: d869 54bf 6ae4 0bbf 818b 2d3e 18d5 48bf
00000010: 6970 08bf c59e b0be 2ffa e8be 9fe9 4cbd
00000020: 2e1c 1ebf 6b29 c9bb 144b 60be dc47 61bf
00000030: 4840 cdbe e806 c4be a757 dfbe 42e9 bcbe
00000040: 7be0 8cbc 6474 43be 0108 17bf 41a4 4fbf
00000050: af28 a0be 537d d0be c2a0 1bbe f96f 23bf
00000060: 0e13 60bf 151b 4d3d 9106 48bf ddf1 40bf
00000070: 8b4d 21bf 7a26 8dbe c451 16bf d93a 48be
00000080: 1fe2 bdbe 1c13 9dbc 26ad ebbd 48d0 bfbd
00000090: 5fc5 1cbf 28c8 01bf 0e5d c9be 311f 083d
000000a0: f055 97be 26e4 13bf 49f9 05bf ab18 39bf
000000b0: b3fe 0abf ec5c debd 1237 8ebe 1559 d1bd
000000c0: 5b44 08be aa9a 8a3d b6d5 a5be eca0 14bf
000000d0: 67e5 e5be 649f bfbe 4fd9 c9be dd21 9a3e
000000e0: 396b 0bbe 47e5 f3be 3ca1 08bf dd1b 3cbf
000000f0: 5c41 6fbf 6c7e a9bd eb84 223c f83e 62be
00000100: 75c7 41be 4086 963d 3a78 94be c42e 2cbe
00000110: a4ca f6be 3b9e 00bf b410 e1be 1e11 c83d
00000120: b173 a1be 4786 03bf 2593 85be 1776 e33e
00000130: 8be0 95be 93f8 e2be 382c 1dbf 4028 f3be
00000140: e7a7 17bf 1198 3ebe 9be6 6bbe fd73 bebe
00000150: 101f 2cbf 6397 5e3d 3d81 23bf f4c2 0dbf
00000160: af6a bcbd e562 b5be 7fba f4be f7ef b8be
00000170: ba14 f73d 1adc 76be 9130 61bf 94ae ba3e
00000180: 51db 01bf 2656 c8be ab11 3bbe 14e3 7dbe
00000190: 06a1 22bf 9842 bcbe 3d06 60be 9051 7abe
000001a0: d832 fdbe 3240 01bf 69a2 663e 546e 6cbf
000001b0: 628e cabe 0c1d 69be 6267 dcbd b381 0ebf
000001c0: c196 37be 354b 12bf 3ba9 91bd 7bb0 19be
000001d0: a695 9fbe 55ae 4cbf 2e34 6cbe 5592 9abf
000001e0: 76dd b9be b882 4ebe 6d15 96be 702f 6abf
000001f0: a139 bdbc deec 24be 8922 fabe e140 5cbe
00000200: 7baa 42bf 4361 b1bd 7e97 01bf 57f9 1dbf
00000210: c1d0 9cbe 4ff2 39be eaa4 f7be d088 57bf
00000220: 1c4d 443d 1c0e ecbd ae81 85be 0e84 a9bd
00000230: 2d25 47be 3738 bdbd e6ae 20be 6d10 f1be
00000240: bf4e cabe ee84 0dbf 4740 01bf a752 c7be

bn1.running_mean f4 [148]
1.1324936 -2.3682091 0.5490233 0.8721618 -1.1263326 -0.098270595 0.31519946 1.4299531
-1.395323 0.38396004 -1.3019675 1.2282246 -0.86269826 -0.22804186 -2.2180614 -0.694711
-0.27154067 1.5312285 0.73830634 -1.2698549 1.712241 -0.4341816 -2.2418635 2.1066396
-0.43487525 1.0750443 0.28491974 -0.5248149 0.27692524 -0.30911118 0.14069125 0.7483478
0.92725635 1.1775092 0.77204055 0.8530355 0.46764144 -2.1318076 0.8454481 -1.3947773
1.1779046 -0.22694235 -0.7266481 1.0047859 0.15929277 -0.32121384 0.07789288 4.1100364
0.48538443 0.050423577 2.4690824 0.75735086 1.4911516 0.31252545 -1.2883729 -1.2332642
1.6284466 -0.5568171 1.0655289 0.49068025 -0.80365425 2.0292604 -0.5992333 -1.3172045
-0.7665247 0.22409633 -0.8604674 2.5249195 -1.7548857 -0.31355423 0.5023267 -0.49081925
-0.37144575 -2.046225 -1.5087093 1.2699561 0.9569947 -0.5571998 -2.0530705 -1.6442575
0.43180355 -2.471397 -2.6511266 -2.8102436 1.2290138 0.6354052 -2.03304 -0.7164776
-1.8451691 1.0639912 -1.7024721 0.0036057222 1.0629538 -1.5615025 -0.16452424 -2.8564613
1.1667042 1.671633 0.07378001 1.008462 -0.6004748 0.70371646 -1.424271 -0.5815998
-0.34161958 1.5601623 2.0886474 -0.79727256 0.10572261 -0.38518444 0.23110908 -1.4442439
0.53001654 -2.3038442 0.50909436 -1.2859298 -2.684617 -0.097372115 0.41130355 -1.1330789
-0.519693 1.1700865 -0.32424754 -0.6093691 -0.43188268 -0.48514655 0.5747506 -0.3481379
-0.83719826 0.42286643 -1.8977746 -1.181455 -0.9177329 3.0801356 -0.57771844 -1.0940914
1.0762837 1.3184514 -1.0329686 -1.0849088 0.4659978 1.6457751 0.2934855 0.13979782
-0.22003014 -0.4820845 -0.61222047 -0.055870507
00000000: 8df5 903f bd90 17c0 ca8c 0c3f ff45 5f3f
00000010: ab2b 90bf 1842 c9bd d361 a13e b408 b73f
00000020: f299 b2bf 6996 c43e dfa6 a6bf 7736 9d3f
00000030: cbd9 5cbf ce83 69be b8f4 0dc0 95d8 31bf
00000040: 6107 8bbe 4cff c33f a501 3d3f 9b8a a2bf
00000050: b72a db3f 0d4d debe b17a 0fc0 2fd3 0640
00000060: f8a7 debe 0d9b 893f 00e1 913e 455a 06bf
00000070: 25c9 8d3e d243 9ebe 5e11 103e b993 3f3f
00000080: ac60 6d3f 9fb8 963f 73a4 453f 8960 5a3f
00000090: b36e ef3e 896f 08c0 496f 583f 1088 b2bf
000000a0: 94c5 963f 9363 68be 9c05 3abf d39c 803f
000000b0: a51d 233e 2476 a4be 4d86 9f3d 6b85 8340
000000c0: 4f84 f83e f488 4e3d 7205 1e40 bfe1 413f
000000d0: 0ede be3f 5603 a03e 67e9 a4bf 9adb 9dbf
000000e0: f070 d03f 918b 0ebf 4063 883f 713a fb3e
000000f0: 49bc 4dbf 67df 0140 5b67 19bf 289a a8bf
00000100: f63a 44bf 8279 653e 9747 5cbf 4898 2140
00000110: 18a0 e0bf 2e8a a0be 7c98 003f a94c fbbe
00000120: 232e bebe 5af5 02c0 631d c1bf ec8d a23f
00000130: 9bfd 743f a5a4 0ebf 8265 03c0 0877 d2bf
00000140: 5b15 dd3e 5e2b 1ec0 0fac 29c0 08db 33c0
00000150: 5350 9d3f eaa9 223f 541d 02c0 136b 37bf
00000160: 802e ecbf dd30 883f 9bea d9bf fb4d 6c3b
00000170: df0e 883f 50df c7bf 0b79 28be 43d0 36c0
00000180: 9056 953f 12f8 d53f f919 973d 4815 813f
00000190: b7b8 19bf c326 343f 834e b6bf b9e3 14bf
000001a0: c3e8 aebe 66b3 c73f 66ac 0540 0e1a 4cbf
000001b0: 1985 d83d e536 c5be dca7 6c3e fcdc b8bf
000001c0: 2aaf 073f 2f72 13c0 0254 023f 5999 a4bf
000001d0: c4d0 2bc0 086b c7bd 6196 d23e bb08 91bf
000001e0: 9a0a 05bf 65c5 953f c603 a6be 9dff 1bbf
000001f0: ba1f ddbe 2165 f8be db22 133f 213f b2be
00000200: a052 56bf f381 d83e 47ea f2bf eb39 97bf
00000210: 8bf0 6abf f120 4540 5be5 13bf 300b 8cbf
00000220: aac3 893f 04c3 a83f 5138 84bf 4bde 8abf
00000230: 4397 ee3e c2a8 d23f bb43 963e 2927 0f3e
00000240: 954f 61be c8d3 f6be 7bba 1cbf 79d8 64bd

bn1.running_var f4 [148]
15.936697 18.206366 13.326155 21.174038 18.978172 19.614899 12.588902 29.496532
12.960448 11.870554 11.9483185 41.252502 36.853542 12.849011 10.183893 19.341986
0.4138715 10.540534 16.357895 15.389098 30.273794 11.13438 42.40195 28.30235
15.283909 9.342951 10.876391 12.099087 26.921206 25.788107 17.50837 18.889517
9.962044 15.200849 11.890266 14.744405 13.186635 25.782368 30.145803 35.969303
22.60884 18.515865 24.153957 32.073116 16.905605 12.062018 7.4089527 31.94206
9.973812 73.00317 14.86041 17.747154 13.372613 18.997313 30.633936 33.839134
15.685051 23.770372 15.510945 18.500446 12.577549 13.143057 14.063629 18.399103
20.619997 10.922018 12.920564 14.441354 34.75264 34.86325 12.0636425 18.634855
23.057718 16.643932 14.702262 9.226192 19.4908 12.109594 42.553497 12.163394
23.200953 37.11169 13.34098 16.591352 15.756962 14.752533 23.397968 20.977411
12.041403 11.537359 7.0019073 11.821142 11.939186 15.569321 59.360714 16.029102
16.131874 14.964965 16.483915 8.54617 26.553726 11.384066 11.367293 38.223404
18.801094 22.921173 12.560045 11.269322 17.03257 37.636833 18.582605 18.18642
13.865922 8.849796 23.113207 18.52239 14.744422 8.982922 9.00684 22.55271
7.7088027 13.818487 14.806146 15.252752 12.632198 13.896717 13.90134 19.952932
21.856226 14.360788 11.367782 14.124981 11.499338 17.22777 10.791109 7.9597254
20.867096 33.043194 9.005653 16.083307 13.574678 10.082563 28.19583 16.297735
11.794088 18.094301 10.514374 9.243671
00000000: b6fc 7e41 a3a6 9141 ee37 5541 6e64 a941
00000010: 4cd3 9741 50eb 9c41 256c 4941 e6f8 eb41
00000020: ff5d 4f41 caed 3d41 502c 3f41 9002 2542
00000030: 076a 1342 8d95 4d41 3af1 2241 63bc 9a41
00000040: f7e6 d33e 07a6 2841 f8dc 8241 bf39 7641
00000050: bb30 f241 6c26 3241 999b 2942 366b e241
00000060: e48a 7441 ba7c 1541 b305 2e41 dc95 4141
00000070: a15e d741 0b4e ce41 2411 8c41 bb1d 9741
00000080: 8864 1f41 ad36 7341 883e 3e41 15e9 6b41
00000090: 75fc 5241 4a42 ce41 9b2a f141 91e0 0f42
000000a0: e8de b441 7e20 9441 4e3b c141 df4a 0042
000000b0: ae3e 8741 07fe 4041 2416 ed40 5789 ff41
000000c0: bc94 1f41 9f01 9242 3dc4 6d41 2cfa 8d41
000000d0: 39f6 5541 7ffa 9741 4d12 f541 465b 0742
000000e0: f8f5 7a41 b929 be41 d52c 7841 ea00 9441
000000f0: a43d 4941 f649 5241 a004 6141 5d31 9341
00000100: c1f5 a441 96c0 2e41 a1ba 4e41 c90f 6741
00000110: b402 0b42 f873 0b42 ae04 4141 2f14 9541
00000120: 3576 b841 c626 8541 773c 6b41 7c9e 1341
00000130: 29ed 9b41 e6c0 4141 c836 2a42 439d 4241
00000140: 8d9b b941 5f72 1442 a774 5541 17bb 8441
00000150: 841c 7c41 600a 6c41 0a2f bb41 bdd1 a741
00000160: 96a9 4041 0699 3841 a00f e040 6623 3d41
00000170: e806 3f41 f01b 7941 5f71 6d42 9a3b 8041
00000180: 140e 8141 7f70 6f41 0fdf 8341 1dbd 0841
00000190: 086e d441 2225 3641 6fe0 3541 c4e4 1842
000001a0: a468 9641 905e b741 f2f5 4841 254f 3441
000001b0: b442 8841 1e8c 1642 2da9 9441 ca7d 9141
000001c0: d1da 5d41 c498 0d41 d9e7 b841 db2d 9441
000001d0: 27e9 6b41 0cba 0f41 041c 1041 f36b b441
000001e0: 83ae f640 8618 5d41 f9e5 6c41 460b 7441
000001f0: 7c1d 4a41 f458 5e41 e36b 5e41 9b9f 9f41
00000200: 8dd9 ae41 cac5 6541 6fe2 3541 ecff 6141
00000210: 4afd 3741 79d2 8941 62a8 2c41 12b6 fe40
00000220: d0ef a641 3b2c 0442 2817 1041 9daa 8041
00000230: e231 5941 2e52 2141 0f91 e141 c361 8241
00000240: 96b4 3c41 21c1 9041 e03a 2841 14e6 1341

fc2.weight f4 [148, 152]
-1.4853034 -1.2125747 -0.13943206 -0.50141984 0.005275631 -0.0504162 -0.7082628 -0.31060567
-0.6220657 -0.33331215 -0.32522792 -0.8455635 -0.15897065 0.3796242 0.32784024 0.16281472
-0.022643294 0.18034302 -0.2432856 -0.26389658 0.30587688 -0.5783877 -0.15383668 0.48311457
-0.49914235 0.03774151 -0.104439385 -0.46928313 -0.37692544 -0.38185504 -0.8076843 -0.084893204
0.093192615 0.050874423 0.023465412 -0.17721753 -0.451188 -0.4176384 0.9092595 -0.61706614
-0.030079002 0.49969798 0.33014062 -0.7012613 -0.022708748 0.35580882 -0.9790634 -0.24522802
-0.0715547 -0.12379416 -0.1808986 -0.46224874 -0.33495092 -0.10538343 -0.37885216 0.15048236
0.042244967 0.75710464 0.2242845 -1.1855808 -0.07587045 -0.6639801 -0.4561822 0.098121405
-0.13444473 0.164724 -0.22734876 -1.3795075 0.84250623 0.1358577 0.1117169 0.38463542
0.037720937 -0.29482165 -0.50756705 -0.2623369 -0.9859238 0.03065437 0.7398273 -0.38968402
-0.25717542 -0.39460433 0.40684348 0.7267669 -0.34158075 -0.08187278 -0.22761519 -0.28358355
-0.45659673 0.49372265 -0.4415274 -0.1359975 -0.8897961 -0.9189926 0.17282443 0.60929835
0.059876468 0.044170767 -0.85012573 0.39104944 -0.08126906 0.62749016 -0.1406537 -0.079467565
-0.66829187 1.0543541 0.3944624 0.4343835 -0.023373453 -0.24126913 0.15034959 -0.26050565
-0.18562745 0.38426086 -0.40317887 -1.6324921 0.24396299 -0.06572708 -0.6265339 -1.3775613
0.39893237 -0.25731048 0.27223238 0.74398786 -0.7269849 0.23148362 -0.6693697 -0.8498033
0.16316932 0.77693737 -0.85835993 -0.18721472 -0.53807974 -0.4477434 -2.0297785 -0.13639277
0.28024793 -0.52941906 -0.24574625 0.19570838 -0.066983335 -0.13994156 -0.84726924 -0.5097687
0.5238762 0.011564335 -0.6862732 0.51468104 -0.013111406 0.0043434203 -0.036269333 0.01067295
0.28324533 0.06721676 -0.09360763 -0.09642421 0.7339442 0.33160618 0.14940977 0.7046084
-0.13063441 0.19023483 -0.07654259 -0.14278099 -0.88740224 -1.1998167 -0.5721261 -0.2513895
0.023748064 0.5661026 -0.31615043 0.31473756 -0.291236 -0.64147896 0.01974699 0.5082726
0.3265986 -0.029611958 -0.22873513 -0.18736972 -0.5377893 -0.6619982 0.23677981 0.17080358
-0.16991127 -0.09689973 -0.47028276 0.18196583 -0.8407066 -0.9265686 0.073205546 -0.24585944
0.079026885 -1.0815495 -0.76564795 -0.30137438 0.30266312 -0.13165656 0.2369076 -0.33074802
-0.57985806 0.44554028 -0.5769896 -0.62697726 -0.7744323 -0.47493866 0.07794571 -0.51185423
0.45315835 0.037417572 0.0053433306 -1.2727524 -0.04355895 -0.47935453 0.086553805 -1.2499316
0.3914394 0.43348902 0.53318053 0.33033288 -0.11073005 0.13610768 -0.8609368 -0.15009108
0.5190809 -0.26970407 0.24743362 -0.39071324 -0.18458171 0.060063243 -0.4493804 0.19005485
0.47240284 0.2489108 0.4181582 -0.150108 0.6140758 -0.030260716 -0.42377397 -0.9120652
0.9035961 -0.67504287 0.102960646 -0.438475 -0.7179312 -0.0013949821 -0.9702159 -0.2831404
-0.69690114 0.17590326 0.271752 0.2466101 -0.3685794 0.23402125 -0.2897787 -0.6165884
00000000: 6c1e bebf a635 9bbf 47c7 0ebe 0d5d 00bf
00000010: 33df ac3b 3881 4ebd b650 35bf b507 9fbe
00000020: b33f 1fbf e4a7 aabe 4684 a6be d976 58bf
00000030: 34c9 22be 1a5e c23e adda a73e e7b8 263e
00000040: 6e7e b9bc d7ab 383e dc1f 79be 741d 87be
00000050: e59b 9c3e 3711 14bf 5d87 1dbe cb5a f73e
00000060: 968f ffbe d796 1a3d 51e4 d5bd e145 f0be
00000070: 5ffc c0be 8182 c3be 66c4 4ebf 7ddc adbd
00000080: c5db be3d b361 503d 893a c03c 8378 35be
00000090: 1d02 e7be b3d4 d5be 3bc5 683f 0cf8 1dbf
000000a0: 3d68 f6bc 6ad8 ff3e 3108 a93e dc85 33bf
000000b0: b207 babc 932c b63e e6a3 7abf 0e1d 7bbe
000000c0: 458b 92bd cb87 fdbd 7c3d 39be deab ecbe
000000d0: b07e abbe 45d3 d7bd e9f8 c1be 0c18 1a3e
000000e0: 0f09 2d3d 9cd1 413f d6aa 653e 1dc1 97bf
000000f0: f761 9bbd 9afa 29bf b790 e9be e0f3 c83d
00000100: e1ab 09be 69ad 283e 1dce 68be b493 b0bf
00000110: 7dae 573f 481e 0b3e d4cb e43d efee c43e
00000120: 4581 1a3d ddf2 96be eaef 01bf 0651 86be
00000130: 8165 7cbf e01e fb3c 5265 3d3f aa84 c7be
00000140: 7fac 83be 9409 cabe ca4d d03e 650d 3a3f
00000150: ace3 aebe ebac a7bd f513 69be dd31 91be
00000160: 0cc7 e9be 37c9 fc3e e10f e2be ee42 0bbe
00000170: adc9 63bf 1943 6bbf e3f8 303e fafa 1b3f
00000180: 0741 753d 68ec 343d d7a1 59bf a237 c83e
00000190: 6570 a6bd 32a3 203f 8607 10be e4bf a2bd
000001a0: 2d15 2bbf 13f5 863f faf6 c93e 8467 de3e
000001b0: af79 bfbc 410f 77be 3ef5 193e ff60 85be
000001c0: 1f15 3ebe d7bd c43e 766d cebe 80f5 d0bf
000001d0: 6fd1 793e eb9b 86bd 8764 20bf ee53 b0bf
000001e0: dd40 cc3e 33be 83be 0b62 8b3e fd75 3e3f
000001f0: af1b 3abf 0b0a 6d3e d05b 2bbf b68c 59bf
00000200: dc15 273e 5ee5 463f 7abd 5bbf 37b5 3fbe
00000210: 98bf 09bf 9f3e e5be e4e7 01c0 8caa 0bbe
00000220: a87c 8f3e 0288 07bf e8a4 7bbe c767 483e
00000230: 8f2e 89bd d74c 0fbe a3e6 58bf 3480 02bf
00000240: c01c 063f 5678 3d3c 9aaf 2fbf 23c2 033f
00000250: 39d1 56bc 4053 8e3b 278f 14bd 99dd 2e3c
00000260: 8805 913e f1a8 893d 5bb5 bfbd 0e7a c5bd
00000270: c4e3 3b3f 49c8 a93e e0fe 183e 3761 343f
00000280: 07c5 05be ebcc 423e 5dc2 9cbd 2e35 12be
00000290: cb2c 63bf 9893 99bf db76 12bf 20b6 80be
000002a0: 4d8b c23c 1aec 103f 78de a1be 4825 a13e
000002b0: e31c 95be f737 24bf 71c4 a13c 271e 023f
000002c0: ef37 a73e c794 f2bc 8b39 6abe d9dd 3fbe
000002d0: 8fac 09bf b778 29bf 6876 723e 22e7 2e3e
000002e0: 38fd 2dbe 5e73 c6bd e7c8 f0be 4055 3a3e
000002f0: 8c38 57bf 9a33 6dbf caec 953d 94c2 7bbe
00000300: d9d8 a13d 3770 8abf 8101 44bf be4d 9abe
00000310: a9f6 9a3e fad0 06be e897 723e ce57 a9be
00000320: 9471 14bf db1d e43e 97b5 13bf 9581 20bf
00000330: 3241 46bf 292b f3be 00a2 9f3d e108 03bf
00000340: 5f04 e83e 2b43 193d 1b17 af3b 8de9 a2bf
00000350: df6a 32bd f56d f5be 1f43 b13d c2fd 9fbf
00000360: bf6a c83e 46f2 dd3e 857e 083f 6421 a93e
00000370: 70c6 e2bd d05f 0b3e 5b66 5cbf 7ab1 19be
00000380: 7ce2 043f a716 8abe 3d5f 7d3e 910b c8be
00000390: fd02 3dbe e004 763d 3015 e6be bd9d 423e
000003a0: c9de f13e 79e2 7e3e d518 d63e e9b5 19be
000003b0: 1234 1d3f 52e5 f7bc e7f8 d8be 1b7d 69bf
000003c0: 1352 673f 9ccf 2cbf 08dd d23d cc7f e0be
000003d0: 57ca 37bf d5d7 b6ba 1260 78bf c7f7 90be
000003e0: 1d68 32bf fc1f 343e 1423 8b3e 5c87 7c3e
000003f0: 70b6 bcbe 44a3 6f3e e05d 94be bdd8 1dbf

fc2.bias f4 [148]
0.48854104 -0.255203 0.11529363 0.28763485 0.20030849 -0.50972575 -0.29930404 -0.92575824
-0.1673736 -0.11679877 -0.38438988 0.10180812 0.18256977 -0.16751245 0.13275805 0.679415
-0.06899844 0.36127302 0.33098954 0.15041342 0.40939143 -0.07867213 -0.2836463 -0.93122923
0.3712131 0.42130166 0.5089835 0.03636353 0.11712052 -0.34326267 0.18347979 0.16902988
0.50918245 -0.38467392 -0.057245065 0.18174927 0.0500198 0.5500633 0.21599561 0.24330524
-0.077793576 -0.23463987 -0.008416098 0.017980142 0.14170289 0.18852367 -0.4449816 0.120016254
-0.53058994 -0.44268173 -0.032976862 -0.09039815 -0.07533041 -0.06632418 -0.15805675 0.016810393
0.04782 0.30478114 0.11433435 -0.19013977 -0.04889096 0.2502787 0.041894816 0.34529144
0.029790191 0.26696137 0.53451574 -0.66097206 0.24785249 0.25000435 0.2714068 0.04902166
0.5541407 0.25106412 0.30199134 0.11287592 -0.14955154 -0.73680514 0.21243106 -0.06286189
0.27299672 -0.12720376 -0.37570575 0.009190934 -0.26230547 -0.20524348 0.22993535 0.44889256
-0.83004725 -0.50534 0.42865658 0.74024546 0.5231231 -0.13264726 -0.3003194 0.26956102
0.052622337 -0.5752226 -0.56930393 -0.6132856 0.16224647 -0.030565213 0.20738147 0.15058984
-0.008200597 0.26546595 -0.2417647 0.019133747 -0.13859574 -0.107189216 0.06518358 0.07392736
-0.057572015 -0.5205997 -0.08638252 -0.159223 -0.21349971 0.02784993 -0.10709478 -0.17998542
0.4044235 0.20265613 0.6611905 -0.18643625 0.34921888 0.7785146 0.31967378 0.33599448
-0.18442647 0.11270811 -0.06657541 0.14868066 -0.23525245 0.2330109 0.6911858 0.24549402
0.6149653 0.4065695 -0.14412555 0.17040113 -0.0055708154 0.6164097 -0.65873724 -0.3885371
-0.013251848 0.23052517 -0.17115496 0.28125748
00000000: 0d22 fa3e f8a9 82be 111f ec3d e044 933e
00000010: ab1d 4d3e 637d 02bf 613e 99be 7efe 6cbf
00000020: fc63 2bbe 3234 efbd c0ce c4be c780 d03d
00000030: 92f3 3a3e 6288 2bbe baf1 073e 24ee 2d3f
00000040: 0e4f 8dbd c7f8 b83e 7677 a93e fa05 1a3e
00000050: c19b d13e db1e a1bd 163a 91be 0a65 6ebf
00000060: a50f be3e dab4 d73e be4c 023f edf1 143d
00000070: e2dc ef3d 20c0 afbe 20e2 3b3e 2b16 2d3e
00000080: c859 023f fbf3 c4be cd79 6abd 7b1c 3a3e
00000090: 90e1 4c3d f3d0 0c3f f42d 5d3e 0225 793e
000000a0: 3d52 9fbd 6f45 70be ace3 09bc 174b 933c
000000b0: 901a 113e 590c 413e a1d4 e3be 15cb f53d
000000c0: bed4 07bf 2ea7 e2be bf12 07bd aa22 b9bd
000000d0: d446 9abd f9d4 87bd a1d9 21be f3b5 893c
000000e0: e8de 433d 460c 9c3e 2128 ea3d 00b4 42be
000000f0: e341 48bd 8824 803e e699 2b3d 0aca b03e
00000100: 8f0a f43c 29af 883e 06d6 083f 7735 29bf
00000110: 0bcd 7d3e 9200 803e d5f5 8a3e f0ca 483d
00000120: 2adc 0d3f 7a8b 803e 9c9e 9a3e 7e2b e73d
00000130: 0a24 19be 439f 3cbf 8787 593e bcbd 80bd
00000140: 3ac6 8b3e b441 02be 815c c0be 9295 163c
00000150: e74c 86be 592b 52be 2c74 6b3e 3fd5 e53e
00000160: fa7d 54bf f65d 01bf e078 db3e ba80 3d3f
00000170: 65eb 053f afd4 07be 77c3 99be e703 8a3e
00000180: 858a 573d ca41 13bf e7bd 11bf 4900 1dbf
00000190: f023 263e e663 fabc cf5b 543e 3934 1a3e
000001a0: cc5b 06bc 27eb 873e 2a91 77be 60be 9c3c
000001b0: 0bec 0dbe 0586 dbbd f87e 853d 3a67 973d
000001c0: a2d0 6bbd 0646 05bf 52e9 b0bd 5b0b 23be
000001d0: ab9f 5abe 8925 e43c 8254 dbbd 194e 38be
000001e0: 9910 cf3e 1785 4f3e c843 293f 25e9 3ebe
000001f0: d1cc b23e bc4c 473f 48ac a33e 7807 ac3e
00000200: 4bda 3cbe 82d3 e63d b058 88bd be3f 183e
00000210: 05e6 70be 699a 6e3e 8df1 303f c962 7b3e
00000220: 5e6e 1d3f e129 d03e a695 13be a27d 2e3e
00000230: 638b b6bb 07cd 1d3f 01a3 28bf 56ee c6be
00000240: 471e 59bc ca0e 6c3e 3f43 2fbe fb00 903e

bn2.weight f4 [148]
0.5622728 0.52050775 0.5202719 0.43092814 0.42260423 0.37700948 0.43655452 0.4444459
0.45809153 0.406247 0.47975817 0.4116364 0.484964 0.5090861 0.3732521 0.5511233
0.645609 0.56318575 0.60097265 0.44366947 0.42150325 -0.0032646419 0.4730911 0.4445745
0.4282794 0.64309204 0.40422127 0.3876704 0.51669 0.5893468 0.41761443 0.50852484
0.46208465 0.57587886 0.5279642 0.66908115 0.41960397 0.578538 0.42154238 0.54782826
0.3975476 0.58301055 0.0032631217 0.45282516 0.5681962 0.43135363 0.4419592 0.5124615
0.5472359 0.45860773 0.52888685 0.436174 0.5309318 0.437822 0.4505488 0.55533874
0.61559594 0.4732204 0.65924716 0.43695256 0.43253234 0.4417207 0.44106823 0.5124743
0.0039940085 0.5871316 0.397206 0.670912 0.4218516 0.6371698 0.4234226 0.007180543
0.525552 0.48132408 0.39151487 0.5350982 0.60697216 0.46397328 0.4460039 0.426177
0.6337281 0.49427563 0.42938757 0.34813547 0.5119356 0.5425936 0.55176854 0.5504367
0.49783102 0.41720363 0.5556289 0.68558496 0.382758 0.48413682 0.5277817 0.410347
0.5669057 0.7218437 0.45789355 0.38984138 0.47115412 0.47608528 0.636532 0.43540993
0.39050442 0.4630497 0.6186962 0.0077872337 0.42362782 0.40450564 0.4978501 0.43154567
0.38134292 0.53333557 0.47233844 0.6757786 0.43327612 0.572271 0.58359814 0.4993614
0.49707085 0.45059845 0.5225246 0.4701475 0.50601715 0.51473194 0.52252644 0.56077945
0.41632974 0.44522527 0.405632 0.4363384 0.4563259 0.7225485 0.62106043 0.61156934
0.43363205 0.42726204 0.37535608 0.58012515 0.5743324 0.49992144 0.35704044 0.6225949
0.5104602 0.43357143 0.4219148 0.39027178
00000000: 1cf1 0f3f ff3f 053f 8a30 053f 9da2 dc3e
00000010: 955f d83e 6307 c13e 1384 df3e 6a8e e33e
00000020: f98a ea3e 9bff cf3e dda2 f53e 02c2 d23e
00000030: 344d f83e 7753 023f e61a bf3e 6b16 0d3f
00000040: a246 253f f12c 103f 58d9 193f a528 e33e
00000050: 46cf d73e 9af3 55bb ff38 f23e 459f e33e
00000060: 7047 db3e aea1 243f 17f6 ce3e bc7c c63e
00000070: cc45 043f 6fdf 163f 8fd1 d53e af2e 023f
00000080: 5c96 ec3e cc6c 133f a928 073f e748 2b3f
00000090: 55d6 d63e 111b 143f 67d4 d73e 793e 0c3f
000000a0: 5c8b cb3e 2e40 153f 19da 553b b3d8 e73e
000000b0: 4e75 113f 62da dc3e 7a48 e23e ad30 033f
000000c0: a717 0c3f a2ce ea3e 2165 073f 3352 df3e
000000d0: 25eb 073f 352a e03e 55ae e63e ae2a 0e3f
000000e0: b297 1d3f f249 f23e 6cc4 283f 3fb8 df3e
000000f0: e174 dd3e 3729 e23e b2d3 e13e 8431 033f
00000100: 2ce0 823b 424e 163f 965e cb3e e4c0 2b3f
00000110: effc d73e 8f1d 233f d9ca d83e c34a eb3b
00000120: 938a 063f 1c70 f63e a374 c83e 32fc 083f
00000130: 8762 1b3f e88d ed3e a05a e43e df33 da3e
00000140: 013c 223f b211 fd3e b0d8 db3e d03e b23e
00000150: 360e 033f 6ae7 0a3f b440 0d3f 6be9 0c3f
00000160: b5e3 fe3e b79b d53e b23d 0e3f 7f82 2f3f
00000170: dbf8 c33e c8e0 f73e b41c 073f 0119 d23e
00000180: bb20 113f c0ca 383f 0671 ea3e 4a99 c73e
00000190: 1d3b f13e 73c1 f33e c3f3 223f 0dee de3e
000001a0: 32f0 c73e da14 ed3e e062 1e3f 0d2c ff3b
000001b0: bfe5 d83e 5d1b cf3e 35e6 fe3e 8ef3 dc3e
000001c0: 613f c33e ae88 083f 58d6 f13e d4ff 2c3f
000001d0: 5ed6 dd3e 5a80 123f b066 153f 4cac ff3e
000001e0: 1280 fe3e d7b4 e63e 2cc4 053f 2cb7 f03e
000001f0: 578a 013f 79c5 033f 4bc4 053f 3e8f 0f3f
00000200: 2c29 d53e 91f4 e33e ffae cf3e bf67 df3e
00000210: 8ca3 e93e f0f8 383f d1fd 1e3f cf8f 1c3f
00000220: 0505 de3e 17c2 da3e ac2e c03e 1583 143f
00000230: 7307 133f b4f5 ff3e 01ce b63e 6162 1f3f
00000240: 85ad 023f 13fd dd3e 3705 d83e b4d1 c73e

bn2.bias f4 [148]
-0.5313079 0.2442836 -0.45053428 -0.18865448 -0.56721836 -0.4645282 -0.4979311 -0.11203441
-0.67378473 -0.41262412 -0.52930075 -0.39288113 -0.5935556 -0.49153 -0.45064336 -0.38076234
-0.24123228 -0.04918635 -0.63552034 -0.40056747 -0.36144853 -0.07913076 -0.39590454 -0.58224016
-0.2144329 -0.3302255 -0.39759386 -0.5019368 -0.13444658 -0.49645367 -0.32994038 -0.47806033
-0.37160543 -0.58473396 -0.66559917 0.5387564 -0.49805623 -0.4130312 -0.18772244 0.37122658
-0.12246515 0.7476318 -0.047465973 -0.5544987 -0.6429524 -0.4002812 -0.4806269 -0.46400347
-0.48777235 -0.31334308 -0.54191655 -0.2118665 -0.21423891 -0.43786645 -0.7001228 -0.5322104
-0.26775002 -0.47536686 -0.3461505 -0.47490197 -0.6155995 0.23558871 -0.4599079 -0.43148822
-0.021913826 -0.6583585 -0.39258298 -0.2766144 -0.24603136 -0.19773702 -0.22689271 -0.036718715
-0.48877847 -0.42781067 -0.41794133 -0.17545466 -0.3234375 -0.2762182 -0.25527206 -0.42385435
-0.43959054 0.27047354 -0.4087653 -0.6447595 -0.31312624 -0.17885244 -0.22281536 -0.45436627
-0.6827467 -0.47272247 -0.4905762 0.1589759 -0.40625313 0.04338627 -0.6235945 -0.54509157
-0.6552746 -0.24084063 -0.2050258 -0.563621 -0.19690363 -0.37099826 -0.2199608 -0.4636833
-0.5481764 -0.42210945 -0.41360357 -0.13738401 -0.49906853 -0.44827315 -0.56372046 -0.3919864
-0.347197 -0.7432137 -0.42630106 -0.3979514 -0.3717605 -0.5815462 -0.7628305 -0.2941512
-0.43769962 -0.2347981 -0.56663513 -0.23304264 -0.12761971 -0.3025159 -0.34215665 -0.23055619
-0.6350437 -0.14633302 -0.115154564 -0.3123684 -0.42454067 -0.36074227 -0.033763316 -0.36458516
-0.7132397 -0.26923516 -0.49743614 -0.19973218 -0.49334794 0.18191618 -0.28267288 -0.55299205
-0.42499122 -0.30623484 -0.5796084 -0.36978823
00000000: cb03 08bf 7b25 7a3e 6eac e6be a42e 41be
00000010: 3935 11bf a4d6 edbe d3f0 febe 4c72 e5bd
00000020: 287d 2cbf 7843 d3be 4180 07bf b727 c9be
00000030: 43f3 17bf d2a9 fbbe baba e6be 48f3 c2be
00000040: 9805 77be a077 49bd 76b1 22bf 2e17 cdbe
00000050: c80f b9be 4f0f a2bd 00b4 cabe b10d 15bf
00000060: 4c94 5bbe 5113 a9be 6c91 cbbe ee7e 00bf
00000070: 5dac 09be 2d2f febe f2ed a8be 53c4 f4be
00000080: 1143 bebe 20b1 15bf b564 2abf f0eb 093f
00000090: 3a01 ffbe d378 d3be 503a 40be 6911 be3e
000000a0: 02cf fabd cc64 3f3f ae6b 42bd a0f3 0dbf
000000b0: 8798 24bf a8f1 ccbe bb14 f6be dd91 edbe
000000c0: 4cbd f9be 816e a0be 0bbb 0abf 88f3 58be
000000d0: 7261 5bbe 0830 e0be 3f3b 33bf f13e 08bf
000000e0: 8816 89be 4963 f3be a33a b1be 5a26 f3be
000000f0: ee97 1dbf 2b3e 713e 0c79 ebbe 06ec dcbe
00000100: a084 b3bc 2f8a 28bf a300 c9be 67a0 8dbe
00000110: a5ef 7bbe 937b 4abe 9056 68be 5d66 16bd
00000120: 2c41 fabe 000a dbbe 68fc d5be 63aa 33be
00000130: 9a99 a5be 796c 8dbe 05b3 82be 7003 d9be
00000140: 0312 e1be 827b 8a3e af49 d1be f50e 25bf
00000150: 1552 a0be 1825 37be b629 64be b2a2 e8be
00000160: 7dc8 2ebf ae08 f2be ce2c fbbe 94ca 223e
00000170: 6900 d0be cdb5 313d e4a3 1fbf 1f8b 0bbf
00000180: 14c0 27bf ed9e 76be 49f2 51be 7749 10bf
00000190: 1ba1 49be 7cf3 bdbe 673d 61be e667 edbe
000001a0: 4a55 0cbf bb1e d8be d9c3 d3be 65ae 0cbe
000001b0: e985 ffbe 0f84 e5be fc4f 10bf 71b2 c8be
000001c0: cec3 b1be 4143 3ebf 2244 dabe 49c0 cbbe
000001d0: 6457 bebe 36e0 14bf dc48 43bf fc9a 96be
000001e0: 2a1a e0be ea6e 70be 000f 11bf bba2 6ebe
000001f0: beae 02be 5de3 9abe 282f afbe ec16 6cbe
00000200: 3992 22bf 53d8 15be 28d6 ebbd c0ee 9fbe
00000210: 655d d9be 36b3 b8be 674b 0abd e8aa babe
00000220: e196 36bf 31d9 89be f3af febe 9886 4cbe
00000230: 1a98 fcbe 3c48 3a3e 80ba 90be e390 0dbf
00000240: 7398 d9be d0ca 9cbe 3761 14bf e254 bdbe

bn2.running_mean f4 [148]
-5.081431 -4.611029 -2.5023408 -2.7616706 -2.277823 -3.1493342 -4.109805 -4.5244155
-5.4535403 -3.438248 -4.255298 -4.1598387 -5.52335 -1.9404134 0.60752714 -2.4775252
-3.3744845 -4.0059266 -3.4605906 -4.397856 -0.32221818 0.17874673 -4.3032446 -3.788292
-1.0609851 -2.491368 0.5625049 -3.3146846 -4.241551 -3.879561 -2.9541442 -3.1746037
-3.0833316 -1.4618518 -5.355393 -5.5896544 -4.001025 -3.619366 -1.675369 -2.5024986
-1.9284339 -6.8018565 0.19129796 -3.677502 -2.9448583 -2.0420673 -3.030535 -5.2295027
-1.8674761 1.0157404 -4.052807 -2.3970244 0.36996743 -2.4060812 -3.8882902 -3.235555
-4.262577 -2.9256122 -3.1261754 -1.8097886 -4.2729955 -2.8362226 -0.34185797 -2.0147545
-0.25461987 -3.031481 1.1347113 -2.6604097 -2.2117383 -2.8957953 -2.3584957 -0.39050034
0.39887863 -0.52782834 1.5858662 -5.028073 -2.3765178 -4.556244 -1.2645142 -0.2408107
-4.0251083 -5.0530825 -4.1858697 -5.2786317 -4.565751 -1.2498238 -1.3049905 -1.1757487
-3.4198613 -3.2515707 -4.770235 -2.57035 -1.4689429 -2.4596567 -6.0245185 -3.1204293
-4.5397067 -4.0683994 -1.719337 -1.9904901 -5.0841293 -1.9622892 -4.0271363 0.2209571
-2.7471223 -2.5039933 -2.8864899 -0.5426469 -1.4205332 -2.7741373 -2.6301327 1.9154308
-2.9168842 -3.697399 -2.8040295 -3.4097292 1.1270288 -2.8070414 -5.732125 -5.609644
-4.3713517 -2.778213 -2.253675 -4.0151978 -1.6156343 -5.3415112 -3.8995945 -4.0296416
-3.3820748 4.240479 -2.6347039 -1.2626256 0.83272314 -5.068106 -1.574729 -2.9593475
-2.2051237 -3.1343198 -1.0786384 -3.475711 -1.3210992 -2.800975 -1.946643 -3.7259376
-1.742429 -4.100742 -2.6101358 0.23574528
00000000: 159b a2c0 8d8d 93c0 5a26 20c0 36bf 30c0
00000010: dac7 11c0 b18e 49c0 8683 83c0 03c8 90c0
00000020: 6783 aec0 410c 5cc0 672b 88c0 661d 85c0
00000030: 48bf b0c0 775f f8bf e686 1b3f c68f 1ec0
00000040: 8ef7 57c0 8d30 80c0 517a 5dc0 3dbb 8cc0
00000050: c8f9 a4be 6209 373e 2eb4 89c0 6073 72c0
00000060: 5cce 87bf 9372 1fc0 5200 103f cb23 54c0
00000070: c9ba 87c0 ba4a 78c0 b310 3dc0 b52c 4bc0
00000080: 4e55 45c0 f61d bbbf 615f abc0 73de b2c0
00000090: 6608 80c0 b1a3 67c0 7e72 d6bf f028 20c0
000000a0: ecd6 f6bf cfa8 d9c0 9de3 433e 315c 6bc0
000000b0: 8f78 3cc0 3bb1 02c0 49f4 41c0 1658 a7c0
000000c0: 7509 efbf c803 823f 98b0 81c0 d968 19c0
000000d0: 5f6c bd3e 3cfd 19c0 bfd9 78c0 5513 4fc0
000000e0: 0867 88c0 3b3d 3bc0 4213 48c0 27a7 e7bf
000000f0: 61bc 88c0 ac84 35c0 0208 afbe bdf1 00c0
00000100: 895d 82be c903 42c0 383e 913f 2744 2ac0
00000110: 1f8d 0dc0 b654 39c0 98f1 16c0 a9ef c7be
00000120: d239 cc3e c21f 07bf aafd ca3f f9e5 a0c0
00000130: de18 18c0 c0cc 91c0 9adb a1bf 1597 76be
00000140: b0cd 80c0 dab2 a1c0 a5f2 85c0 8dea a8c0
00000150: a21a 92c0 3afa 9fbf ee09 a7bf ef7e 96bf
00000160: 02df 5ac0 bc19 50c0 c4a5 98c0 9d80 24c0
00000170: 5206 bcbf 046b 1dc0 dbc8 c0c0 1db5 47c0
00000180: 4745 91c0 5430 82c0 3c13 dcbf 61c8 febf
00000190: 30b1 a2c0 4b2c fbbf 4dde 80c0 9442 623e
000001a0: dad0 2fc0 6d41 20c0 40bc 38c0 e8ea 0abf
000001b0: 08d4 b5bf 778b 31c0 1854 28c0 d62c f53f
000001c0: 3bae 3ac0 2fa2 6cc0 3875 33c0 0139 5ac0
000001d0: 7b42 903f 91a6 33c0 916d b7c0 3482 b3c0
000001e0: 1de2 8bc0 3ece 31c0 363c 10c0 807c 80c0
000001f0: 1bcd cebf a9ed aac0 f592 79c0 d3f2 80c0
00000200: ea73 58c0 01b2 8740 fd9e 28c0 b79d a1bf
00000210: 582d 553f ed2d a2c0 b890 c9bf f365 3dc0
00000220: bf20 0dc0 b298 48c0 d310 8abf 0d72 5ec0
00000230: c719 a9bf 2d43 33c0 992b f9bf c375 6ec0
00000240: ea07 dfbf 4739 83c0 770c 27c0 3667 713e

bn2.running_var f4 [148]
12.332757 8.431899 7.530402 4.5621033 7.294474 5.670031 9.975582 8.2688875
7.3562913 6.0475264 5.3561068 5.983383 6.825186 4.7860384 4.7719865 9.237335
11.014472 11.538944 9.071295 9.961151 5.316074 0.30437553 7.539214 4.1072083
3.4661565 8.511028 7.7298975 10.298855 16.295223 8.069135 6.1179204 6.3104706
8.87085 4.9081492 6.3320475 15.726046 6.521735 6.924638 10.842798 11.786988
6.580676 15.770729 0.1026379 8.292323 3.9959567 3.6962266 4.371921 16.575449
3.71654 4.047423 11.025349 7.64482 17.431576 4.195882 7.1400437 3.8179207
5.788601 4.8945484 10.698899 3.6065009 5.942178 7.3718543 4.6216893 7.1261187
0.07380981 8.32364 3.8710754 8.725466 3.3617396 5.158834 6.114181 0.08999678
6.6268764 4.469325 5.869213 14.361648 8.033113 9.175593 8.604011 12.744056
10.147815 11.842798 6.956634 7.5828266 7.8150277 4.3693786 5.664446 5.578372
4.7692156 6.2285523 11.876998 11.053185 5.5439887 7.4196515 9.928031 4.8587074
10.221064 6.9895854 3.9918778 5.22929 12.011146 6.1805296 13.471025 4.128948
6.752342 3.840448 13.579785 0.27665532 6.2331243 6.6383305 9.925778 7.8188157
6.635456 6.83836 7.456769 7.90309 8.773252 5.4048114 8.50129 11.48935
11.173271 5.3322206 4.7185454 8.819539 5.24924 8.747222 11.997169 19.236765
5.6258717 6.27496 4.9794416 7.6039386 5.0578556 9.916298 7.8558893 6.372627
7.8455296 8.266599 4.0432954 10.784865 4.8275585 7.7487297 4.184679 4.97548
3.4658873 5.1939254 5.972797 6.663235
00000000: f952 4541 0fe9 0641 0ef9 f040 c0fc 9140
00000010: 556c e940 e570 b540 fc9b 1f41 5d4d 0441
00000020: bd66 eb40 5685 c140 3a65 ab40 e077 bf40
00000030: ec67 da40 3a27 9940 1db4 9840 20cc 1341
00000040: 473b 3041 849f 3841 0624 1141 e060 1f41
00000050: 471d aa40 1cd7 9b3e 3e41 f140 406e 8340
00000060: 82d5 5d40 2c2d 0841 525b f740 1cc8 2441
00000070: 9e5c 8241 2d1b 0141 01c6 c340 60ef c940
00000080: 00ef 0d41 8f0f 9d40 22a0 ca40 e29d 7b41
00000090: 0eb2 d040 a296 dd40 1a7c 2d41 8197 3c41
000000a0: e694 d240 e854 7c41 d233 d23d 5bad 0441
000000b0: c1bd 7f40 fa8e 6c40 c7e6 8b40 859a 8441
000000c0: cbdb 6d40 7d84 8140 d467 3041 5ea2 f440
000000d0: de73 8b41 aa44 8640 3d7b e440 d058 7440
000000e0: 383c b940 24a0 9c40 b12e 2b41 e9d0 6640
000000f0: 5226 be40 3be6 eb40 e1e4 9340 2a09 e440
00000100: 9929 973d a12d 0541 b3bf 7740 829b 0b41
00000110: be26 5740 2b15 a540 5fa7 c340 3b50 b83d
00000120: 5f0f d440 b604 8f40 98d0 bb40 4fc9 6541
00000130: a187 0041 3bcf 1241 07aa 0941 a7e7 4b41
00000140: 735d 2241 1a7c 3d41 bf9c de40 84a6 f240
00000150: b514 fa40 f3d1 8b40 2443 b540 0682 b240
00000160: 6a9d 9840 4d50 c740 2f08 3e41 d9d9 3041
00000170: 5b68 b140 c96d ed40 37d9 1e41 887a 9b40
00000180: 7a89 2341 afaa df40 ed7a 7f40 5856 a740
00000190: a72d 4041 e6c6 c540 5289 5741 5820 8440
000001a0: 3013 d840 e6c9 7540 cd46 5941 c4a5 8d3e
000001b0: c175 c740 346d d440 fdcf 1e41 bd33 fa40
000001c0: a855 d440 d8d3 da40 da9d ee40 1de6 fc40
000001d0: 3d5f 0c41 37f4 ac40 4905 0841 61d4 3741
000001e0: b8c5 3241 8da1 aa40 53fe 9640 d51c 0d41
000001f0: c6f9 a740 9ff4 0b41 67f4 3f41 e5e4 9941
00000200: 2407 b440 79cc c840 9657 9f40 7753 f340
00000210: f4d9 a140 28a9 1e41 7263 fb40 8fec cb40
00000220: 940e fb40 fd43 0441 ad62 8140 cf8e 2c41
00000230: 5c7b 9a40 98f5 f740 e4e8 8540 2237 9f40
00000240: 19d1 5d40 a334 a640 2721 bf40 3939 d540
