SingleAgent-best_actor.pth (torch_old, 96800 bytes, 14 tensors)

fc1.weight f4 [132, 33]
0.18751799 -0.03848282 -0.07198941 0.16942248 1.1587715 -1.4990757 -0.24076492 -0.11226156
-0.5006655 -0.13623132 0.16101724 -0.016007079 -0.0061696745 -0.20821424 -0.08736519 0.07290562
0.24480057 -0.8411828 -0.24263196 -0.20884413 -0.056205593 0.03358104 0.055660322 -0.10547649
-0.10040318 -0.0031798005 0.14260876 -0.0030905951 0.07554378 -0.07808538 0.073458776 0.08283712
-6.8283195 -0.55741537 0.42689192 0.0457077 -1.1454757 2.3347244 -0.50625163 1.1322842
-0.35978323 0.5970135 0.19511916 0.24921703 0.35502782 -0.31810558 0.64576113 -0.4290733
-0.2065741 2.1342611 -0.52959853 -0.6857336 -1.1854817 0.17293079 0.03218952 0.053303592
0.39628685 -0.19225867 0.28989354 0.23139529 0.029081374 -0.5420361 -0.06924783 0.080929674
0.013818294 -1.4919541 -0.08240363 0.32751724 -0.12214451 -2.108231 0.028953368 1.8159289
2.106051 0.15630387 -0.3637052 -0.26313382 -0.05053054 0.07717244 -0.0138779115 0.12313741
-0.043156713 -0.07714086 -0.5205372 0.38808745 0.06351035 0.5453352 -0.068174474 -0.009414878
-0.044550017 -0.03866659 -0.02166267 -0.066818014 0.47751865 -0.021219801 -0.028087547 -0.05469695
0.056960445 -0.05101356 3.719613 1.3968356 -0.21160305 0.41307116 0.7719204 0.15124854
0.65580535 -2.2200637 -0.42666617 0.30164623 1.2516927 0.4144298 -0.19036466 0.120953105
-0.7436065 0.55853856 -0.19267808 1.2031684 0.43414083 -1.1216223 0.6118079 -0.1430896
-0.054834995 -0.13860087 0.28564566 -0.032775406 0.14937118 -0.053700477 -0.007587077 -0.0028707557
-0.072495215 -0.032078557 0.023473538 -1.5094377 0.01629605 0.06071134 0.08971832 -0.079105906
0.05227634 0.0025996421 0.038796004 0.042249724 0.028471734 -0.026804319 -0.004021514 0.0357339
0.0077532087 -0.07894639 -0.03926434 -0.022891609 -0.030238425 0.08328467 0.016437547 0.08420536
0.0075632017 0.071906865 0.06647587 -0.023194434 -0.023069812 -0.057388783 0.011150704 0.038652897
0.030894315 -0.06703461 0.0734192 -0.03776169 0.054751974 -0.4426907 -0.791008 -0.44214132
-0.10105046 0.35876608 -0.6462989 -1.3366648 0.5872354 0.21446304 -0.60071355 -0.13069284
-0.61007637 -0.27145773 0.31448707 -0.36712587 0.8588086 1.7159181 0.7551451 0.35244688
1.5476891 -0.012164706 0.12650926 0.057483386 -0.0354323 -0.3318737 -0.16330795 -0.4096243
0.010190861 -0.42868948 -0.060204767 -0.036629476 -0.012859367 1.3853089 0.18798025 0.49192983
-0.13830201 -1.7764724 -0.2996999 1.4137281 0.018100424 -0.15228431 -0.08928334 0.4583486
-0.029794153 0.20152332 0.21942377 -0.72474825 -0.49997088 0.74564284 -1.4695936 -0.2393104
-0.80544084 -0.15588784 0.030914055 0.06145754 0.07621378 -0.24630179 -0.1831847 0.31147686
0.07822774 -0.011814783 -0.97491384 -0.08478028 -0.07027917 -0.07474205 -0.074819684 -0.5046516
-0.18665422 0.35124147 0.12395575 -0.70305955 1.3122249 0.5791853 0.3051025 0.4470908
-0.24245282 -0.067886 -0.07025466 0.14024156 0.07612422 0.13763261 -0.27631262 0.25190598
0.92678857 -0.53577167 -0.08828718 0.06287288 -0.0026549774 0.03937889 -0.20209844 0.11009395
00000000: b704 403e 29a0 1dbd 2f6f 93bd 167d 2d3e
00000010: a052 943f b6e1 bfbf 148b 76be 64e9 e5bd
00000020: 9d2b 00bf 3980 0bbe b4e1 243e 4721 83bc
00000030: fb2a cabb 1d36 55be 85ec b2bd 8b4f 953d
00000040: 00ad 7a3e c257 57bf 8374 78be 3cdb 55be
00000050: d637 66bd 468c 093d 14fc 633d 0f04 d8bd
00000060: 2fa0 cdbd 3364 50bb 0808 123e 958b 4abb
00000070: b3b6 9a3d 3aeb 9fbd 8e71 963d 82a6 a93d
00000080: 9881 dac0 c6b2 0ebf 9491 da3e ff37 3b3d
00000090: f39e 92bf 206c 1540 b599 01bf b0ee 903f
000000a0: 8235 b8be e0d5 183f 51cd 473e c032 7f3e
000000b0: 35c6 b53e bcde a2be 9a50 253f 7faf dbbe
000000c0: 2988 53be bc97 0840 c593 07bf 3d8c 2fbf
000000d0: ddbd 97bf c514 313e 28d9 033d de54 5a3d
000000e0: 1ce6 ca3e 75df 44be ed6c 943e e3f2 6c3e
000000f0: 103c ee3c e1c2 0abf ced1 8dbd 75be a53d
00000100: 2066 623c 5af8 bebf 3cc3 a8bd 57b0 a73e
00000110: e726 fabd 42ed 06c0 9d2f ed3c 5c70 e83f
00000120: 8ac9 0640 1f0e 203e 9137 babe 7ab9 86be
00000130: 1df9 4ebd 960c 9e3d 2e60 63bc 772f fc3d
00000140: 18c5 30bd 07fc 9dbd ed41 05bf 66b3 c63e
00000150: b711 823d 169b 0b3f 0f9f 8bbd dc40 1abc
00000160: 147a 36bd dc60 1ebd e975 b1bc e2d7 88bd
00000170: 537d f43e 26d5 adbc db17 e6bc e909 60bd
00000180: 5b4f 693d 98f3 50bd 240e 6e40 82cb b23f
00000190: 78ae 58be 107e d33e 939c 453f e6e0 1a3e
000001a0: dce2 273f 8615 0ec0 fd73 dabe 6071 9a3e
000001b0: 7737 a03f 2530 d43e f4ee 42be 43b6 f73d
000001c0: ff5c 3ebf 62fc 0e3f 674d 45be 6c01 9a3f
000001d0: b547 de3e 5291 8fbf 719f 1c3f 1586 12be
000001e0: a99a 60bd 63ed 0dbe 2640 923e 813f 06bd
000001f0: c2f4 183e 08f5 5bbd 049d f8bb 4a23 3cbb
00000200: 5f78 94bd ce64 03bd 944b c03c 4135 c1bf
00000210: 4b7f 853c 74ac 783d 3dbe b73d 4702 a2bd
00000220: b71f 563d c25e 2a3b 8fe8 1e3d 0c0e 2d3d
00000230: 8e3d e93c bb94 dbbc e8c6 83bb b65d 123d
00000240: a10e fe3b a5ae a1bd a5d3 20bd 2f87 bbbc
00000250: 93b6 f7bc 2791 aa3d 09a8 863c dc73 ac3d
00000260: bcd4 f73b e843 933d 8024 883d 4102 bebc
00000270: e7fc bcbc 8010 6bbd 71b1 363c 8052 1e3d
00000280: 1316 fd3c 7149 89bd ce5c 963d 00ac 1abd
00000290: 9b43 603d 5ba8 e2be 807f 4abf 5960 e2be
000002a0: 8bf3 cebd 30b0 b73e d873 25bf d517 abbf
000002b0: 0f55 163f 339c 5b3e 5dc8 19bf 58d4 05be
000002c0: f72d 1cbf 82fc 8abe 7304 a13e ecf7 bbbe
000002d0: e1da 5b3f 34a3 db3f 3051 413f eb73 b43e
000002e0: ad1a c63f 7a4e 47bc a58b 013e b373 6b3d
000002f0: 7621 11bd 59eb a9be 333a 27be 47ba d1be
00000300: 92f7 263c 307d dbbe 4699 76bd ca08 16bd
00000310: 18b0 52bc cd51 b13f e57d 403e 3ade fb3e
00000320: 0b9f 0dbe 7363 e3bf 4472 99be 0bf5 b43f
00000330: 5747 943c 6bf0 1bbe 2fda b6bd abac ea3e
00000340: de12 f4bc 215c 4e3e a0b0 603e 1a89 39bf
00000350: 2ffc ffbe 73e2 3e3f a51b bcbf c90d 75be
00000360: 5f31 4ebf 10a1 1fbe 793f fd3c e7ba 7b3d
00000370: f815 9c3d 8936 7cbe c594 3bbe e579 9f3e
00000380: de35 a03d cb92 41bc f493 79bf 49a1 adbd
00000390: 87ee 8fbd 5c12 99bd 103b 99bd d930 01bf
000003a0: 4922 3fbe ecd5 b33e 83dc fd3d b6fb 33bf
000003b0: fcf6 a73f 7d45 143f 6536 9c3e 16e9 e43e
000003c0: 8d45 78be d107 8bbd ade1 8fbd 7c9b 0f3e
000003d0: 04e7 9b3d 90ef 0c3e d978 8dbe d2f9 803e
000003e0: 0442 6d3f 5528 09bf e9cf b4bd 7fc3 803d
000003f0: 21ff 2dbb c24b 213d e5f2 4ebe f078 e13d

fc1.bias f4 [132]
-0.060968228 -0.08595757 0.043589417 -0.16078514 0.03698957 0.042823423 -0.13401936 0.112122
-0.15395573 -0.099860154 -0.17348878 0.15581122 0.07802478 0.019936085 -0.16277991 0.09736679
-0.09145471 -0.14726198 -0.09585361 0.026318077 -0.16063856 0.16434684 0.04699718 0.17072195
-0.0056530763 0.073864706 0.08229397 0.1148724 0.074045055 -0.13907936 0.1418094 -0.12475224
-0.07160349 -0.030962558 0.049477093 0.111816555 -0.074108474 -0.008284607 -0.0434691 0.08269904
0.026100634 -0.13670729 -0.16142559 0.09284814 -0.00338563 0.1583555 0.025997827 0.15667352
0.11939691 -0.16278149 0.15492311 -0.16996656 -0.1337819 0.12634413 0.14035457 0.017834075
0.1459135 0.16390544 0.17149289 -0.021119671 0.15826905 0.11035247 0.13791011 -0.018575503
0.07305772 0.01166375 0.074984595 0.04355694 0.12224315 0.15933822 0.1416838 0.03857238
-0.03993405 -0.09455865 0.09520619 -0.109367214 0.0124577265 -0.009167389 0.063783914 0.01691544
0.09692193 -0.13167381 0.03586572 0.05594996 -0.11908027 0.057106305 0.15000133 -0.045223005
-0.13204654 -0.06695165 0.16103764 0.08307478 -0.043121275 -0.096035846 0.014193432 -0.15235406
0.048085574 -0.14230989 -0.048479643 0.028977774 -0.10419047 0.14900598 0.049527537 0.060266398
0.09369834 0.17157008 0.0126135405 -0.038559537 0.011046052 0.12907417 -0.13816468 -0.03042781
0.078673795 0.14500676 0.06811671 -0.019992875 0.021286024 -0.054055005 0.17066963 0.0069442666
0.081020005 -0.09138201 0.164022 0.14685085 -0.1664569 -0.08702593 0.15687715 0.01695546
-0.14887798 0.0007841348 0.13905616 -0.029027857
00000000: d2b9 79bd 860a b0bd d18a 323d dca4 24be
00000010: 6082 173d 9d67 2f3d 5f3c 09be 38a0 e53d
00000020: 92a6 1dbe 7b83 ccbd 0ba7 31be fa8c 1f3e
00000030: 75cb 9f3d 0051 a33c c7af 26be 3d68 c73d
00000040: 9b4c bbbd d8cb 16be e64e c4bd 0299 d73c
00000050: 6f7e 24be 8a4a 283e 1d80 403d bcd1 2e3e
00000060: 713d b9bb 6146 973d be89 a83d 3942 eb3d
00000070: efa4 973d d26a 0ebe 7c36 113e 1a7e ffbd
00000080: daa4 92bd 31a5 fdbc 7ea8 4a3d 1400 e53d
00000090: 2fc6 97bd 29bc 07bc a80c 32bd 1d5e a93d
000000a0: ffd0 d53c fffc 0bbe c04c 25be 2a27 be3d
000000b0: 72e1 5dbb f227 223e 65f9 d43c 066f 203e
000000c0: 5e86 f43d 31b0 26be 2aa4 1e3e b70b 2ebe
000000d0: 1ffe 08be 5b60 013e 1cb9 0f3e c418 923c
000000e0: 596a 153e d4d6 273e d59b 2f3e 2903 adbc
000000f0: 4811 223e 7a00 e23d 4f38 0d3e a72b 98bc
00000100: 499f 953d 5019 3f3c 8691 993d c368 323d
00000110: 9e5a fa3d 8f29 233e 8f15 113e 12fe 1d3d
00000120: e391 23bd f7a7 c1bd 77fb c23d ebfb dfbd
00000130: 7e1b 4c3c d132 16bc 24a1 823d 4092 8a3c
00000140: 017f c63d 80d5 06be efe7 123d c92b 653d
00000150: 5be0 f3bd 4de8 693d f399 193e c23b 39bd
00000160: 3537 07be f21d 89bd 0de7 243e 1c23 aa3d
00000170: ef9f 30bd 71ae c4bd 928b 683c b402 1cbe
00000180: 61f5 443d afb9 11be 9792 46bd cc62 ed3c
00000190: d061 d5bd 0695 183e 63dd 4a3d e6d9 763d
000001a0: eae4 bf3d 11b0 2f3e 06a9 4e3c 9bf0 1dbd
000001b0: 80fa 343c 052c 043e 0b7b 0dbe be43 f9bc
000001c0: ba1f a13d a77c 143e c680 8b3d 19c8 a3bc
000001d0: 0760 ae3c c868 5dbd 05c4 2e3e bb8c e33b
000001e0: d1ed a53d 7e26 bbbd 62f5 273e 1260 163e
000001f0: ad73 2abe a73a b2bd 67a4 203e 2de6 8a3c
00000200: 7873 18be 658e 4d3a bd64 0e3e d4cb edbc

bn1.weight f4 [132]
1.2181545 0.66452664 0.93183476 0.33495983 -0.0055365516 0.5772468 0.9363046 0.7828203
0.53372115 0.80078936 0.95020306 0.9010919 1.0282482 0.899399 0.5685361 0.54921067
0.5999474 0.63455105 0.6131822 0.746089 0.86282146 0.8465046 0.5556658 0.84035796
0.7697628 -0.707908 0.5301445 0.9224336 0.86203814 0.7289177 0.6257933 0.7740946
0.7622455 0.9362221 0.4190881 0.6798998 0.6743581 0.77064717 0.7497847 0.5676255
0.55195165 0.8705268 1.0876609 0.8749547 0.82688415 0.5451222 0.69022256 0.71060777
0.5703558 0.38270375 0.7076061 0.9310973 0.7982822 0.66484433 0.5457917 0.82966256
0.8548401 0.7973525 0.51245534 0.8966484 0.7614869 0.7843228 0.60563767 0.7337435
1.0527676 0.33413118 0.53317404 0.3258756 0.5260306 1.4469227 0.63647324 0.7083685
0.88060415 0.9677853 0.72878784 0.69774276 0.6727018 0.70883816 0.48165622 1.1253557
0.8631031 0.73505574 0.8976766 0.9511402 0.8077832 0.82172036 0.567712 0.5710986
1.1332233 0.49434158 1.0334816 0.99695474 0.6424856 0.72174746 0.71076155 0.6313032
1.0970728 0.41409183 0.8286313 0.76922226 0.9687966 0.9455014 0.5053738 0.80617297
0.6077201 1.0155065 0.5150058 0.61546236 0.8457491 0.66286904 0.72767425 0.8127629
0.7167301 0.5103357 0.951627 0.9557117 0.59326315 0.5926587 0.64811593 1.1075634
0.7843996 0.78563476 1.045658 0.8571312 0.83831733 0.9175505 0.41021186 0.85136825
0.9592896 0.6154601 0.7731207 0.50504327
00000000: 7dec 9b3f 6b1e 2a3f b98c 6e3f db7f ab3e
00000010: f66b b5bb 72c6 133f a9b1 6f3f e966 483f
00000020: f3a1 083f 8800 4d3f 8240 733f f5ad 663f
00000030: a39d 833f 033f 663f 958b 113f 1299 0c3f
00000040: 2796 193f f071 223f 82f9 1c3f b0ff 3e3f
00000050: dee1 5c3f 87b4 583f 1d40 0e3f b321 573f
00000060: 2d0f 453f 7539 35bf 8db7 073f 9c24 6c3f
00000070: 88ae 5c3f 5a9a 3a3f fd33 203f 102b 463f
00000080: 8522 433f 40ac 6f3f b792 d63e ea0d 2e3f
00000090: bca2 2c3f 2249 453f e4f1 3f3f e84f 113f
000000a0: b44c 0d3f d8da 5e3f 7938 8b3f 08fd 5f3f
000000b0: aeae 533f 218d 0b3f 6db2 303f 64ea 353f
000000c0: d602 123f bff1 c33e ac25 353f 655c 6e3f
000000d0: 395c 4c3f 3d33 2a3f 01b9 0b3f c464 543f
000000e0: cdd6 5a3f 4b1f 4c3f 4630 033f c08a 653f
000000f0: cef0 423f 61c9 483f 120b 1b3f 9dd6 3b3f
00000100: 17c1 863f 3e13 ab3e 187e 083f 2bd9 a63e
00000110: f1a9 063f c334 b93f e9ef 223f a357 353f
00000120: 466f 613f c7c0 773f d791 3a3f 459f 323f
00000130: 2f36 2c3f 6b76 353f a59b f63e a80b 903f
00000140: 53f4 5c3f 9d2c 3c3f 22ce 653f ed7d 733f
00000150: e1ca 4e3f 445c 523f 9355 113f 8533 123f
00000160: 760d 913f 571a fd3e 2049 843f 6d38 7f3f
00000170: f079 243f 71c4 383f 78f4 353f 169d 213f
00000180: e26c 8c3f d803 d43e 2e21 543f c0eb 443f
00000190: 0e03 783f 610c 723f 2d60 013f 5a61 4e3f
000001a0: 8b93 1b3f 1efc 813f 6cd7 033f f18e 1d3f
000001b0: 0383 583f c9b1 293f dc48 3a3f 3b11 503f
000001c0: a07b 373f 5ca5 023f d49d 733f 86a9 743f
000001d0: 18e0 173f 7bb8 173f edea 253f a3c4 8d3f
000001e0: 6ace 483f 5c1f 493f 1fd8 853f f36c 5b3f
000001f0: f79b 563f 97e4 6a3f 4a07 d23e 45f3 593f
00000200: 0194 753f cb8e 1d3f 3deb 453f 844a 013f

bn1.bias f4 [132]
-0.54453915 -0.43202415 -0.58645034 0.35042647 -0.04529115 -0.3241 -0.48007473 -0.3776094
0.1353536 -0.40484488 -0.5684505 -0.46746543 -0.62139726 -0.36230385 0.027242519 0.09350905
-0.42284003 -0.3429834 -0.50302494 -0.5418355 -0.44201052 0.027666198 -0.08120325 -0.38905123
-0.5814491 0.4682441 0.018629108 -0.48858368 -0.20855911 -0.07874231 -0.2832337 -0.02350841
-0.30594262 -0.87622833 -0.016958352 -0.12388209 -0.2811815 -0.50891554 -0.21863598 -0.12751736
-0.3555495 -0.5351144 -0.6421985 -0.30316988 -0.27118194 0.0037840006 -0.17426522 -0.23832242
-0.19151732 0.7484796 -0.41174343 -0.8108009 -0.38216296 -0.5428903 0.5190071 -0.22059356
-0.32489422 -0.62002134 0.15943049 -0.19015469 -0.23583679 0.1939363 -0.07439623 -0.48521852
-0.9821466 0.22249325 0.005738373 0.1393318 -0.1432784 -0.33564445 0.21982893 -0.27408004
-0.072847806 -0.22899747 -0.43205494 -0.46769294 -0.4554489 0.113601655 0.29673946 -0.12651762
-0.6213731 -0.39560622 -0.15769477 -0.40051973 -0.38020274 -0.29410508 -0.024152804 -0.09139561
-0.31874305 0.10823078 -0.6377873 -0.7782689 -0.56439793 -0.34282002 -0.124920465 -0.43346176
-1.2126709 0.16828583 0.04838476 -0.7144244 -0.6908513 -0.022647945 -0.11553941 -0.22973008
-0.20126106 -0.40441632 0.22697946 -0.32523403 -0.14324877 -0.058787014 -0.2590233 -0.03560696
-0.28813738 0.12975235 -0.2229926 -0.70020247 -0.42688406 -0.0039008246 0.23420256 -0.6889338
-0.34171253 -0.80183506 -0.7622153 -0.84868515 -0.7164222 -0.5742188 0.0737713 -0.03119495
-0.13938344 -0.38970393 -0.2754547 -0.1505505
00000000: eb66 0bbf 4532 ddbe 9c21 16bf 196b b33e
00000010: 3783 39bd 6ff0 a5be 5bcc f5be 0556 c1be
00000020: 229a 0a3e d447 cfbe f985 11bf a157 efbe
00000030: e413 1fbf e47f b9be b42b df3c ac81 bf3d
00000040: 7d7e d8be 859b afbe 3ec6 00bf bbb5 0abf
00000050: 344f e2be 39a4 e23c e44d a6bd b931 c7be
00000060: d9d9 14bf b1bd ef3e 129c 983c a427 fabe
00000070: 8590 55be a643 a1bd 0204 91be b694 c0bc
00000080: 83a4 9cbe 8050 60bf 3eec 8abc e5b5 fdbd
00000090: 06f7 8fbe 4a48 02bf 1ce2 5fbe e993 02be
000000a0: 960a b6be 42fd 08bf 1f67 24bf 1539 9bbe
000000b0: 5cd8 8abe fffc 773b 9572 32be cb0a 74be
000000c0: 1e1d 44be 5c9c 3f3f 09d0 d2be a690 4fbf
000000d0: ddaa c3be dcfa 0abf a6dd 043f 47e3 61be
000000e0: 8958 a6be b8b9 1ebf bf41 233e e9b7 42be
000000f0: 337f 71be 3d97 463e 0d5d 98bd 906e f8be
00000100: f66d 7bbf 45d5 633e f608 bc3b ffac 0e3e
00000110: 93b7 12be 97d9 abbe d61a 613e 3854 8cbe
00000120: 3b31 95bd 507e 6abe 4e36 ddbe 7375 efbe
00000130: 9930 e9be fca7 e83d 3cee 973e d68d 01be
00000140: 4f12 1fbf e68c cabe bd7a 21be ec10 cdbe
00000150: efa9 c2be f194 96be 1adc c5bc 9f2d bbbd
00000160: 4a32 a3be 19a8 dd3d 0746 23bf a13c 47bf
00000170: 627c 10bf 1b86 afbe 4dd6 ffbd b3ee ddbe
00000180: cd38 9bbf 1f53 2c3e 192f 463d 84e4 36bf
00000190: a1db 30bf 2f88 b9bc ed9f ecbd 5d3e 6bbe
000001a0: 6117 4ebe a80f cfbe 4e6d 683e 1385 a6be
000001b0: ceaf 12be a7ca 70bd b49e 84be 9bd8 11bd
000001c0: be86 93be cddd 043e 2c58 64be 7840 33bf
000001d0: 8c90 dabe faa4 7fbb ccd2 6f3e f75d 30bf
000001e0: f2f4 aebe 1045 4dbf 8b20 43bf 6e43 59bf
000001f0: 7267 37bf 0100 13bf 6815 973d 8d8c ffbc
00000200: 88ba 0ebe 4687 c7be 6608 8dbe e929 1abe

bn1.running_mean f4 [132]
0.41428512 -0.43081537 -1.8212477 -0.81967604 0.024690744 2.974397 -0.71864694 0.7744867
-4.63907 -1.1039912 0.08748389 -0.6347697 0.09827798 0.38430804 0.92053187 -0.028299192
0.9325972 -1.4014604 -0.18822059 1.1960784 -1.4112477 -1.136708 3.0508554 -0.63437986
-1.1485136 0.7391177 -0.6142753 -1.3723451 0.08484135 -1.5819016 -2.2073603 0.54191184
3.6171103 2.1847043 -0.6358123 1.4930941 -0.5045247 -2.7984107 -0.9246321 -0.121171564
-0.14421155 -1.3303068 -2.0459707 2.236007 0.71888965 0.8811504 -0.37928525 0.48936948
2.0443335 3.1800656 -3.6704223 -1.9820647 -0.14687784 0.0056974157 -2.3591506 -1.9106989
-0.1866479 -0.03204965 2.5991464 -2.637317 0.17610821 1.4046285 0.5777309 -0.8752911
-0.2981165 4.923782 -0.73138946 0.6745439 -0.5859285 -0.5213491 0.3854217 -0.24328938
-0.05284651 0.66858584 0.40038544 -1.1316618 -1.3281999 0.47621956 -0.48722523 0.3904382
-1.051007 -2.1956797 0.98878187 0.12949742 -1.2564421 0.7309902 -0.27742544 -3.0231202
-0.3847875 2.1385934 -0.408591 0.17248063 0.05594604 -3.2193542 1.1348966 -0.9846192
-1.8390003 -0.23877886 0.4263535 -0.534803 -1.4233214 -1.4322506 -1.3629314 -0.8066676
-0.09681484 -0.35435984 0.61107665 -0.94997096 0.55795 0.50805545 -0.9363143 0.9245247
1.0953829 -4.859091 0.6015649 3.750974 -0.9992467 0.55258894 0.19067584 -0.42793724
-1.7005851 -3.27593 -0.1690428 -2.7742615 -1.9127537 -0.43807134 0.63987976 -0.3876925
-1.8020743 0.84907526 2.7591531 -0.4389048
00000000: 2e1d d43e d593 dcbe a51e e9bf 4ad6 51bf
00000010: 3e44 ca3c 855c 3e40 3ff9 37bf c344 463f
00000020: 4373 94c0 954f 8dbf c12a b33d 4480 22bf
00000030: f745 c93d 06c4 c43e faa7 6b3f b5d3 e7bc
00000040: b1be 6e3f 0e63 b3bf e6bc 40be 1919 993f
00000050: c4a3 b4bf a67f 91bf 3741 4340 b866 22bf
00000060: 7e02 93bf d136 3d3f 2541 1dbf 01a9 afbf
00000070: 4dc1 ad3d c07b cabf 6445 0dc0 bcba 0a3f
00000080: bc7e 6740 32d2 0b40 98c4 22bf b51d bf3f
00000090: 8828 01bf 2919 33c0 b0b4 6cbf cc28 f8bd
000000a0: 31ac 13be 7e47 aabf 2ff1 02c0 bd1a 0f40
000000b0: 2709 383f 1393 613f ad31 c2be a38e fa3e
000000c0: 5cd6 0240 3286 4b40 33e8 6ac0 4cb4 fdbf
000000d0: 2567 16be 63b1 ba3b 53fc 16c0 c891 f4bf
000000e0: a120 3fbe 7e46 03bd 6a58 2640 cdc9 28c0
000000f0: b655 343e deca b33f 2ce6 133f 1413 60bf
00000100: baa2 98be 9f8f 9d40 573c 3bbf e9ae 2c3f
00000110: 69ff 15bf 2277 05bf fe55 c53e da20 79be
00000120: 9575 58bd 7128 2b3f 52ff cc3e 4bda 90bf
00000130: 7402 aabf 0dd3 f33e 9675 f9be 84e7 c73e
00000140: 6687 86bf 0486 0cc0 cf20 7d3f f99a 043e
00000150: 18d3 a0bf 2c22 3b3f b50a 8ebe cd7a 41c0
00000160: de02 c5be b7de 0840 d732 d1be c39e 303e
00000170: ad27 653d e609 4ec0 4b44 913f 0110 7cbf
00000180: 5d64 ebbf 7282 74be 024b da3e d9e8 08bf
00000190: 652f b6bf fd53 b7bf 8974 aebf c581 4ebf
000001a0: dc46 c6bd a76e b5be 856f 1c3f 4c31 73bf
000001b0: d0d5 0e3f ec0f 023f 4bb2 6fbf a7ad 6c3f
000001c0: 8235 8c3f ac7d 9bc0 2800 1a3f f50f 7040
000001d0: a2ce 7fbf 7876 0d3f 8740 433e 971a dbbe
000001e0: c6ac d9bf d6a8 51c0 8e19 2dbe 808d 31c0
000001f0: 1dd5 f4bf e34a e0be 29cf 233f a27f c6be
00000200: 5faa e6bf ff5c 593f f795 3040 21b8 e0be

bn1.running_var f4 [132]
16.722725 33.043976 16.027533 9.797047 0.20803481 19.98722 28.29561 14.082322
18.317078 21.609127 49.088955 49.11157 17.641064 20.075462 14.275411 29.808233
29.0322 7.506095 65.03418 38.336792 7.5781255 17.84736 20.600386 7.1389966
21.17047 31.172737 18.696033 13.914336 15.495505 17.557304 41.76506 10.282936
39.917816 74.11509 13.401992 13.942332 10.039469 31.095089 13.744777 14.879445
12.468716 15.803 38.47118 19.965115 15.933961 24.655779 11.284726 20.637007
22.788378 16.49325 23.867418 57.05864 14.401554 30.425732 12.538856 29.671717
12.98118 20.737328 20.515547 36.89065 20.331928 14.045123 12.142411 12.803951
17.67774 22.307482 16.99505 13.405775 8.917062 21.603456 15.571745 31.85915
12.220414 15.651074 15.742202 16.045444 20.22181 15.272459 10.866549 10.606199
34.661156 16.195787 17.758604 28.908916 25.390675 33.074703 24.29203 16.681442
12.490358 28.85346 19.804623 22.89589 26.437239 37.19699 25.046644 19.31691
13.575309 48.20206 12.452146 48.765835 57.942135 14.430479 18.626385 39.036526
47.625923 13.435452 8.020903 12.265874 13.721761 17.46487 28.67394 15.219779
48.00374 32.27298 17.229534 14.210652 18.103518 9.094227 27.287685 22.944675
10.995024 30.899197 13.463799 26.963583 19.346272 13.6566925 8.465464 10.187105
26.88318 37.168686 38.854664 25.663586
00000000: 24c8 8541 082d 0442 6338 8041 b4c0 1c41
00000010: 1407 553e d4e5 9f41 695d e241 3151 6141
00000020: 6089 9241 7edf ac41 175b 4442 3f72 4442
00000030: e620 8d41 8c9a a041 1568 6441 4377 ee41
00000040: f241 e841 ee31 f040 8011 8242 e058 1942
00000050: 0180 f240 65c7 8e41 97cd a441 a972 e440
00000060: 1f5d a941 c461 f941 7a91 9541 1fa1 5e41
00000070: 97ed 7741 5c75 8c41 6c0f 2742 e886 2441
00000080: d8ab 1f42 ed3a 9442 8f6e 5641 cb13 5f41
00000090: aaa1 2041 bec2 f841 9bea 5b41 3512 6e41
000000a0: dc7f 4741 17d9 7c41 7de2 1942 8eb8 9f41
000000b0: 81f1 7e41 093f c541 3d8e 3441 9718 a541
000000c0: 994e b641 2df2 8341 79f0 be41 0c3c 6442
000000d0: c46c 6641 e667 f341 279f 4841 ad5f ed41
000000e0: eab2 4f41 0ce6 a541 d71f a441 0790 1342
000000f0: caa7 a241 d3b8 6041 5147 4241 fcdc 4c41
00000100: 036c 8d41 b975 b241 ddf5 8741 0e7e 5641
00000110: 49ac 0e41 e1d3 ac41 de25 7941 8adf fe41
00000120: d186 4341 cd6a 7a41 0fe0 7b41 125d 8041
00000130: 44c6 a141 fe5b 7441 62dd 2d41 feb2 2941
00000140: 06a5 0a42 f990 8141 9f11 8e41 7645 e741
00000150: 1a20 cb41 7f4c 0442 1456 c241 9873 8541
00000160: 82d8 4741 e3d3 e641 de6f 9e41 c82a b741
00000170: 777f d341 b8c9 1442 875f c841 0889 9a41
00000180: 7734 5941 e9ce 4042 fd3b 4741 3710 4342
00000190: bfc4 6742 3ee3 6641 d602 9541 6725 1c42
000001a0: f280 3e42 9df7 5641 9e55 0041 0541 4441
000001b0: 558c 5b41 0eb8 8b41 3b64 e541 3784 7341
000001c0: d403 4042 8817 0142 16d6 8941 d55e 6341
000001d0: 01d4 9041 f481 1141 2e4d da41 b28e b741
000001e0: 9eeb 2f41 8e31 f741 b96b 5741 6bb5 d741
000001f0: 2ac5 9a41 d081 5a41 8a72 0741 62fe 2241
00000200: c110 d741 bcac 1442 2d6b 1b42 064f cd41

fc2.weight f4 [132, 132]
-1.0224582 -0.39572632 1.0027484 -0.71992415 0.050490804 0.060945213 0.5049855 0.15142594
0.12726317 -0.09327887 -0.098672494 0.07594265 0.489336 -0.18192576 -0.32158306 -0.34789425
0.23791133 0.51854134 0.092456296 -0.69902813 -0.20773365 0.13189897 0.4308081 -0.21965341
0.031726133 -0.083346546 -0.6527486 0.015862117 -0.63613445 0.480531 0.66415787 -0.80019253
0.08110397 0.07267921 0.39836374 0.22909696 1.0193517 0.13049173 0.27035534 -0.39254567
0.086707026 -0.24105836 0.031017574 -0.015856827 -0.43812636 0.061256565 -0.010105788 0.65432566
-0.87702006 -0.14445879 0.010347134 0.07664842 0.6861813 0.4585522 0.75505066 -0.45780247
-0.570117 0.10245346 0.2945728 0.271936 0.31471547 0.6576609 0.047623422 0.77311254
0.8572827 0.50675267 0.14743076 0.07582663 0.12226554 -0.23390727 0.6847291 1.0848426
-0.347107 -0.68244153 0.14595596 0.38036618 -0.21742296 -0.21249375 0.6443534 1.1085706
0.0016359938 0.8747205 -0.41917247 -0.4993925 0.4798069 0.6069979 -0.21626166 0.016642937
-1.6364628 0.04692797 0.5953031 0.5481131 0.5720313 -0.31785363 -0.6706107 -0.7186045
0.68822825 0.28686062 0.20316812 0.8227727 1.6292964 1.2719812 1.2495704 -0.3046892
0.58512694 0.308739 0.013889248 -0.16948551 0.39238083 -0.13804874 -0.6258555 0.16603363
0.14146961 0.7013674 -0.19311167 -0.1457623 0.15641692 0.11509947 0.36112687 -0.14428571
0.24570215 0.431058 0.39071557 0.23444106 -0.11182065 -0.75308394 -0.42889717 0.4064931
0.3600092 -0.279125 0.69128036 0.34293768 0.3565446 -0.14433396 0.06593131 0.20830734
0.060872722 0.03695499 -0.7614847 -1.5108184 0.6364853 0.027569145 -0.39191574 0.35639796
-0.28669193 0.07874351 -0.25363997 0.11586942 -0.21599269 -1.1864057 0.030819366 -0.08087705
-0.91646636 0.4873523 -0.0080482755 -0.24849883 -0.58012986 -0.006278067 -0.056336608 -0.7672739
-0.48328444 0.10569812 0.14557426 -0.3086068 -0.55592376 0.87310094 0.6954462 -0.27864838
-0.18653733 -0.5334433 -0.4904612 0.692396 -0.29231519 -0.13495727 0.56203187 0.56535494
-0.6182342 -0.14390019 -0.53501415 -0.90728194 -0.11324636 -0.44811234 0.62134403 -0.94271004
-0.45606628 -0.32801896 -0.66306466 0.45913678 -0.15888411 0.82044816 -0.64217645 -0.44923472
0.1028902 -0.5478929 -0.34419808 -0.14125055 1.144795 -0.76296735 0.32983777 -0.03782097
0.32394424 -1.1278541 0.14958881 0.44993964 -0.18588613 -0.19186069 -0.82817155 0.6225722
0.4654465 -0.15010257 0.3026783 0.008317759 -0.5285104 -0.030359674 -0.45020777 0.22767334
0.01388891 -0.5946681 0.64662164 0.15136188 -0.10634289 0.3290177 -0.24315648 0.13259731
0.5705085 0.009814163 -0.33348382 -0.18236342 -1.127883 0.7167473 -0.17439778 -0.852643
0.124273315 0.52539265 -0.07278192 0.65841657 -1.5931369 -1.1700009 -0.34898192 0.19979334
0.41299358 0.018616796 0.9480663 -0.19162801 0.06794603 -0.26886237 -0.7948502 -0.29205304
-0.27484128 -1.2648379 -1.2293547 0.48110166 -0.0034536277 0.6141875 0.15585771 -0.033030577
00000000: e9df 82bf a49c cabe 0f5a 803f f34c 38bf
00000010: 72cf 4e3d b0a1 793d bb46 013f 670f 1b3e
00000020: 4751 023e fe08 bfbd ce14 cabd d287 9b3d
00000030: 408a fa3e bf4a 3abe 89a6 a4be 321f b2be
00000040: 079f 733e 20bf 043f ba59 bd3d 82f3 32bf
00000050: 21b8 54be 8610 073e e192 dc3e d3ec 60be
00000060: 43f3 013d 98b1 aabd 881a 27bf 45f1 813c
00000070: b5d9 22bf 2908 f63e 4006 2a3f 6bd9 4cbf
00000080: d719 a63d d6d8 943d 55f6 cb3e 6598 6a3e
00000090: 1e7a 823f a09f 053e 046c 8a3e bffb c8be
000000a0: 7493 b13d 01d8 76be 9118 fe3c 2de6 81bc
000000b0: 1952 e0be 2ae8 7a3d bf92 25bc e381 273f
000000c0: 6384 60bf 01ed 13be 0787 293c d9f9 9c3d
000000d0: 94a9 2f3f 5bc7 ea3e 004b 413f 1665 eabe
000000e0: 30f3 11bf 1fd3 d13d 3fd2 963e 323b 8b3e
000000f0: 6322 a13e 775c 283f c710 433d b4ea 453f
00000100: e176 5b3f 8bba 013f 17f8 163e fe4a 9b3d
00000110: 5b66 fa3d 6385 6fbe 684a 2f3f 1fdc 8a3f
00000120: 02b8 b1be 7db4 2ebf 7b75 153e 5bbf c23e
00000130: 20a4 5ebe f697 59be 58f4 243f a4e5 8d3f
00000140: d86e d63a afed 5f3f c69d d6be 60b0 ffbe
00000150: 40a9 f53e 3764 1b3f b273 5dbe c556 883c
00000160: 9d77 d1bf 8b37 403d c965 183f 2451 0c3f
00000170: a570 123f b6bd a2be 25ad 2bbf 77f6 37bf
00000180: ba2f 303f 65df 923e 4e0b 503e 3ba1 523f
00000190: c98c d03f 48d0 a23f ecf1 9f3f 3900 9cbe
000001a0: e1ca 153f 0a13 9e3e ba8f 633c 9c8d 2dbe
000001b0: 24e6 c83e a65c 0dbe 1138 20bf b804 2a3e
000001c0: 69dd 103e d08c 333f 11bf 45be b642 15be
000001d0: c22b 203e 45b9 eb3d 9fe5 b83e a2bf 13be
000001e0: 5899 7b3e a2b3 dc3e df0b c83e 5111 703e
000001f0: 3a02 e5bd 1cca 40bf 6998 dbbe dd1f d03e
00000200: 2053 b83e 79e9 8ebe c0f7 303f 8795 af3e
00000210: 048d b63e 48cc 13be ff06 873d 854e 553e
00000220: ad55 793d 1e5e 173d a9f0 42bf 7f62 c1bf
00000230: b3f0 223f b0d8 e13c 2ea9 c8be cb79 b63e
00000240: 49c9 92be 4744 a13d 19dd 81be f24c ed3d
00000250: 302d 5dbe 24dc 97bf e578 fc3c dea2 a5bd
00000260: 8a9d 6abf 3e86 f93e eadc 03bc 7a76 7ebe
00000270: 6483 14bf 3eb8 cdbb 37c1 66bd 106c 44bf
00000280: 0f71 f7be 4278 d83d 6b11 153e b601 9ebe
00000290: 0551 0ebf 8b83 5f3f c308 323f 00ab 8ebe
000002a0: a403 3fbe bd8f 08bf bb1d fbbe dd40 313f
000002b0: 56aa 95be 3d32 0abe 52e1 0f3f 1abb 103f
000002c0: 9944 1ebf 925a 13be b0f6 08bf a143 68bf
000002d0: b5ed e7bd fb6e e5be 6710 1f3f 7255 71bf
000002e0: 8581 e9be 1af2 a7be 9bbe 29bf fa13 eb3e
000002f0: 84b2 22be e408 523f ad65 24bf 1802 e6be
00000300: 19b8 d23d b642 0cbf bb3a b0be fca3 10be
00000310: a488 923f d451 43bf 7fe0 a83e 29ea 1abd
00000320: 05dc a53e 865d 90bf cf2d 193e 7d5e e63e
00000330: ef58 3ebe 2177 44be 0d03 54bf e460 1f3f
00000340: 014f ee3e 7db4 19be a6f8 9a3e 3647 083c
00000350: 754c 07bf dab4 f8bc a281 e6be 3323 693e
00000360: 508e 633c 2b3c 18bf ff88 253f 9cfe 1a3e
00000370: 4dca d9bd 0275 a83e 03fe 78be 97c7 073e
00000380: d80c 123f 95cb 203c 64be aabe 7abd 3abe
00000390: 785e 90bf c07c 373f 5595 32be d046 5abf
000003a0: 0283 fe3d 2280 063f b00e 95bd fd8d 283f
000003b0: e9eb cbbf 97c2 95bf c2ad b2be a096 4c3e
000003c0: e573 d33e 4082 983c 79b4 723f 223a 44be
000003d0: 4a27 8b3d 54a8 89be 4d7b 4bbf fa87 95be
000003e0: ffb7 8cbe 35e6 a1bf 7f5b 9dbf f552 f63e
000003f0: 4256 62bb 643b 1d3f 2a99 1f3e 124b 07bd

fc2.bias f4 [132]
-0.03974246 -0.01566214 0.06999662 0.043101475 0.022770708 0.01188492 -0.07127785 -0.019220233
-0.046363622 -0.00710829 -0.018451754 -0.019885095 -0.060708445 -0.07751248 0.08453504 0.004749473
0.07777493 0.011193432 0.035499495 0.067993775 -0.06806289 -0.04355013 0.05429743 0.07842541
0.014521292 0.012284411 -0.009533369 -0.044373397 0.030252092 -0.08812937 -0.017293619 -0.0063532735
-0.026271185 0.04615767 -0.071059406 0.070448875 0.03425962 -0.0002838026 -0.027790546 -0.020265236
-0.019058833 0.07393776 -0.056261294 -0.043828756 -0.015269619 -0.024786115 0.021379976 0.07724862
0.056832906 -0.035587415 0.061435003 -0.08171394 0.02156969 0.037118014 0.017138919 0.07313778
-0.011343528 0.057054356 -0.051446177 0.07351201 0.06421726 0.017803144 0.023592854 0.079204
0.03725868 0.08217684 0.0226836 0.054113843 -0.02146968 -0.018966053 -0.039003074 -0.06959139
-0.070157975 0.0679691 0.034858093 0.038842328 -0.028200682 0.06410979 -0.062400896 -0.050377753
0.08604291 0.08385878 -0.056778274 -0.004144813 -0.0460849 0.050707933 -0.026406944 -0.07394056
-0.025569605 -0.066537715 -0.03247697 -0.08748015 -0.03761651 -0.007184843 -0.025003301 0.049437605
0.06383758 -0.07006976 0.0002539297 0.060915463 -0.055596508 -0.0075560594 -0.060179856 0.08726676
-0.037516132 0.0421034 0.022669993 -0.007549861 0.02251669 -0.01185306 0.013359293 0.08553377
0.043668117 -0.003182471 -0.077632844 0.050962154 0.051294506 0.014421901 -0.06765513 0.008255075
-0.08102097 -0.019370763 0.066421986 -0.014924434 0.06385654 0.040724054 0.06392853 -0.07701235
0.030405961 -0.02632134 -0.06716746 -0.07384598
00000000: fdc8 22bd e34d 80bc 635a 8f3d 2c8b 303d
00000010: a389 ba3c f8b8 423c 1ffa 91bd c073 9dbc
00000020: c8e7 3dbd a9ec e8bb 2228 97bc 11e6 a2bc
00000030: 6ba9 78bd ddbe 9ebd b520 ad3d 78a1 9b3b
00000040: 7648 9f3d a864 373c eb67 113d 5240 8b3d
00000050: 8e64 8bbd 9f61 32bd fb66 5e3d 809d a03d
00000060: b7ea 6d3c 8e44 493c d931 1cbc e1c0 35bd
00000070: 3cd3 f73c 2c7d b4bd 59ab 8dbc 1f2f d0bb
00000080: ab36 d7bc d30f 3d3d 9887 91bd 8047 903d
00000090: d153 0c3d 57cb 94b9 00a9 e3bc 4803 a6bc
000000a0: 4521 9cbc ae6c 973d 3e72 66bd c885 33bd
000000b0: 6d2d 7abc 400c cbbc 0f25 af3c 8634 9e3d
000000c0: 9fc9 683d 1cc4 11bd 45a3 7b3d a359 a7bd
000000d0: ebb2 b03c 0f09 183d eb66 8c3c 43c9 953d
000000e0: 34da 39bc d4b1 693d 3ab9 52bd 778d 963d
000000f0: 5784 833d e6d7 913c cd45 c13c b535 a23d
00000100: 8f9c 183d 554c a83d f5d2 b93c 7aa6 5d3d
00000110: 2fe1 afbc b25e 9bbc b0c1 1fbd ee85 8ebd
00000120: fcae 8fbd 6233 8b3d 5cc7 0e3d 2219 1f3d
00000130: 1e05 e7bc fe4b 833d 1598 7fbd e758 4ebd
00000140: 4437 b03d 27be ab3d 5690 68bd 36d1 87bb
00000150: 85c3 3cbd 1fb3 4f3d 6053 d8bc 266e 97bd
00000160: 5977 d1bc ed44 88bd 9206 05bd cb28 b3bd
00000170: c513 1abd d56e ebbb b9d3 ccbc 167f 4a3d
00000180: 47bd 823d bc80 8fbd de21 8539 7e82 793d
00000190: 2ab9 63bd d298 f7bb 277f 76bd eab8 b23d
000001a0: 84aa 19bd 9d74 2c3d 6cb6 b93c d364 f7bb
000001b0: ec74 b83c 5633 42bc f0e0 5a3c 542c af3d
000001c0: 57dd 323d 0191 50bb f8fd 9ebd b1bd 503d
000001d0: 301a 523d d649 6c3c c68e 8abd 4b40 073c
000001e0: 53ee a5bd 6faf 9ebc 4008 883d 9d85 74bc
000001f0: 38c7 823d 44ce 263d f6ec 823d a7b8 9dbd
00000200: ec15 f93c da9f d7bc 188f 89bd 903c 97bd

bn2.weight f4 [132]
1.8113776 1.2039372 1.1399475 1.7906753 2.0933712 1.7789677 1.5652013 1.673464
1.1529051 0.7214562 1.4263302 1.6602037 1.4402977 1.8880434 1.5790536 1.4358026
1.5380931 2.1920316 1.8648299 1.4796991 2.2774627 1.4470943 2.1316817 1.4447273
1.7950181 1.611459 1.7366103 1.3593724 1.2645581 1.6367257 1.6847041 1.9622728
2.1643114 1.9858549 1.2517927 1.2477548 1.7490089 1.542194 1.5358236 1.3753022
1.2870108 1.4000676 1.7284411 1.407605 1.6553937 2.025064 1.5377938 2.1084688
1.4904863 1.5428118 1.5547111 1.7839229 1.6102283 2.13374 1.4737637 1.5191529
1.7371792 1.5134585 1.4418689 2.1985373 1.4960966 1.8642645 1.6125311 1.3732542
1.5213206 1.4513454 1.9280888 1.9074132 1.1948078 0.95886695 1.454932 1.47519
1.5168852 1.6389084 1.8243078 1.3092525 1.4709103 1.4641972 1.8260379 1.7930448
2.380095 1.7487699 1.5989451 1.4266012 1.9787393 1.7334875 1.3924599 1.3250266
1.4216403 1.7151458 1.6661117 2.516136 1.3818414 1.6495903 1.4601754 1.5502834
2.117686 2.0274775 1.812523 0.9730347 2.0471668 1.1169871 1.1543022 1.568993
1.7701117 1.7624584 1.5041726 1.4747328 1.6415296 1.3944468 0.914621 1.2518108
1.3951488 1.1914437 1.5625081 1.3257943 1.7056928 1.789923 1.4392021 1.1056675
1.8948362 1.3549854 1.7933816 1.5846032 1.4330976 1.5741851 1.3595177 1.8417221
1.7942789 1.6458861 1.4383476 1.977157
00000000: 39db e73f 9d1a 9a3f cde9 913f d934 e53f
00000010: cbf9 0540 37b5 e33f 8458 c83f 1134 d63f
00000020: 6592 933f 5bb1 383f fd91 b63f 8e81 d43f
00000030: ad5b b83f 68ab f13f 6e1e ca3f 61c8 b73f
00000040: 3ce0 c43f 3f4a 0c40 bfb2 ee3f c866 bd3f
00000050: f3c1 1140 633a b93f 796d 0840 d3ec b83f
00000060: 27c3 e53f 4a44 ce3f 3f49 de3f eaff ad3f
00000070: 0add a13f 3a80 d13f 62a4 d73f c12b fb3f
00000080: 1484 0a40 7e30 fe3f be3a a03f 6eb6 9f3f
00000090: 86df df3f 9d66 c53f de95 c43f e709 b03f
000000a0: c5bc a43f 6a35 b33f 8f3d dd3f 672c b43f
000000b0: f1e3 d33f a69a 0140 6dd6 c43f 27f1 0640
000000c0: 41c8 be3f db7a c53f c600 c73f 9657 e43f
000000d0: f61b ce3f 328f 0840 4aa4 bc3f 9a73 c23f
000000e0: e35b de3f 02b9 c13f 298f b83f d6b4 0c40
000000f0: 1880 bf3f 38a0 ee3f 6b67 ce3f cbc6 af3f
00000100: a2ba c23f b0c5 b93f 9dcb f63f 1e26 f43f
00000110: 76ef 983f 4e78 753f 363b ba3f 07d3 bc3f
00000120: 4b29 c23f c0c7 d13f eb82 e93f 9695 a73f
00000130: ca46 bc3f d06a bb3f 9cbb e93f 7e82 e53f
00000140: 7a53 1840 b1d7 df3f 3caa cc3f de9a b63f
00000150: 5447 fd3f ebe2 dd3f 203c b23f 799a a93f
00000160: 4ff8 b53f e689 db3f 2643 d53f 5f08 2140
00000170: 2ee0 b03f c625 d33f 07e7 ba3f b06f c63f
00000180: 2b88 0740 31c2 0140 c100 e83f cd18 793f
00000190: c804 0340 6ff9 8e3f 2dc0 933f c3d4 c83f
000001a0: 0593 e23f 3d98 e13f ba88 c03f 0bc4 bc3f
000001b0: a41d d23f 3c7d b23f 9a24 6a3f 563b a03f
000001c0: 3c94 b23f 3a81 983f 4400 c83f a1b3 a93f
000001d0: 2454 da3f 321c e53f c637 b83f 8386 8d3f
000001e0: fe89 f23f 2970 ad3f 878d e53f 47d4 ca3f
000001f0: be6f b73f e67e c93f ad04 ae3f 8dbd eb3f
00000200: eeaa e53f 65ac d23f c61b b83f 7b13 fd3f

bn2.bias f4 [132]
-1.3957022 -0.40281832 -0.53053206 -2.54868 -0.47893703 -0.75769913 -1.5416065 -1.0239676
-0.1420563 -0.13734964 -0.50916916 -2.256387 -0.8426412 -2.8653257 -0.7694982 -0.60503256
-1.8753673 -1.8883827 -2.26609 -0.19387555 -0.5648142 -0.042749207 -3.0984018 -0.92711174
-0.24201114 -1.438182 -1.5217181 -1.1920699 -0.005415748 -0.614605 -1.409984 -1.4301971
-1.9008602 -2.9743934 -0.95002985 -0.29843262 -0.31239134 -0.6967721 -2.1513612 -1.3547413
-1.5691458 -0.73002374 -1.0045348 -2.6388147 -0.41494524 -1.774733 -0.91748035 -1.2737154
-0.85402524 -1.4103957 -0.8361703 -1.3638463 -1.952859 -2.062635 -0.105612315 -1.6352668
-1.0377203 -2.7787876 -1.0582331 -1.8852578 -0.33562922 -0.6569118 -1.0418733 -0.8589118
-1.7896025 -1.7150837 -2.7325268 -1.2658648 0.518904 0.4431594 -0.49349365 -0.37628496
-1.3331605 -1.1911465 0.002331805 -2.0298374 -0.69512045 -1.3186561 -0.41145083 -2.4622862
-0.7816481 -0.95378006 -0.16103256 -1.2807533 -1.4944009 -0.32732657 -1.3579829 -1.5096514
-1.4450997 -2.3318827 -1.3333477 -0.33707404 -0.37240067 -0.5491149 -0.27511564 -2.2815328
-1.7382174 -1.3783563 -1.8461962 -0.08677884 -0.95078206 -0.23531713 0.4521127 -0.7471253
-0.09494026 -0.9225816 -0.21207352 -1.3011285 -1.9981128 -0.40025458 0.13543828 -0.6269752
-1.707745 -1.4609241 -1.6012408 -1.5185833 -0.45274964 -0.9615475 -1.1977922 -0.23078178
-1.3364651 -0.6753148 -2.4027934 -0.2593539 -1.1499851 -1.0727327 -1.0749942 -0.53911895
-2.349887 -1.8587996 -0.535687 -2.757547
00000000: 5fa6 b2bf 343e cebe f3d0 07bf 931d 23c0
00000010: 3c37 f5be 92f8 41bf 5d53 c5bf 5f11 83bf
00000020: 3577 11be 62a5 0cbe e958 02bf a568 10c0
00000030: 55b7 57bf 7f61 37c0 d6fd 44bf 6ae3 1abf
00000040: 090c f0bf 86b6 f1bf 9e07 11c0 5087 46be
00000050: aa97 10bf cb19 2fbd 374c 46c0 3257 6dbf
00000060: c5d1 77be 5916 b8bf a9c7 c2bf bf95 98bf
00000070: 9676 b1bb c156 1dbf 5b7a b4bf b310 b7bf
00000080: 634f f3bf 765c 3ec0 2835 73bf 29cc 98be
00000090: c2f1 9fbe a85f 32bf e7af 09c0 2a68 adbf
000000a0: c5d9 c8bf d6e2 3abf 9994 80bf 57e2 28c0
000000b0: b473 d4be 732a e3bf fedf 6abf 1b09 a3bf
000000c0: 66a1 5abf d987 b4bf 420f 56bf 8492 aebf
000000d0: 49f7 f9bf 3602 04c0 454b d8bd 6c50 d1bf
000000e0: 05d4 84bf a8d7 31c0 2f74 87bf 2150 f1bf
000000f0: 98d7 abbe 5f2b 28bf 1b5c 85bf a5e1 5bbf
00000100: b211 e5bf dd87 dbbf b8e1 2ec0 dc07 a2bf
00000110: e4d6 043f cae5 e23e 33ab fcbe 6ca8 c0be
00000120: 01a5 aabf 7d77 98bf 32d1 183b dbe8 01c0
00000130: 6af3 31bf b9c9 a8bf afa9 d2be 1996 1dc0
00000140: 171a 48bf ee2a 74bf b8e5 24be b9ef a3bf
00000150: 8748 bfbf 5997 a7be 62d2 adbf 423c c1bf
00000160: 07f9 b8bf 913d 15c0 23ab aabf f894 acbe
00000170: 4dab bebe cb92 0cbf f5db 8cbe a204 12c0
00000180: e87d debf fb6d b0bf 2850 ecbf 1bb9 b1bd
00000190: 7466 73bf f9f6 70be 517b e73e 9b43 3fbf
000001a0: 0a70 c2bd 4f2e 6cbf cd29 59be 618b a6bf
000001b0: 29c2 ffbf 2bee ccbe 55b0 0a3e 7281 20bf
000001c0: 6397 dabf 90ff babf 75f5 ccbf f060 c2bf
000001d0: cdce e7be fa27 76bf 4151 99bf 0f52 6cbe
000001e0: 4a11 abbf 6ee1 2cbf 5ec7 19c0 09ca 84be
000001f0: b632 93bf 4e4f 89bf 6999 89bf b303 0abf
00000200: 8c64 16c0 25ed edbf c922 09bf a67b 30c0

bn2.running_mean f4 [132]
2.4629567 -3.704979 -2.228499 2.8508732 1.0300686 -3.069353 -0.4792061 1.0970687
-1.6011703 -0.7660911 -3.6866865 4.3291254 0.2582749 5.2311797 -0.8702639 0.57334304
3.539041 2.1580765 3.8840861 2.5283434 -2.7017386 0.28124368 5.032018 -2.2141593
0.49388054 1.4002721 -2.690902 1.0530483 -4.4501324 -1.0530354 -0.2326256 4.638487
3.0697029 6.2764835 -1.2757975 -1.0336158 -3.4838781 3.7419586 0.9504041 -3.5753255
0.31778112 -2.311101 1.8242924 2.0857437 -6.797973 3.1062121 -0.18302965 4.113449
-2.2810478 -0.0014215385 2.3458252 1.4120251 4.863042 2.5137455 0.9587185 2.1644661
3.1340883 4.8610897 -1.3550785 2.8052413 3.6413908 -0.095070235 3.020718 0.7885744
2.331445 4.1531014 2.762674 0.9311841 -0.7838366 -3.2313604 -0.17211798 -2.0664182
2.4940627 2.52861 -1.6949264 1.0457748 1.1603684 4.746078 -3.636491 6.464321
3.5684733 1.2956973 -2.2575092 0.10983853 1.7219232 -0.0637473 3.5387812 1.7237028
1.496661 4.182178 -2.2053351 -0.74235845 -0.8109255 -0.05713797 0.82696795 1.3836226
6.7859526 4.6027718 5.5933433 1.9023018 3.2178836 -1.7093347 -2.5420978 -2.5582976
-1.8847517 -1.4392108 0.50352496 -2.745504 5.033178 -0.95561624 0.25877762 -2.484
1.8808596 0.8916373 1.6624225 1.7755398 -1.2315269 -0.9397194 0.22058827 1.4890894
1.627796 -1.5946226 3.017799 1.1829717 -0.45941216 2.7415514 -1.2411326 0.56286156
5.1619315 5.070787 -0.191405 6.239852
00000000: 15a1 1d40 601e 6dc0 ba9f 0ec0 b574 3640
00000010: 4ad9 833f 4870 44c0 805a f5be bf6c 8c3f
00000020: 26f3 ccbf 8c1e 44bf acf2 6bc0 3288 8a40
00000030: 9c3c 843e d365 a740 9dc9 5ebf 9cc6 123f
00000040: a67f 6240 ed1d 0a40 de94 7840 61d0 2140
00000050: 49e9 2cc0 2cff 8f3e 4b06 a140 c9b4 0dc0
00000060: e9dd fc3e 1e3c b33f bd37 2cc0 49ca 863f
00000070: 7c67 8ec0 ddc9 86bf 6835 6ebe 7c6e 9440
00000080: 0376 4440 f4d8 c840 554d a3bf 864d 84bf
00000090: dcf7 5ec0 407c 6f40 af4d 733f 22d2 64c0
000000a0: 35b4 a23e 14e9 13c0 6a82 e93f d37c 0540
000000b0: ff88 d9c0 2ecc 4640 206c 3bbe 60a1 8340
000000c0: b0fc 11c0 eb52 baba 0022 1640 3dbd b43f
000000d0: 0a9e 9b40 35e1 2040 936e 753f 9d86 0a40
000000e0: e794 4840 0c8e 9b40 3673 adbf 1389 3340
000000f0: 8c0c 6940 2fb4 c2bd 7253 4140 03e0 493f
00000100: 6536 1540 35e6 8440 a7cf 3040 1562 6e3f
00000110: 84a9 48bf 9cce 4ec0 b23f 30be 3240 04c0
00000120: b99e 1f40 bfd4 2140 59f3 d8bf f3db 853f
00000130: f486 943f dfdf 9740 45bc 68c0 b8db ce40
00000140: de61 6440 69d9 a53f 087b 10c0 06f3 e03d
00000150: fb67 dc3f f28d 82bd 647b 6240 4ba2 dc3f
00000160: 9692 bf3f 67d4 8540 3624 0dc0 340b 3ebf
00000170: d098 4fbf 8109 6abd 2cb4 533f 8c1a b13f
00000180: 8626 d940 e849 9340 abfc b240 a07e f33f
00000190: cef1 4d40 7bcb dabf bbb1 22c0 26bb 23c0
000001a0: 8b3f f1bf 0f38 b8bf 03e7 003f 56b6 2fc0
000001b0: cb0f a140 44a3 74bf 807e 843e dbf9 1ec0
000001c0: 02c0 f03f 5842 643f 43ca d43f e344 e33f
000001d0: aca2 9dbf 7391 70bf e4e1 613e 7b9a be3f
000001e0: 9f5b d03f 981c ccbf 9e23 4140 9e6b 973f
000001f0: 1238 ebbe 9475 2f40 6fdd 9ebf b217 103f
00000200: 8b2e a540 e343 a240 acff 43be deac c740

bn2.running_var f4 [132]
8.715485 5.248016 4.4130993 10.5478115 14.34103 7.098568 9.108526 4.3181853
6.450222 4.1137714 9.809995 10.030461 4.9058304 8.302676 7.874916 5.1309667
7.9442644 6.091931 5.6298637 8.633539 14.330375 6.809027 11.14986 5.2403135
7.7944856 9.341929 6.52898 4.5959487 6.536584 5.1481442 10.203906 13.239469
9.644501 12.330153 4.0928135 3.4321604 10.275266 5.4113965 5.5935903 5.1974516
6.0238333 4.816651 10.264845 6.8050947 14.099853 8.964833 7.783747 7.792164
6.37891 5.2619753 6.230075 3.9386609 7.4171844 9.24123 3.4953046 11.530194
5.9843054 8.145652 5.165487 8.410584 6.4940047 4.423014 10.048765 4.523797
5.83446 9.960907 6.928358 7.4338827 5.5718627 10.6818285 6.8429475 7.6089334
6.8367496 7.1257396 11.608784 5.8109055 5.242099 6.29092 6.56592 10.604082
9.141676 9.635012 6.9050207 2.669369 11.627791 3.2001796 4.7686877 4.8234262
5.872923 10.096774 3.176778 12.748271 7.643357 3.1803365 4.4695115 7.859731
10.446189 14.421966 12.2955885 2.9730833 8.220771 3.5203722 9.045984 7.344296
7.58805 7.075432 8.348541 8.676075 9.015444 4.767664 4.3641505 3.2476625
7.4330163 4.817355 3.4987922 7.1543174 7.8204556 5.554964 5.5114155 5.717448
4.453658 9.606465 8.954063 7.48295 8.483531 8.709108 6.703763 3.273736
11.504503 6.9743323 3.3959694 11.690871
00000000: a072 0b41 bfef a740 1c38 8d40 d6c3 2841
00000010: dc74 6541 7827 e340 86bc 1141 932e 8a40
00000020: 3868 ce40 04a4 8340 bdf5 1c41 c57c 2041
00000030: 90fc 9c40 c3d7 0441 50ff fb40 e130 a440
00000040: 6a37 fe40 19f1 c240 d827 b440 fa22 0a41
00000050: 3749 6541 8de3 d940 d465 3241 a6b0 a740
00000060: 6d6c f940 8b78 1541 67ed d040 0312 9340
00000070: b22b d140 99bd a440 3343 2341 ddd4 5341
00000080: e04f 1a41 4f48 4541 54f8 8240 84a8 5b40
00000090: 7d67 2441 292a ad40 b1fe b240 8651 a640
000000a0: 3ec3 c040 0122 9a40 ce3c 2441 56c3 d940
000000b0: ff98 6141 f56f 0f41 7514 f940 6859 f940
000000c0: 0820 cc40 1a62 a840 c65c c740 0513 7c40
000000d0: 9359 ed40 14dc 1341 12b3 5f40 ad7b 3841
000000e0: 6e7f bf40 9754 0241 ab4b a540 c191 0641
000000f0: e3ce cf40 5589 8d40 bec7 2041 f2c2 9040
00000100: e5b3 ba40 e05f 1f41 1cb5 dd40 5ee2 ed40
00000110: b34c b240 c5e8 2a41 6df9 da40 627c f340
00000120: a7c6 da40 0f06 e440 94bd 3941 f0f2 b940
00000130: 46bf a740 374f c940 041c d240 52aa 2941
00000140: 4e44 1241 0229 1a41 eef5 dc40 f1d6 2a40
00000150: 6f0b 3a41 becf 4c40 1799 9840 8259 9a40
00000160: fcee bb40 638c 2141 5550 4b40 ebf8 4b41
00000170: 6196 f440 a28a 4b40 3d06 8f40 eb82 fb40
00000180: 9723 2741 5fc0 6641 bbba 4441 ff46 3e40
00000190: 4788 0341 c74d 6140 5abc 1041 7904 eb40
000001a0: 4ed1 f240 f069 e240 a093 0541 34d1 0a41
000001b0: 423f 1041 b490 9840 1fa7 8b40 b4d9 4f40
000001c0: 45db ed40 c627 9a40 36ec 5f40 2bf0 e440
000001d0: 2c41 fa40 44c2 b140 845d b040 56f5 b640
000001e0: 5e84 8e40 15b4 1941 d843 0f41 5474 ef40
000001f0: 8bbc 0741 8258 0b41 3a85 d640 e484 5140
00000200: 7212 3841 bb2d df40 9057 5940 cf0d 3b41

fc3.weight f4 [4, 132]
-0.43890792 -0.52671933 0.18240052 -2.6203554 0.44776854 0.15760355 0.9642512 1.7866024
-0.08412639 -1.0956877 -1.1427474 2.5856967 -0.14201584 1.9668293 0.0064587053 -1.2036625
2.1885862 1.2807404 -2.6028461 0.6026501 -1.2077287 0.7534459 0.0020118249 0.6102349
-1.3098563 1.6952926 1.1525264 -0.19206986 -1.1799295 1.0625759 -0.03751287 -0.8512628
-2.0786395 1.7097673 -0.480674 0.5760889 1.3372096 0.36447862 -1.0487124 1.4065164
-1.0645652 -0.027242176 0.6902964 0.9374985 1.2165298 -0.55737156 -0.8546936 2.3469331
0.787038 1.3610985 -0.34401536 -1.2433928 0.70733577 0.6859873 0.7419048 0.35013133
0.48316202 -1.5082902 1.1515845 -0.020427454 0.07123388 -1.2729212 -0.11643108 0.11123977
0.68613404 -0.13166444 0.038096704 -1.9750308 0.89475197 0.79107755 1.1141899 -1.1173888
-1.3810765 -1.0658691 1.0590091 -0.70603824 -0.43096563 -2.0200245 0.49429607 -0.38393098
-2.0533936 0.9898665 -0.89917547 0.97374344 -1.0815957 0.010285657 0.39750156 2.1281743
-1.6508404 0.8955303 -1.3153063 -1.1467395 1.0270704 -0.46375516 0.6659833 -0.44458848
0.26064548 0.07726768 0.7819953 0.6804108 1.017301 -0.031201985 0.22675599 1.3580546
0.9738849 -1.3636465 -0.096450545 -0.9070417 1.2836453 -0.7358339 -0.5309556 -1.2262845
0.6231555 0.4085554 1.3671466 -0.6146864 -1.0209692 -1.1302665 -0.90128005 0.4062832
-1.579837 -0.035107568 -0.40904912 0.6118568 0.85574496 -0.9552049 -1.0288395 0.03797158
2.861909 0.00677968 -1.0462756 -2.5646853 2.7945573 1.224427 -0.46837273 0.6138029
1.7947223 -1.9092492 0.21392635 -0.870722 0.90273905 -0.3193884 0.56607 0.9062274
-1.7547882 0.9621813 -0.8350066 -0.27300376 1.1881343 -2.5680249 -1.980532 1.0578575
1.5864416 0.9364063 1.9764446 0.5711788 0.17610003 0.64755726 -2.6419425 -0.21566474
0.40270936 -0.11219867 -2.3062408 0.5449726 -1.5275407 -2.3602004 -1.5788265 0.042227887
-1.6523645 0.38872853 -0.36725742 0.77465487 -0.31713197 0.96761656 0.3864017 -0.95720774
-1.1591272 2.6514513 1.3105298 1.3958865 -1.8547751 -0.2810015 1.7900451 -0.58773607
1.0638938 0.22105615 0.7280017 1.1398787 1.6020542 0.6731529 1.0908196 1.5627484
-0.21013582 -0.4872033 0.69173074 0.6412585 0.8277972 0.14315514 -1.3754325 -1.3936858
-1.5390993 0.307292 -0.16499816 0.6687659 0.6745867 -0.345403 0.9697328 -0.3653474
0.72713053 -0.34433496 -1.9600142 -2.2648182 -1.2652322 -1.3324541 -0.8179123 -2.26629
-0.13419798 -1.5375721 -0.31118235 -1.4376377 -0.3441267 0.3589334 1.046179 1.851326
-0.4905181 -1.1038628 -0.48306838 1.2005174 -2.4002666 2.7244253 1.7083904 0.89130443
-1.5263911 -1.1973721 0.47390214 1.2590693 1.0920638 -1.0534477 -0.53727275 -1.2265865
-2.6408372 -1.4667864 0.91746545 -0.55476415 0.8937936 0.38192204 -0.2812318 0.23081188
1.1855099 -0.4338614 1.6243541 -0.32022086 -1.1574281 -0.75897926 -0.9241428 -1.3277252
00000000: 8ab8 e0be 14d7 06bf 34c7 3a3e e7b3 27c0
00000010: eb41 e53e d362 213e 2bd9 763f 63af e43f
00000020: 754a acbd 7f3f 8cbf 8c45 92bf 0e7c 2540
00000030: 9a6c 11be 10c1 fb3f 8ca3 d33b 9d11 9abf
00000040: cc11 0c40 4def a33f 0895 26c0 4747 1a3f
00000050: db96 9abf d5e1 403f d2d8 033b 5b38 1c3f
00000060: 5fa9 a7bf 59ff d83f fc85 933f f6ad 44be
00000070: ee07 97bf 7d02 883f 18a7 19bd 5cec 59bf
00000080: 6e08 05c0 a8d9 da3f e71a f6be 907a 133f
00000090: af29 ab3f f19c ba3e 353c 86bf bb08 b43f
000000a0: ac43 88bf fc2a dfbc 44b7 303f e7ff 6f3f
000000b0: 40b7 9b3f e7af 0ebf 33cd 5abf 2734 1640
000000c0: 537b 493f 7a38 ae3f c822 b0be 7f27 9fbf
000000d0: f513 353f dd9c 2f3f 79ed 3d3f 6a44 b33e
000000e0: 0361 f73e a70f c1bf 1f67 933f 7a57 a7bc
000000f0: 12e3 913d 15ef a2bf 6b73 eebd add1 e33d
00000100: 7ba6 2f3f 0bd3 06be 4a0b 1c3d cfcd fcbf
00000110: 770e 653f 0f84 4a3f c69d 8e3f 9906 8fbf
00000120: 1dc7 b0bf 666e 88bf 9c8d 873f ecbe 34bf
00000130: 87a7 dcbe 1548 01c0 6014 fd3e 9a92 c4be
00000140: cd6a 03c0 e467 7d3f 5d30 66bf 4047 793f
00000150: ba71 8abf 2c85 283c 5385 cb3e 0234 0840
00000160: bd4e d3bf 7941 653f f55b a8bf 5cc8 92bf
00000170: 0b77 833f 5171 edbe e27d 2a3f 1aa1 e3be
00000180: 5373 853e 843e 9e3d d830 483f 672f 2e3f
00000190: eb36 823f 4e9b ffbc b932 683e bcd4 ad3f
000001a0: 8550 793f f88b aebf dd87 c5bd e333 68bf
000001b0: 7d4e a43f 9c5f 3cbf b5ec 07bf e4f6 9cbf
000001c0: 1e87 1f3f 2c2e d13e a9fe ae3f 175c 1dbf
000001d0: 1eaf 82bf 93ac 90bf 4aba 66bf 5a04 d03e
000001e0: 1938 cabf f4cc 0fbd e36e d1be a6a2 1c3f
000001f0: 1a12 5b3f 4f88 74bf 03b1 83bf 1688 1b3d
00000200: 8429 3740 1428 de3b 5cec 85bf ce23 24c0
00000210: 07da 3240 06ba 9c3f 8dce efbe 3022 1d3f
00000220: 76b9 e53f 4762 f4bf 820f 5b3e a3e7 5ebf
00000230: e819 673f e086 a3be f7e9 103f 85fe 673f
00000240: e69c e0bf 8451 763f fec2 55bf 26c7 8bbe
00000250: c914 983f 855a 24c0 1382 fdbf e067 873f
00000260: 8510 cb3f 53b8 6f3f 23fc fc3f c638 123f
00000270: 9153 343e 50c6 253f 9615 29c0 38d7 5cbe
00000280: ec2f ce3e 6bc8 e5bd 7399 13c0 5383 0b3f
00000290: 7486 c3bf 860d 17c0 fd16 cabf 26f7 2c3d
000002a0: ae80 d3bf 6d07 c73e 2a09 bcbe c84f 463f
000002b0: 1f5f a2be b8b5 773f 72d6 c53e 910b 75bf
000002c0: 485e 94bf 61b1 2940 71bf a73f 69ac b23f
000002d0: 4569 edbf 6edf 8fbe 3320 e53f df75 16bf
000002e0: ac2d 883f 8b5c 623e 525e 3a3f 8ce7 913f
000002f0: 1d10 cd3f c053 2c3f fa9f 8b3f 2408 c83f
00000300: d82d 57be b672 f9be 4415 313f 8429 243f
00000310: 84ea 533f 4397 123e 2c0e b0bf 4c64 b2bf
00000320: 3501 c5bf 6155 9d3e 47f5 28be 3e34 2b3f
00000330: b7b1 2c3f a9d8 b0be 6940 783f d00e bbbe
00000340: 3a25 3a3f ac4c b0be bfe1 fabf c8f2 10c0
00000350: 21f3 a1bf db8d aabf b362 51bf e50a 11c0
00000360: 326b 09be 2acf c4bf 4b53 9fbe 8304 b8bf
00000370: 6031 b0be 1ec6 b73e 32e9 853f 40f8 ec3f
00000380: 3025 fbbe 604b 8dbf bd54 f7be 8eaa 993f
00000390: f89d 19c0 fc5c 2e40 89ac da3f 872c 643f
000003a0: c960 c3bf 7d43 99bf 4da3 f23e 2f29 a13f
000003b0: bfc8 8b3f 60d7 86bf b58a 09bf c900 9dbf
000003c0: 7a03 29c0 a8bf bbbf 04df 6a3f 0605 0ebf
000003d0: a8cf 643f 498b c33e 9dfd 8fbe f359 6c3e
000003e0: cabe 973f 1523 debe d6ea cf3f fdf3 a3be
000003f0: 9b26 94bf 774c 42bf 9f94 6cbf e6f2 a9bf

fc3.bias f4 [4]
0.101418905 0.23076734 0.3046335 -0.07752521
00000000: b7b4 cf3d 464e 6c3e ecf8 9b3e 8ac5 9ebd
